{
    "format": "graph-model",
    "generatedBy": "2.13.0",
    "convertedBy": "TensorFlow.js Converter v4.9.0",
    "signature": {
        "inputs": {
            "input": {
                "name": "input:0",
                "dtype": "DT_FLOAT",
                "tensorShape": {
                    "dim": [
                        { "size": "1" },
                        { "size": "384" },
                        { "size": "384" },
                        { "size": "3" }
                    ]
                }
            },
            "hi4": {
                "name": "hi4:0",
                "dtype": "DT_FLOAT",
                "tensorShape": {
                    "dim": [
                        { "size": "1" },
                        { "size": "10" },
                        { "size": "192" },
                        { "size": "192" }
                    ]
                }
            },
            "hi3": {
                "name": "hi3:0",
                "dtype": "DT_FLOAT",
                "tensorShape": {
                    "dim": [
                        { "size": "1" },
                        { "size": "12" },
                        { "size": "96" },
                        { "size": "96" }
                    ]
                }
            },
            "hi1": {
                "name": "hi1:0",
                "dtype": "DT_FLOAT",
                "tensorShape": {
                    "dim": [
                        { "size": "1" },
                        { "size": "20" },
                        { "size": "24" },
                        { "size": "24" }
                    ]
                }
            },
            "hi2": {
                "name": "hi2:0",
                "dtype": "DT_FLOAT",
                "tensorShape": {
                    "dim": [
                        { "size": "1" },
                        { "size": "16" },
                        { "size": "48" },
                        { "size": "48" }
                    ]
                }
            }
        },
        "outputs": {
            "ho3": {
                "name": "Identity_2:0",
                "dtype": "DT_FLOAT",
                "tensorShape": {
                    "dim": [
                        { "size": "1" },
                        { "size": "12" },
                        { "size": "96" },
                        { "size": "96" }
                    ]
                }
            },
            "output": {
                "name": "Identity_4:0",
                "dtype": "DT_FLOAT",
                "tensorShape": {
                    "dim": [
                        { "size": "1" },
                        { "size": "1" },
                        { "size": "384" },
                        { "size": "384" }
                    ]
                }
            },
            "ho2": {
                "name": "Identity_1:0",
                "dtype": "DT_FLOAT",
                "tensorShape": {
                    "dim": [
                        { "size": "1" },
                        { "size": "16" },
                        { "size": "48" },
                        { "size": "48" }
                    ]
                }
            },
            "ho4": {
                "name": "Identity_3:0",
                "dtype": "DT_FLOAT",
                "tensorShape": {
                    "dim": [
                        { "size": "1" },
                        { "size": "10" },
                        { "size": "192" },
                        { "size": "192" }
                    ]
                }
            },
            "ho1": {
                "name": "Identity:0",
                "dtype": "DT_FLOAT",
                "tensorShape": {
                    "dim": [
                        { "size": "1" },
                        { "size": "20" },
                        { "size": "24" },
                        { "size": "24" }
                    ]
                }
            }
        }
    },
    "modelTopology": {
        "node": [
            {
                "name": "PartitionedCall/Cast_19",
                "op": "Const",
                "attr": {
                    "dtype": { "type": "DT_INT32" },
                    "value": {
                        "tensor": {
                            "dtype": "DT_INT32",
                            "tensorShape": { "dim": [{ "size": "2" }] }
                        }
                    }
                }
            },
            {
                "name": "PartitionedCall/transpose_176/perm",
                "op": "Const",
                "attr": {
                    "dtype": { "type": "DT_INT32" },
                    "value": {
                        "tensor": {
                            "dtype": "DT_INT32",
                            "tensorShape": { "dim": [{ "size": "4" }] }
                        }
                    }
                }
            },
            {
                "name": "PartitionedCall/onnx_tf_prefix_/_net/_net2/ReduceMean/reduction_indices",
                "op": "Const",
                "attr": {
                    "dtype": { "type": "DT_INT32" },
                    "value": {
                        "tensor": { "dtype": "DT_INT32", "tensorShape": {} }
                    }
                }
            },
            {
                "name": "PartitionedCall/onnx_tf_prefix_/_net/_net2/Concat_1/axis",
                "op": "Const",
                "attr": {
                    "value": {
                        "tensor": { "dtype": "DT_INT32", "tensorShape": {} }
                    },
                    "dtype": { "type": "DT_INT32" }
                }
            },
            {
                "name": "PartitionedCall/Const_55",
                "op": "Const",
                "attr": {
                    "value": {
                        "tensor": {
                            "dtype": "DT_INT32",
                            "tensorShape": {
                                "dim": [{ "size": "4" }, { "size": "2" }]
                            }
                        }
                    },
                    "dtype": { "type": "DT_INT32" }
                }
            },
            {
                "name": "PartitionedCall/transpose_164/perm",
                "op": "Const",
                "attr": {
                    "dtype": { "type": "DT_INT32" },
                    "value": {
                        "tensor": {
                            "dtype": "DT_INT32",
                            "tensorShape": { "dim": [{ "size": "4" }] }
                        }
                    }
                }
            },
            {
                "name": "PartitionedCall/Reshape_18",
                "op": "Const",
                "attr": {
                    "dtype": { "type": "DT_FLOAT" },
                    "value": {
                        "tensor": {
                            "dtype": "DT_FLOAT",
                            "tensorShape": {
                                "dim": [
                                    { "size": "3" },
                                    { "size": "3" },
                                    { "size": "4" },
                                    { "size": "1" }
                                ]
                            }
                        }
                    }
                }
            },
            {
                "name": "PartitionedCall/transpose_165/perm",
                "op": "Const",
                "attr": {
                    "value": {
                        "tensor": {
                            "dtype": "DT_INT32",
                            "tensorShape": { "dim": [{ "size": "4" }] }
                        }
                    },
                    "dtype": { "type": "DT_INT32" }
                }
            },
            {
                "name": "PartitionedCall/SelectV2_17",
                "op": "Const",
                "attr": {
                    "value": {
                        "tensor": {
                            "dtype": "DT_INT64",
                            "tensorShape": { "dim": [{ "size": "1" }] }
                        }
                    },
                    "dtype": { "type": "DT_INT64" }
                }
            },
            {
                "name": "PartitionedCall/zeros_4",
                "op": "Const",
                "attr": {
                    "value": {
                        "tensor": { "dtype": "DT_INT64", "tensorShape": {} }
                    },
                    "dtype": { "type": "DT_INT64" }
                }
            },
            {
                "name": "PartitionedCall/Const_46",
                "op": "Const",
                "attr": {
                    "dtype": { "type": "DT_INT64" },
                    "value": {
                        "tensor": { "dtype": "DT_INT64", "tensorShape": {} }
                    }
                }
            },
            {
                "name": "PartitionedCall/Shape_4",
                "op": "Const",
                "attr": {
                    "value": {
                        "tensor": {
                            "dtype": "DT_INT64",
                            "tensorShape": { "dim": [{ "size": "4" }] }
                        }
                    },
                    "dtype": { "type": "DT_INT64" }
                }
            },
            {
                "name": "PartitionedCall/SelectV2_18",
                "op": "Const",
                "attr": {
                    "dtype": { "type": "DT_INT64" },
                    "value": {
                        "tensor": {
                            "dtype": "DT_INT64",
                            "tensorShape": { "dim": [{ "size": "1" }] }
                        }
                    }
                }
            },
            {
                "name": "PartitionedCall/Const_45",
                "op": "Const",
                "attr": {
                    "dtype": { "type": "DT_INT64" },
                    "value": {
                        "tensor": { "dtype": "DT_INT64", "tensorShape": {} }
                    }
                }
            },
            {
                "name": "PartitionedCall/ExpandDims_4",
                "op": "Const",
                "attr": {
                    "value": {
                        "tensor": {
                            "dtype": "DT_INT64",
                            "tensorShape": {
                                "dim": [{ "size": "1" }, { "size": "1" }]
                            }
                        }
                    },
                    "dtype": { "type": "DT_INT64" }
                }
            },
            {
                "name": "PartitionedCall/Cast_14",
                "op": "Const",
                "attr": {
                    "value": {
                        "tensor": {
                            "dtype": "DT_INT64",
                            "tensorShape": { "dim": [{ "size": "1" }] }
                        }
                    },
                    "dtype": { "type": "DT_INT64" }
                }
            },
            {
                "name": "PartitionedCall/Const_47",
                "op": "Const",
                "attr": {
                    "value": {
                        "tensor": { "dtype": "DT_INT64", "tensorShape": {} }
                    },
                    "dtype": { "type": "DT_INT64" }
                }
            },
            {
                "name": "PartitionedCall/Const_44",
                "op": "Const",
                "attr": {
                    "dtype": { "type": "DT_INT32" },
                    "value": {
                        "tensor": {
                            "dtype": "DT_INT32",
                            "tensorShape": {
                                "dim": [{ "size": "4" }, { "size": "2" }]
                            }
                        }
                    }
                }
            },
            {
                "name": "PartitionedCall/transpose_158/perm",
                "op": "Const",
                "attr": {
                    "value": {
                        "tensor": {
                            "dtype": "DT_INT32",
                            "tensorShape": { "dim": [{ "size": "4" }] }
                        }
                    },
                    "dtype": { "type": "DT_INT32" }
                }
            },
            {
                "name": "PartitionedCall/split_41",
                "op": "Const",
                "attr": {
                    "dtype": { "type": "DT_FLOAT" },
                    "value": {
                        "tensor": {
                            "dtype": "DT_FLOAT",
                            "tensorShape": {
                                "dim": [
                                    { "size": "3" },
                                    { "size": "3" },
                                    { "size": "16" },
                                    { "size": "5" }
                                ]
                            }
                        }
                    }
                }
            },
            {
                "name": "unknown_108",
                "op": "Const",
                "attr": {
                    "dtype": { "type": "DT_FLOAT" },
                    "value": {
                        "tensor": {
                            "dtype": "DT_FLOAT",
                            "tensorShape": { "dim": [{ "size": "5" }] }
                        }
                    }
                }
            },
            {
                "name": "PartitionedCall/transpose_159/perm",
                "op": "Const",
                "attr": {
                    "value": {
                        "tensor": {
                            "dtype": "DT_INT32",
                            "tensorShape": { "dim": [{ "size": "4" }] }
                        }
                    },
                    "dtype": { "type": "DT_INT32" }
                }
            },
            {
                "name": "PartitionedCall/SelectV2_21",
                "op": "Const",
                "attr": {
                    "dtype": { "type": "DT_INT64" },
                    "value": {
                        "tensor": {
                            "dtype": "DT_INT64",
                            "tensorShape": { "dim": [{ "size": "1" }] }
                        }
                    }
                }
            },
            {
                "name": "PartitionedCall/zeros_5",
                "op": "Const",
                "attr": {
                    "value": {
                        "tensor": { "dtype": "DT_INT64", "tensorShape": {} }
                    },
                    "dtype": { "type": "DT_INT64" }
                }
            },
            {
                "name": "PartitionedCall/Const_49",
                "op": "Const",
                "attr": {
                    "value": {
                        "tensor": { "dtype": "DT_INT64", "tensorShape": {} }
                    },
                    "dtype": { "type": "DT_INT64" }
                }
            },
            {
                "name": "PartitionedCall/Shape_5",
                "op": "Const",
                "attr": {
                    "value": {
                        "tensor": {
                            "dtype": "DT_INT64",
                            "tensorShape": { "dim": [{ "size": "4" }] }
                        }
                    },
                    "dtype": { "type": "DT_INT64" }
                }
            },
            {
                "name": "PartitionedCall/SelectV2_22",
                "op": "Const",
                "attr": {
                    "value": {
                        "tensor": {
                            "dtype": "DT_INT64",
                            "tensorShape": { "dim": [{ "size": "1" }] }
                        }
                    },
                    "dtype": { "type": "DT_INT64" }
                }
            },
            {
                "name": "PartitionedCall/Const_48",
                "op": "Const",
                "attr": {
                    "dtype": { "type": "DT_INT64" },
                    "value": {
                        "tensor": { "dtype": "DT_INT64", "tensorShape": {} }
                    }
                }
            },
            {
                "name": "PartitionedCall/ExpandDims_5",
                "op": "Const",
                "attr": {
                    "dtype": { "type": "DT_INT64" },
                    "value": {
                        "tensor": {
                            "dtype": "DT_INT64",
                            "tensorShape": {
                                "dim": [{ "size": "1" }, { "size": "1" }]
                            }
                        }
                    }
                }
            },
            {
                "name": "PartitionedCall/Cast_16",
                "op": "Const",
                "attr": {
                    "dtype": { "type": "DT_INT64" },
                    "value": {
                        "tensor": {
                            "dtype": "DT_INT64",
                            "tensorShape": { "dim": [{ "size": "1" }] }
                        }
                    }
                }
            },
            {
                "name": "PartitionedCall/Const_50",
                "op": "Const",
                "attr": {
                    "value": {
                        "tensor": { "dtype": "DT_INT64", "tensorShape": {} }
                    },
                    "dtype": { "type": "DT_INT64" }
                }
            },
            {
                "name": "PartitionedCall/onnx_tf_prefix_/_net/_net1/decoder/Concat_16/axis",
                "op": "Const",
                "attr": {
                    "value": {
                        "tensor": { "dtype": "DT_INT32", "tensorShape": {} }
                    },
                    "dtype": { "type": "DT_INT32" }
                }
            },
            {
                "name": "PartitionedCall/SelectV2_25",
                "op": "Const",
                "attr": {
                    "value": {
                        "tensor": {
                            "dtype": "DT_INT64",
                            "tensorShape": { "dim": [{ "size": "1" }] }
                        }
                    },
                    "dtype": { "type": "DT_INT64" }
                }
            },
            {
                "name": "PartitionedCall/zeros_6",
                "op": "Const",
                "attr": {
                    "dtype": { "type": "DT_INT64" },
                    "value": {
                        "tensor": { "dtype": "DT_INT64", "tensorShape": {} }
                    }
                }
            },
            {
                "name": "PartitionedCall/Const_52",
                "op": "Const",
                "attr": {
                    "dtype": { "type": "DT_INT64" },
                    "value": {
                        "tensor": { "dtype": "DT_INT64", "tensorShape": {} }
                    }
                }
            },
            {
                "name": "PartitionedCall/Shape_6",
                "op": "Const",
                "attr": {
                    "dtype": { "type": "DT_INT64" },
                    "value": {
                        "tensor": {
                            "dtype": "DT_INT64",
                            "tensorShape": { "dim": [{ "size": "4" }] }
                        }
                    }
                }
            },
            {
                "name": "PartitionedCall/SelectV2_26",
                "op": "Const",
                "attr": {
                    "value": {
                        "tensor": {
                            "dtype": "DT_INT64",
                            "tensorShape": { "dim": [{ "size": "1" }] }
                        }
                    },
                    "dtype": { "type": "DT_INT64" }
                }
            },
            {
                "name": "PartitionedCall/Const_51",
                "op": "Const",
                "attr": {
                    "value": {
                        "tensor": { "dtype": "DT_INT64", "tensorShape": {} }
                    },
                    "dtype": { "type": "DT_INT64" }
                }
            },
            {
                "name": "PartitionedCall/ExpandDims_6",
                "op": "Const",
                "attr": {
                    "dtype": { "type": "DT_INT64" },
                    "value": {
                        "tensor": {
                            "dtype": "DT_INT64",
                            "tensorShape": {
                                "dim": [{ "size": "1" }, { "size": "1" }]
                            }
                        }
                    }
                }
            },
            {
                "name": "PartitionedCall/Cast_18",
                "op": "Const",
                "attr": {
                    "value": {
                        "tensor": {
                            "dtype": "DT_INT64",
                            "tensorShape": { "dim": [{ "size": "1" }] }
                        }
                    },
                    "dtype": { "type": "DT_INT64" }
                }
            },
            {
                "name": "PartitionedCall/Const_53",
                "op": "Const",
                "attr": {
                    "value": {
                        "tensor": { "dtype": "DT_INT64", "tensorShape": {} }
                    },
                    "dtype": { "type": "DT_INT64" }
                }
            },
            {
                "name": "PartitionedCall/Const_54",
                "op": "Const",
                "attr": {
                    "value": {
                        "tensor": {
                            "dtype": "DT_INT32",
                            "tensorShape": {
                                "dim": [{ "size": "4" }, { "size": "2" }]
                            }
                        }
                    },
                    "dtype": { "type": "DT_INT32" }
                }
            },
            {
                "name": "PartitionedCall/transpose_161/perm",
                "op": "Const",
                "attr": {
                    "value": {
                        "tensor": {
                            "dtype": "DT_INT32",
                            "tensorShape": { "dim": [{ "size": "4" }] }
                        }
                    },
                    "dtype": { "type": "DT_INT32" }
                }
            },
            {
                "name": "PartitionedCall/Reshape_17",
                "op": "Const",
                "attr": {
                    "dtype": { "type": "DT_FLOAT" },
                    "value": {
                        "tensor": {
                            "dtype": "DT_FLOAT",
                            "tensorShape": {
                                "dim": [
                                    { "size": "3" },
                                    { "size": "3" },
                                    { "size": "4" },
                                    { "size": "1" }
                                ]
                            }
                        }
                    }
                }
            },
            {
                "name": "PartitionedCall/transpose_162/perm",
                "op": "Const",
                "attr": {
                    "dtype": { "type": "DT_INT32" },
                    "value": {
                        "tensor": {
                            "dtype": "DT_INT32",
                            "tensorShape": { "dim": [{ "size": "4" }] }
                        }
                    }
                }
            },
            {
                "name": "PartitionedCall/Const_2",
                "op": "Const",
                "attr": {
                    "dtype": { "type": "DT_INT32" },
                    "value": {
                        "tensor": {
                            "dtype": "DT_INT32",
                            "tensorShape": {
                                "dim": [{ "size": "4" }, { "size": "2" }]
                            }
                        }
                    }
                }
            },
            {
                "name": "PartitionedCall/transpose_15/perm",
                "op": "Const",
                "attr": {
                    "value": {
                        "tensor": {
                            "dtype": "DT_INT32",
                            "tensorShape": { "dim": [{ "size": "4" }] }
                        }
                    },
                    "dtype": { "type": "DT_INT32" }
                }
            },
            {
                "name": "PartitionedCall/Reshape_1",
                "op": "Const",
                "attr": {
                    "value": {
                        "tensor": {
                            "dtype": "DT_FLOAT",
                            "tensorShape": {
                                "dim": [
                                    { "size": "3" },
                                    { "size": "3" },
                                    { "size": "4" },
                                    { "size": "1" }
                                ]
                            }
                        }
                    },
                    "dtype": { "type": "DT_FLOAT" }
                }
            },
            {
                "name": "PartitionedCall/transpose_16/perm",
                "op": "Const",
                "attr": {
                    "dtype": { "type": "DT_INT32" },
                    "value": {
                        "tensor": {
                            "dtype": "DT_INT32",
                            "tensorShape": { "dim": [{ "size": "4" }] }
                        }
                    }
                }
            },
            {
                "name": "PartitionedCall/onnx_tf_prefix_/_net/_net1/decoder/convGRU4/gru_cell/Concat/axis",
                "op": "Const",
                "attr": {
                    "dtype": { "type": "DT_INT32" },
                    "value": {
                        "tensor": { "dtype": "DT_INT32", "tensorShape": {} }
                    }
                }
            },
            {
                "name": "PartitionedCall/Const_36",
                "op": "Const",
                "attr": {
                    "dtype": { "type": "DT_INT32" },
                    "value": {
                        "tensor": {
                            "dtype": "DT_INT32",
                            "tensorShape": {
                                "dim": [{ "size": "4" }, { "size": "2" }]
                            }
                        }
                    }
                }
            },
            {
                "name": "PartitionedCall/transpose_144/perm",
                "op": "Const",
                "attr": {
                    "dtype": { "type": "DT_INT32" },
                    "value": {
                        "tensor": {
                            "dtype": "DT_INT32",
                            "tensorShape": { "dim": [{ "size": "4" }] }
                        }
                    }
                }
            },
            {
                "name": "PartitionedCall/split_37",
                "op": "Const",
                "attr": {
                    "value": {
                        "tensor": {
                            "dtype": "DT_FLOAT",
                            "tensorShape": {
                                "dim": [
                                    { "size": "3" },
                                    { "size": "3" },
                                    { "size": "20" },
                                    { "size": "20" }
                                ]
                            }
                        }
                    },
                    "dtype": { "type": "DT_FLOAT" }
                }
            },
            {
                "name": "unknown_98",
                "op": "Const",
                "attr": {
                    "dtype": { "type": "DT_FLOAT" },
                    "value": {
                        "tensor": {
                            "dtype": "DT_FLOAT",
                            "tensorShape": { "dim": [{ "size": "20" }] }
                        }
                    }
                }
            },
            {
                "name": "PartitionedCall/transpose_145/perm",
                "op": "Const",
                "attr": {
                    "dtype": { "type": "DT_INT32" },
                    "value": {
                        "tensor": {
                            "dtype": "DT_INT32",
                            "tensorShape": { "dim": [{ "size": "4" }] }
                        }
                    }
                }
            },
            {
                "name": "PartitionedCall/Const_37",
                "op": "Const",
                "attr": {
                    "value": {
                        "tensor": {
                            "dtype": "DT_INT32",
                            "tensorShape": { "dim": [{ "size": "2" }] }
                        }
                    },
                    "dtype": { "type": "DT_INT32" }
                }
            },
            {
                "name": "PartitionedCall/onnx_tf_prefix_/_net/_net1/decoder/convGRU4/gru_cell/Split/split_dim",
                "op": "Const",
                "attr": {
                    "value": {
                        "tensor": { "dtype": "DT_INT32", "tensorShape": {} }
                    },
                    "dtype": { "type": "DT_INT32" }
                }
            },
            {
                "name": "PartitionedCall/onnx_tf_prefix_/_net/_net1/decoder/convGRU4/gru_cell/Concat_1/axis",
                "op": "Const",
                "attr": {
                    "dtype": { "type": "DT_INT32" },
                    "value": {
                        "tensor": { "dtype": "DT_INT32", "tensorShape": {} }
                    }
                }
            },
            {
                "name": "PartitionedCall/Const_38",
                "op": "Const",
                "attr": {
                    "dtype": { "type": "DT_INT32" },
                    "value": {
                        "tensor": {
                            "dtype": "DT_INT32",
                            "tensorShape": {
                                "dim": [{ "size": "4" }, { "size": "2" }]
                            }
                        }
                    }
                }
            },
            {
                "name": "PartitionedCall/transpose_147/perm",
                "op": "Const",
                "attr": {
                    "dtype": { "type": "DT_INT32" },
                    "value": {
                        "tensor": {
                            "dtype": "DT_INT32",
                            "tensorShape": { "dim": [{ "size": "4" }] }
                        }
                    }
                }
            },
            {
                "name": "PartitionedCall/split_38",
                "op": "Const",
                "attr": {
                    "dtype": { "type": "DT_FLOAT" },
                    "value": {
                        "tensor": {
                            "dtype": "DT_FLOAT",
                            "tensorShape": {
                                "dim": [
                                    { "size": "3" },
                                    { "size": "3" },
                                    { "size": "20" },
                                    { "size": "10" }
                                ]
                            }
                        }
                    }
                }
            },
            {
                "name": "unknown_100",
                "op": "Const",
                "attr": {
                    "value": {
                        "tensor": {
                            "dtype": "DT_FLOAT",
                            "tensorShape": { "dim": [{ "size": "10" }] }
                        }
                    },
                    "dtype": { "type": "DT_FLOAT" }
                }
            },
            {
                "name": "PartitionedCall/transpose_148/perm",
                "op": "Const",
                "attr": {
                    "dtype": { "type": "DT_INT32" },
                    "value": {
                        "tensor": {
                            "dtype": "DT_INT32",
                            "tensorShape": { "dim": [{ "size": "4" }] }
                        }
                    }
                }
            },
            {
                "name": "PartitionedCall/transpose_6/perm",
                "op": "Const",
                "attr": {
                    "value": {
                        "tensor": {
                            "dtype": "DT_INT32",
                            "tensorShape": { "dim": [{ "size": "4" }] }
                        }
                    },
                    "dtype": { "type": "DT_INT32" }
                }
            },
            {
                "name": "PartitionedCall/onnx_tf_prefix_/_net/_net1/decoder/convGRU3/gru_cell/Concat/axis",
                "op": "Const",
                "attr": {
                    "dtype": { "type": "DT_INT32" },
                    "value": {
                        "tensor": { "dtype": "DT_INT32", "tensorShape": {} }
                    }
                }
            },
            {
                "name": "PartitionedCall/Const_28",
                "op": "Const",
                "attr": {
                    "value": {
                        "tensor": {
                            "dtype": "DT_INT32",
                            "tensorShape": {
                                "dim": [{ "size": "4" }, { "size": "2" }]
                            }
                        }
                    },
                    "dtype": { "type": "DT_INT32" }
                }
            },
            {
                "name": "PartitionedCall/transpose_133/perm",
                "op": "Const",
                "attr": {
                    "value": {
                        "tensor": {
                            "dtype": "DT_INT32",
                            "tensorShape": { "dim": [{ "size": "4" }] }
                        }
                    },
                    "dtype": { "type": "DT_INT32" }
                }
            },
            {
                "name": "PartitionedCall/split_34",
                "op": "Const",
                "attr": {
                    "value": {
                        "tensor": {
                            "dtype": "DT_FLOAT",
                            "tensorShape": {
                                "dim": [
                                    { "size": "3" },
                                    { "size": "3" },
                                    { "size": "24" },
                                    { "size": "24" }
                                ]
                            }
                        }
                    },
                    "dtype": { "type": "DT_FLOAT" }
                }
            },
            {
                "name": "unknown_90",
                "op": "Const",
                "attr": {
                    "value": {
                        "tensor": {
                            "dtype": "DT_FLOAT",
                            "tensorShape": { "dim": [{ "size": "24" }] }
                        }
                    },
                    "dtype": { "type": "DT_FLOAT" }
                }
            },
            {
                "name": "PartitionedCall/transpose_134/perm",
                "op": "Const",
                "attr": {
                    "dtype": { "type": "DT_INT32" },
                    "value": {
                        "tensor": {
                            "dtype": "DT_INT32",
                            "tensorShape": { "dim": [{ "size": "4" }] }
                        }
                    }
                }
            },
            {
                "name": "PartitionedCall/Const_29",
                "op": "Const",
                "attr": {
                    "dtype": { "type": "DT_INT32" },
                    "value": {
                        "tensor": {
                            "dtype": "DT_INT32",
                            "tensorShape": { "dim": [{ "size": "2" }] }
                        }
                    }
                }
            },
            {
                "name": "PartitionedCall/onnx_tf_prefix_/_net/_net1/decoder/convGRU3/gru_cell/Split/split_dim",
                "op": "Const",
                "attr": {
                    "dtype": { "type": "DT_INT32" },
                    "value": {
                        "tensor": { "dtype": "DT_INT32", "tensorShape": {} }
                    }
                }
            },
            {
                "name": "PartitionedCall/onnx_tf_prefix_/_net/_net1/decoder/convGRU3/gru_cell/Concat_1/axis",
                "op": "Const",
                "attr": {
                    "dtype": { "type": "DT_INT32" },
                    "value": {
                        "tensor": { "dtype": "DT_INT32", "tensorShape": {} }
                    }
                }
            },
            {
                "name": "PartitionedCall/Const_30",
                "op": "Const",
                "attr": {
                    "dtype": { "type": "DT_INT32" },
                    "value": {
                        "tensor": {
                            "dtype": "DT_INT32",
                            "tensorShape": {
                                "dim": [{ "size": "4" }, { "size": "2" }]
                            }
                        }
                    }
                }
            },
            {
                "name": "PartitionedCall/transpose_136/perm",
                "op": "Const",
                "attr": {
                    "value": {
                        "tensor": {
                            "dtype": "DT_INT32",
                            "tensorShape": { "dim": [{ "size": "4" }] }
                        }
                    },
                    "dtype": { "type": "DT_INT32" }
                }
            },
            {
                "name": "PartitionedCall/split_35",
                "op": "Const",
                "attr": {
                    "value": {
                        "tensor": {
                            "dtype": "DT_FLOAT",
                            "tensorShape": {
                                "dim": [
                                    { "size": "3" },
                                    { "size": "3" },
                                    { "size": "24" },
                                    { "size": "12" }
                                ]
                            }
                        }
                    },
                    "dtype": { "type": "DT_FLOAT" }
                }
            },
            {
                "name": "unknown_92",
                "op": "Const",
                "attr": {
                    "value": {
                        "tensor": {
                            "dtype": "DT_FLOAT",
                            "tensorShape": { "dim": [{ "size": "12" }] }
                        }
                    },
                    "dtype": { "type": "DT_FLOAT" }
                }
            },
            {
                "name": "PartitionedCall/transpose_137/perm",
                "op": "Const",
                "attr": {
                    "value": {
                        "tensor": {
                            "dtype": "DT_INT32",
                            "tensorShape": { "dim": [{ "size": "4" }] }
                        }
                    },
                    "dtype": { "type": "DT_INT32" }
                }
            },
            {
                "name": "PartitionedCall/transpose_8/perm",
                "op": "Const",
                "attr": {
                    "value": {
                        "tensor": {
                            "dtype": "DT_INT32",
                            "tensorShape": { "dim": [{ "size": "4" }] }
                        }
                    },
                    "dtype": { "type": "DT_INT32" }
                }
            },
            {
                "name": "PartitionedCall/onnx_tf_prefix_/_net/_net1/decoder/convGRU2/gru_cell/Concat/axis",
                "op": "Const",
                "attr": {
                    "value": {
                        "tensor": { "dtype": "DT_INT32", "tensorShape": {} }
                    },
                    "dtype": { "type": "DT_INT32" }
                }
            },
            {
                "name": "PartitionedCall/Const_20",
                "op": "Const",
                "attr": {
                    "dtype": { "type": "DT_INT32" },
                    "value": {
                        "tensor": {
                            "dtype": "DT_INT32",
                            "tensorShape": {
                                "dim": [{ "size": "4" }, { "size": "2" }]
                            }
                        }
                    }
                }
            },
            {
                "name": "PartitionedCall/transpose_122/perm",
                "op": "Const",
                "attr": {
                    "dtype": { "type": "DT_INT32" },
                    "value": {
                        "tensor": {
                            "dtype": "DT_INT32",
                            "tensorShape": { "dim": [{ "size": "4" }] }
                        }
                    }
                }
            },
            {
                "name": "PartitionedCall/split_31",
                "op": "Const",
                "attr": {
                    "dtype": { "type": "DT_FLOAT" },
                    "value": {
                        "tensor": {
                            "dtype": "DT_FLOAT",
                            "tensorShape": {
                                "dim": [
                                    { "size": "3" },
                                    { "size": "3" },
                                    { "size": "32" },
                                    { "size": "32" }
                                ]
                            }
                        }
                    }
                }
            },
            {
                "name": "unknown_82",
                "op": "Const",
                "attr": {
                    "value": {
                        "tensor": {
                            "dtype": "DT_FLOAT",
                            "tensorShape": { "dim": [{ "size": "32" }] }
                        }
                    },
                    "dtype": { "type": "DT_FLOAT" }
                }
            },
            {
                "name": "PartitionedCall/transpose_123/perm",
                "op": "Const",
                "attr": {
                    "value": {
                        "tensor": {
                            "dtype": "DT_INT32",
                            "tensorShape": { "dim": [{ "size": "4" }] }
                        }
                    },
                    "dtype": { "type": "DT_INT32" }
                }
            },
            {
                "name": "PartitionedCall/Const_21",
                "op": "Const",
                "attr": {
                    "dtype": { "type": "DT_INT32" },
                    "value": {
                        "tensor": {
                            "dtype": "DT_INT32",
                            "tensorShape": { "dim": [{ "size": "2" }] }
                        }
                    }
                }
            },
            {
                "name": "PartitionedCall/onnx_tf_prefix_/_net/_net1/decoder/convGRU2/gru_cell/Split/split_dim",
                "op": "Const",
                "attr": {
                    "dtype": { "type": "DT_INT32" },
                    "value": {
                        "tensor": { "dtype": "DT_INT32", "tensorShape": {} }
                    }
                }
            },
            {
                "name": "PartitionedCall/onnx_tf_prefix_/_net/_net1/decoder/convGRU2/gru_cell/Concat_1/axis",
                "op": "Const",
                "attr": {
                    "dtype": { "type": "DT_INT32" },
                    "value": {
                        "tensor": { "dtype": "DT_INT32", "tensorShape": {} }
                    }
                }
            },
            {
                "name": "PartitionedCall/Const_22",
                "op": "Const",
                "attr": {
                    "value": {
                        "tensor": {
                            "dtype": "DT_INT32",
                            "tensorShape": {
                                "dim": [{ "size": "4" }, { "size": "2" }]
                            }
                        }
                    },
                    "dtype": { "type": "DT_INT32" }
                }
            },
            {
                "name": "PartitionedCall/transpose_125/perm",
                "op": "Const",
                "attr": {
                    "dtype": { "type": "DT_INT32" },
                    "value": {
                        "tensor": {
                            "dtype": "DT_INT32",
                            "tensorShape": { "dim": [{ "size": "4" }] }
                        }
                    }
                }
            },
            {
                "name": "PartitionedCall/split_32",
                "op": "Const",
                "attr": {
                    "value": {
                        "tensor": {
                            "dtype": "DT_FLOAT",
                            "tensorShape": {
                                "dim": [
                                    { "size": "3" },
                                    { "size": "3" },
                                    { "size": "32" },
                                    { "size": "16" }
                                ]
                            }
                        }
                    },
                    "dtype": { "type": "DT_FLOAT" }
                }
            },
            {
                "name": "unknown_84",
                "op": "Const",
                "attr": {
                    "dtype": { "type": "DT_FLOAT" },
                    "value": {
                        "tensor": {
                            "dtype": "DT_FLOAT",
                            "tensorShape": { "dim": [{ "size": "16" }] }
                        }
                    }
                }
            },
            {
                "name": "PartitionedCall/transpose_126/perm",
                "op": "Const",
                "attr": {
                    "value": {
                        "tensor": {
                            "dtype": "DT_INT32",
                            "tensorShape": { "dim": [{ "size": "4" }] }
                        }
                    },
                    "dtype": { "type": "DT_INT32" }
                }
            },
            {
                "name": "PartitionedCall/transpose_10/perm",
                "op": "Const",
                "attr": {
                    "value": {
                        "tensor": {
                            "dtype": "DT_INT32",
                            "tensorShape": { "dim": [{ "size": "4" }] }
                        }
                    },
                    "dtype": { "type": "DT_INT32" }
                }
            },
            {
                "name": "PartitionedCall/onnx_tf_prefix_/_net/_net1/decoder/convGRU1/gru_cell/Concat/axis",
                "op": "Const",
                "attr": {
                    "dtype": { "type": "DT_INT32" },
                    "value": {
                        "tensor": { "dtype": "DT_INT32", "tensorShape": {} }
                    }
                }
            },
            {
                "name": "PartitionedCall/Const_12",
                "op": "Const",
                "attr": {
                    "dtype": { "type": "DT_INT32" },
                    "value": {
                        "tensor": {
                            "dtype": "DT_INT32",
                            "tensorShape": {
                                "dim": [{ "size": "4" }, { "size": "2" }]
                            }
                        }
                    }
                }
            },
            {
                "name": "PartitionedCall/transpose_111/perm",
                "op": "Const",
                "attr": {
                    "value": {
                        "tensor": {
                            "dtype": "DT_INT32",
                            "tensorShape": { "dim": [{ "size": "4" }] }
                        }
                    },
                    "dtype": { "type": "DT_INT32" }
                }
            },
            {
                "name": "PartitionedCall/split_28",
                "op": "Const",
                "attr": {
                    "value": {
                        "tensor": {
                            "dtype": "DT_FLOAT",
                            "tensorShape": {
                                "dim": [
                                    { "size": "3" },
                                    { "size": "3" },
                                    { "size": "40" },
                                    { "size": "40" }
                                ]
                            }
                        }
                    },
                    "dtype": { "type": "DT_FLOAT" }
                }
            },
            {
                "name": "unknown_70",
                "op": "Const",
                "attr": {
                    "value": {
                        "tensor": {
                            "dtype": "DT_FLOAT",
                            "tensorShape": { "dim": [{ "size": "40" }] }
                        }
                    },
                    "dtype": { "type": "DT_FLOAT" }
                }
            },
            {
                "name": "PartitionedCall/transpose_112/perm",
                "op": "Const",
                "attr": {
                    "dtype": { "type": "DT_INT32" },
                    "value": {
                        "tensor": {
                            "dtype": "DT_INT32",
                            "tensorShape": { "dim": [{ "size": "4" }] }
                        }
                    }
                }
            },
            {
                "name": "PartitionedCall/Const_13",
                "op": "Const",
                "attr": {
                    "dtype": { "type": "DT_INT32" },
                    "value": {
                        "tensor": {
                            "dtype": "DT_INT32",
                            "tensorShape": { "dim": [{ "size": "2" }] }
                        }
                    }
                }
            },
            {
                "name": "PartitionedCall/onnx_tf_prefix_/_net/_net1/decoder/convGRU1/gru_cell/Split/split_dim",
                "op": "Const",
                "attr": {
                    "dtype": { "type": "DT_INT32" },
                    "value": {
                        "tensor": { "dtype": "DT_INT32", "tensorShape": {} }
                    }
                }
            },
            {
                "name": "PartitionedCall/onnx_tf_prefix_/_net/_net1/decoder/convGRU1/gru_cell/Concat_1/axis",
                "op": "Const",
                "attr": {
                    "dtype": { "type": "DT_INT32" },
                    "value": {
                        "tensor": { "dtype": "DT_INT32", "tensorShape": {} }
                    }
                }
            },
            {
                "name": "PartitionedCall/Const_14",
                "op": "Const",
                "attr": {
                    "value": {
                        "tensor": {
                            "dtype": "DT_INT32",
                            "tensorShape": {
                                "dim": [{ "size": "4" }, { "size": "2" }]
                            }
                        }
                    },
                    "dtype": { "type": "DT_INT32" }
                }
            },
            {
                "name": "PartitionedCall/transpose_114/perm",
                "op": "Const",
                "attr": {
                    "value": {
                        "tensor": {
                            "dtype": "DT_INT32",
                            "tensorShape": { "dim": [{ "size": "4" }] }
                        }
                    },
                    "dtype": { "type": "DT_INT32" }
                }
            },
            {
                "name": "PartitionedCall/split_29",
                "op": "Const",
                "attr": {
                    "dtype": { "type": "DT_FLOAT" },
                    "value": {
                        "tensor": {
                            "dtype": "DT_FLOAT",
                            "tensorShape": {
                                "dim": [
                                    { "size": "3" },
                                    { "size": "3" },
                                    { "size": "40" },
                                    { "size": "20" }
                                ]
                            }
                        }
                    }
                }
            },
            {
                "name": "unknown_73",
                "op": "Const",
                "attr": {
                    "dtype": { "type": "DT_FLOAT" },
                    "value": {
                        "tensor": {
                            "dtype": "DT_FLOAT",
                            "tensorShape": { "dim": [{ "size": "20" }] }
                        }
                    }
                }
            },
            {
                "name": "PartitionedCall/transpose_115/perm",
                "op": "Const",
                "attr": {
                    "dtype": { "type": "DT_INT32" },
                    "value": {
                        "tensor": {
                            "dtype": "DT_INT32",
                            "tensorShape": { "dim": [{ "size": "4" }] }
                        }
                    }
                }
            },
            {
                "name": "PartitionedCall/transpose_105/perm",
                "op": "Const",
                "attr": {
                    "value": {
                        "tensor": {
                            "dtype": "DT_INT32",
                            "tensorShape": { "dim": [{ "size": "4" }] }
                        }
                    },
                    "dtype": { "type": "DT_INT32" }
                }
            },
            {
                "name": "PartitionedCall/split_25",
                "op": "Const",
                "attr": {
                    "value": {
                        "tensor": {
                            "dtype": "DT_FLOAT",
                            "tensorShape": {
                                "dim": [
                                    { "size": "1" },
                                    { "size": "1" },
                                    { "size": "80" },
                                    { "size": "40" }
                                ]
                            }
                        }
                    },
                    "dtype": { "type": "DT_FLOAT" }
                }
            },
            {
                "name": "unknown_67",
                "op": "Const",
                "attr": {
                    "dtype": { "type": "DT_FLOAT" },
                    "value": {
                        "tensor": {
                            "dtype": "DT_FLOAT",
                            "tensorShape": { "dim": [{ "size": "40" }] }
                        }
                    }
                }
            },
            {
                "name": "PartitionedCall/transpose_106/perm",
                "op": "Const",
                "attr": {
                    "value": {
                        "tensor": {
                            "dtype": "DT_INT32",
                            "tensorShape": { "dim": [{ "size": "4" }] }
                        }
                    },
                    "dtype": { "type": "DT_INT32" }
                }
            },
            {
                "name": "ConstantFolding/PartitionedCall/onnx_tf_prefix_/_net/_net1/encoder/8/block/1/2/Div_recip",
                "op": "Const",
                "attr": {
                    "value": {
                        "tensor": { "dtype": "DT_FLOAT", "tensorShape": {} }
                    },
                    "dtype": { "type": "DT_FLOAT" }
                }
            },
            {
                "name": "ConstantFolding/PartitionedCall/onnx_tf_prefix_/_net/_net1/encoder/8/block/0/2/Div_recip",
                "op": "Const",
                "attr": {
                    "dtype": { "type": "DT_FLOAT" },
                    "value": {
                        "tensor": { "dtype": "DT_FLOAT", "tensorShape": {} }
                    }
                }
            },
            {
                "name": "PartitionedCall/split_23",
                "op": "Const",
                "attr": {
                    "dtype": { "type": "DT_FLOAT" },
                    "value": {
                        "tensor": {
                            "dtype": "DT_FLOAT",
                            "tensorShape": {
                                "dim": [
                                    { "size": "1" },
                                    { "size": "1" },
                                    { "size": "80" },
                                    { "size": "200" }
                                ]
                            }
                        }
                    }
                }
            },
            {
                "name": "unknown_61",
                "op": "Const",
                "attr": {
                    "value": {
                        "tensor": {
                            "dtype": "DT_FLOAT",
                            "tensorShape": { "dim": [{ "size": "200" }] }
                        }
                    },
                    "dtype": { "type": "DT_FLOAT" }
                }
            },
            {
                "name": "PartitionedCall/transpose_97/perm",
                "op": "Const",
                "attr": {
                    "value": {
                        "tensor": {
                            "dtype": "DT_INT32",
                            "tensorShape": { "dim": [{ "size": "4" }] }
                        }
                    },
                    "dtype": { "type": "DT_INT32" }
                }
            },
            {
                "name": "PartitionedCall/Const_10",
                "op": "Const",
                "attr": {
                    "value": {
                        "tensor": {
                            "dtype": "DT_INT32",
                            "tensorShape": {
                                "dim": [{ "size": "4" }, { "size": "2" }]
                            }
                        }
                    },
                    "dtype": { "type": "DT_INT32" }
                }
            },
            {
                "name": "PartitionedCall/transpose_99/perm",
                "op": "Const",
                "attr": {
                    "value": {
                        "tensor": {
                            "dtype": "DT_INT32",
                            "tensorShape": { "dim": [{ "size": "4" }] }
                        }
                    },
                    "dtype": { "type": "DT_INT32" }
                }
            },
            {
                "name": "PartitionedCall/Reshape_9",
                "op": "Const",
                "attr": {
                    "dtype": { "type": "DT_FLOAT" },
                    "value": {
                        "tensor": {
                            "dtype": "DT_FLOAT",
                            "tensorShape": {
                                "dim": [
                                    { "size": "3" },
                                    { "size": "3" },
                                    { "size": "200" },
                                    { "size": "1" }
                                ]
                            }
                        }
                    }
                }
            },
            {
                "name": "unknown_63",
                "op": "Const",
                "attr": {
                    "dtype": { "type": "DT_FLOAT" },
                    "value": {
                        "tensor": {
                            "dtype": "DT_FLOAT",
                            "tensorShape": { "dim": [{ "size": "200" }] }
                        }
                    }
                }
            },
            {
                "name": "PartitionedCall/transpose_100/perm",
                "op": "Const",
                "attr": {
                    "value": {
                        "tensor": {
                            "dtype": "DT_INT32",
                            "tensorShape": { "dim": [{ "size": "4" }] }
                        }
                    },
                    "dtype": { "type": "DT_INT32" }
                }
            },
            {
                "name": "PartitionedCall/transpose_102/perm",
                "op": "Const",
                "attr": {
                    "dtype": { "type": "DT_INT32" },
                    "value": {
                        "tensor": {
                            "dtype": "DT_INT32",
                            "tensorShape": { "dim": [{ "size": "4" }] }
                        }
                    }
                }
            },
            {
                "name": "PartitionedCall/split_24",
                "op": "Const",
                "attr": {
                    "dtype": { "type": "DT_FLOAT" },
                    "value": {
                        "tensor": {
                            "dtype": "DT_FLOAT",
                            "tensorShape": {
                                "dim": [
                                    { "size": "1" },
                                    { "size": "1" },
                                    { "size": "200" },
                                    { "size": "80" }
                                ]
                            }
                        }
                    }
                }
            },
            {
                "name": "unknown_65",
                "op": "Const",
                "attr": {
                    "value": {
                        "tensor": {
                            "dtype": "DT_FLOAT",
                            "tensorShape": { "dim": [{ "size": "80" }] }
                        }
                    },
                    "dtype": { "type": "DT_FLOAT" }
                }
            },
            {
                "name": "PartitionedCall/transpose_103/perm",
                "op": "Const",
                "attr": {
                    "dtype": { "type": "DT_INT32" },
                    "value": {
                        "tensor": {
                            "dtype": "DT_INT32",
                            "tensorShape": { "dim": [{ "size": "4" }] }
                        }
                    }
                }
            },
            {
                "name": "ConstantFolding/PartitionedCall/onnx_tf_prefix_/_net/_net1/encoder/7/block/1/2/Div_recip",
                "op": "Const",
                "attr": {
                    "dtype": { "type": "DT_FLOAT" },
                    "value": {
                        "tensor": { "dtype": "DT_FLOAT", "tensorShape": {} }
                    }
                }
            },
            {
                "name": "ConstantFolding/PartitionedCall/onnx_tf_prefix_/_net/_net1/encoder/7/block/0/2/Div_recip",
                "op": "Const",
                "attr": {
                    "dtype": { "type": "DT_FLOAT" },
                    "value": {
                        "tensor": { "dtype": "DT_FLOAT", "tensorShape": {} }
                    }
                }
            },
            {
                "name": "ConstantFolding/PartitionedCall/onnx_tf_prefix_/_net/_net1/encoder/6/Div_recip",
                "op": "Const",
                "attr": {
                    "value": {
                        "tensor": { "dtype": "DT_FLOAT", "tensorShape": {} }
                    },
                    "dtype": { "type": "DT_FLOAT" }
                }
            },
            {
                "name": "ConstantFolding/PartitionedCall/split_17-folded-1",
                "op": "Const",
                "attr": {
                    "value": {
                        "tensor": {
                            "dtype": "DT_INT32",
                            "tensorShape": { "dim": [{ "size": "2" }] }
                        }
                    },
                    "dtype": { "type": "DT_INT32" }
                }
            },
            {
                "name": "PartitionedCall/transpose_78/perm",
                "op": "Const",
                "attr": {
                    "dtype": { "type": "DT_INT32" },
                    "value": {
                        "tensor": {
                            "dtype": "DT_INT32",
                            "tensorShape": { "dim": [{ "size": "4" }] }
                        }
                    }
                }
            },
            {
                "name": "PartitionedCall/split_18",
                "op": "Const",
                "attr": {
                    "value": {
                        "tensor": {
                            "dtype": "DT_FLOAT",
                            "tensorShape": {
                                "dim": [
                                    { "size": "1" },
                                    { "size": "1" },
                                    { "size": "120" },
                                    { "size": "32" }
                                ]
                            }
                        }
                    },
                    "dtype": { "type": "DT_FLOAT" }
                }
            },
            {
                "name": "unknown_49",
                "op": "Const",
                "attr": {
                    "dtype": { "type": "DT_FLOAT" },
                    "value": {
                        "tensor": {
                            "dtype": "DT_FLOAT",
                            "tensorShape": { "dim": [{ "size": "32" }] }
                        }
                    }
                }
            },
            {
                "name": "PartitionedCall/transpose_79/perm",
                "op": "Const",
                "attr": {
                    "value": {
                        "tensor": {
                            "dtype": "DT_INT32",
                            "tensorShape": { "dim": [{ "size": "4" }] }
                        }
                    },
                    "dtype": { "type": "DT_INT32" }
                }
            },
            {
                "name": "PartitionedCall/transpose_81/perm",
                "op": "Const",
                "attr": {
                    "value": {
                        "tensor": {
                            "dtype": "DT_INT32",
                            "tensorShape": { "dim": [{ "size": "4" }] }
                        }
                    },
                    "dtype": { "type": "DT_INT32" }
                }
            },
            {
                "name": "PartitionedCall/split_19",
                "op": "Const",
                "attr": {
                    "value": {
                        "tensor": {
                            "dtype": "DT_FLOAT",
                            "tensorShape": {
                                "dim": [
                                    { "size": "1" },
                                    { "size": "1" },
                                    { "size": "32" },
                                    { "size": "120" }
                                ]
                            }
                        }
                    },
                    "dtype": { "type": "DT_FLOAT" }
                }
            },
            {
                "name": "unknown_51",
                "op": "Const",
                "attr": {
                    "value": {
                        "tensor": {
                            "dtype": "DT_FLOAT",
                            "tensorShape": { "dim": [{ "size": "120" }] }
                        }
                    },
                    "dtype": { "type": "DT_FLOAT" }
                }
            },
            {
                "name": "PartitionedCall/transpose_82/perm",
                "op": "Const",
                "attr": {
                    "dtype": { "type": "DT_INT32" },
                    "value": {
                        "tensor": {
                            "dtype": "DT_INT32",
                            "tensorShape": { "dim": [{ "size": "4" }] }
                        }
                    }
                }
            },
            {
                "name": "PartitionedCall/transpose_72/perm",
                "op": "Const",
                "attr": {
                    "value": {
                        "tensor": {
                            "dtype": "DT_INT32",
                            "tensorShape": { "dim": [{ "size": "4" }] }
                        }
                    },
                    "dtype": { "type": "DT_INT32" }
                }
            },
            {
                "name": "PartitionedCall/split_16",
                "op": "Const",
                "attr": {
                    "dtype": { "type": "DT_FLOAT" },
                    "value": {
                        "tensor": {
                            "dtype": "DT_FLOAT",
                            "tensorShape": {
                                "dim": [
                                    { "size": "1" },
                                    { "size": "1" },
                                    { "size": "40" },
                                    { "size": "120" }
                                ]
                            }
                        }
                    }
                }
            },
            {
                "name": "unknown_45",
                "op": "Const",
                "attr": {
                    "dtype": { "type": "DT_FLOAT" },
                    "value": {
                        "tensor": {
                            "dtype": "DT_FLOAT",
                            "tensorShape": { "dim": [{ "size": "120" }] }
                        }
                    }
                }
            },
            {
                "name": "PartitionedCall/transpose_73/perm",
                "op": "Const",
                "attr": {
                    "dtype": { "type": "DT_INT32" },
                    "value": {
                        "tensor": {
                            "dtype": "DT_INT32",
                            "tensorShape": { "dim": [{ "size": "4" }] }
                        }
                    }
                }
            },
            {
                "name": "PartitionedCall/Const_8",
                "op": "Const",
                "attr": {
                    "value": {
                        "tensor": {
                            "dtype": "DT_INT32",
                            "tensorShape": {
                                "dim": [{ "size": "4" }, { "size": "2" }]
                            }
                        }
                    },
                    "dtype": { "type": "DT_INT32" }
                }
            },
            {
                "name": "PartitionedCall/transpose_75/perm",
                "op": "Const",
                "attr": {
                    "value": {
                        "tensor": {
                            "dtype": "DT_INT32",
                            "tensorShape": { "dim": [{ "size": "4" }] }
                        }
                    },
                    "dtype": { "type": "DT_INT32" }
                }
            },
            {
                "name": "PartitionedCall/Reshape_7",
                "op": "Const",
                "attr": {
                    "dtype": { "type": "DT_FLOAT" },
                    "value": {
                        "tensor": {
                            "dtype": "DT_FLOAT",
                            "tensorShape": {
                                "dim": [
                                    { "size": "5" },
                                    { "size": "5" },
                                    { "size": "120" },
                                    { "size": "1" }
                                ]
                            }
                        }
                    }
                }
            },
            {
                "name": "unknown_47",
                "op": "Const",
                "attr": {
                    "dtype": { "type": "DT_FLOAT" },
                    "value": {
                        "tensor": {
                            "dtype": "DT_FLOAT",
                            "tensorShape": { "dim": [{ "size": "120" }] }
                        }
                    }
                }
            },
            {
                "name": "PartitionedCall/transpose_76/perm",
                "op": "Const",
                "attr": {
                    "value": {
                        "tensor": {
                            "dtype": "DT_INT32",
                            "tensorShape": { "dim": [{ "size": "4" }] }
                        }
                    },
                    "dtype": { "type": "DT_INT32" }
                }
            },
            {
                "name": "PartitionedCall/transpose_84/perm",
                "op": "Const",
                "attr": {
                    "dtype": { "type": "DT_INT32" },
                    "value": {
                        "tensor": {
                            "dtype": "DT_INT32",
                            "tensorShape": { "dim": [{ "size": "4" }] }
                        }
                    }
                }
            },
            {
                "name": "PartitionedCall/split_20",
                "op": "Const",
                "attr": {
                    "dtype": { "type": "DT_FLOAT" },
                    "value": {
                        "tensor": {
                            "dtype": "DT_FLOAT",
                            "tensorShape": {
                                "dim": [
                                    { "size": "1" },
                                    { "size": "1" },
                                    { "size": "120" },
                                    { "size": "40" }
                                ]
                            }
                        }
                    }
                }
            },
            {
                "name": "unknown_53",
                "op": "Const",
                "attr": {
                    "value": {
                        "tensor": {
                            "dtype": "DT_FLOAT",
                            "tensorShape": { "dim": [{ "size": "40" }] }
                        }
                    },
                    "dtype": { "type": "DT_FLOAT" }
                }
            },
            {
                "name": "PartitionedCall/transpose_85/perm",
                "op": "Const",
                "attr": {
                    "dtype": { "type": "DT_INT32" },
                    "value": {
                        "tensor": {
                            "dtype": "DT_INT32",
                            "tensorShape": { "dim": [{ "size": "4" }] }
                        }
                    }
                }
            },
            {
                "name": "ConstantFolding/PartitionedCall/onnx_tf_prefix_/_net/_net1/encoder/5/block/2/scale_activation/Div_recip",
                "op": "Const",
                "attr": {
                    "value": {
                        "tensor": { "dtype": "DT_FLOAT", "tensorShape": {} }
                    },
                    "dtype": { "type": "DT_FLOAT" }
                }
            },
            {
                "name": "ConstantFolding/PartitionedCall/split_12-folded-1",
                "op": "Const",
                "attr": {
                    "dtype": { "type": "DT_INT32" },
                    "value": {
                        "tensor": {
                            "dtype": "DT_INT32",
                            "tensorShape": { "dim": [{ "size": "2" }] }
                        }
                    }
                }
            },
            {
                "name": "PartitionedCall/transpose_63/perm",
                "op": "Const",
                "attr": {
                    "dtype": { "type": "DT_INT32" },
                    "value": {
                        "tensor": {
                            "dtype": "DT_INT32",
                            "tensorShape": { "dim": [{ "size": "4" }] }
                        }
                    }
                }
            },
            {
                "name": "PartitionedCall/split_13",
                "op": "Const",
                "attr": {
                    "dtype": { "type": "DT_FLOAT" },
                    "value": {
                        "tensor": {
                            "dtype": "DT_FLOAT",
                            "tensorShape": {
                                "dim": [
                                    { "size": "1" },
                                    { "size": "1" },
                                    { "size": "120" },
                                    { "size": "32" }
                                ]
                            }
                        }
                    }
                }
            },
            {
                "name": "unknown_39",
                "op": "Const",
                "attr": {
                    "value": {
                        "tensor": {
                            "dtype": "DT_FLOAT",
                            "tensorShape": { "dim": [{ "size": "32" }] }
                        }
                    },
                    "dtype": { "type": "DT_FLOAT" }
                }
            },
            {
                "name": "PartitionedCall/transpose_64/perm",
                "op": "Const",
                "attr": {
                    "value": {
                        "tensor": {
                            "dtype": "DT_INT32",
                            "tensorShape": { "dim": [{ "size": "4" }] }
                        }
                    },
                    "dtype": { "type": "DT_INT32" }
                }
            },
            {
                "name": "PartitionedCall/transpose_66/perm",
                "op": "Const",
                "attr": {
                    "dtype": { "type": "DT_INT32" },
                    "value": {
                        "tensor": {
                            "dtype": "DT_INT32",
                            "tensorShape": { "dim": [{ "size": "4" }] }
                        }
                    }
                }
            },
            {
                "name": "PartitionedCall/split_14",
                "op": "Const",
                "attr": {
                    "value": {
                        "tensor": {
                            "dtype": "DT_FLOAT",
                            "tensorShape": {
                                "dim": [
                                    { "size": "1" },
                                    { "size": "1" },
                                    { "size": "32" },
                                    { "size": "120" }
                                ]
                            }
                        }
                    },
                    "dtype": { "type": "DT_FLOAT" }
                }
            },
            {
                "name": "unknown_41",
                "op": "Const",
                "attr": {
                    "value": {
                        "tensor": {
                            "dtype": "DT_FLOAT",
                            "tensorShape": { "dim": [{ "size": "120" }] }
                        }
                    },
                    "dtype": { "type": "DT_FLOAT" }
                }
            },
            {
                "name": "PartitionedCall/transpose_67/perm",
                "op": "Const",
                "attr": {
                    "dtype": { "type": "DT_INT32" },
                    "value": {
                        "tensor": {
                            "dtype": "DT_INT32",
                            "tensorShape": { "dim": [{ "size": "4" }] }
                        }
                    }
                }
            },
            {
                "name": "PartitionedCall/split_11",
                "op": "Const",
                "attr": {
                    "dtype": { "type": "DT_FLOAT" },
                    "value": {
                        "tensor": {
                            "dtype": "DT_FLOAT",
                            "tensorShape": {
                                "dim": [
                                    { "size": "1" },
                                    { "size": "1" },
                                    { "size": "40" },
                                    { "size": "120" }
                                ]
                            }
                        }
                    }
                }
            },
            {
                "name": "unknown_35",
                "op": "Const",
                "attr": {
                    "value": {
                        "tensor": {
                            "dtype": "DT_FLOAT",
                            "tensorShape": { "dim": [{ "size": "120" }] }
                        }
                    },
                    "dtype": { "type": "DT_FLOAT" }
                }
            },
            {
                "name": "PartitionedCall/transpose_58/perm",
                "op": "Const",
                "attr": {
                    "dtype": { "type": "DT_INT32" },
                    "value": {
                        "tensor": {
                            "dtype": "DT_INT32",
                            "tensorShape": { "dim": [{ "size": "4" }] }
                        }
                    }
                }
            },
            {
                "name": "PartitionedCall/Const_7",
                "op": "Const",
                "attr": {
                    "dtype": { "type": "DT_INT32" },
                    "value": {
                        "tensor": {
                            "dtype": "DT_INT32",
                            "tensorShape": {
                                "dim": [{ "size": "4" }, { "size": "2" }]
                            }
                        }
                    }
                }
            },
            {
                "name": "PartitionedCall/transpose_60/perm",
                "op": "Const",
                "attr": {
                    "dtype": { "type": "DT_INT32" },
                    "value": {
                        "tensor": {
                            "dtype": "DT_INT32",
                            "tensorShape": { "dim": [{ "size": "4" }] }
                        }
                    }
                }
            },
            {
                "name": "PartitionedCall/Reshape_6",
                "op": "Const",
                "attr": {
                    "dtype": { "type": "DT_FLOAT" },
                    "value": {
                        "tensor": {
                            "dtype": "DT_FLOAT",
                            "tensorShape": {
                                "dim": [
                                    { "size": "5" },
                                    { "size": "5" },
                                    { "size": "120" },
                                    { "size": "1" }
                                ]
                            }
                        }
                    }
                }
            },
            {
                "name": "unknown_37",
                "op": "Const",
                "attr": {
                    "dtype": { "type": "DT_FLOAT" },
                    "value": {
                        "tensor": {
                            "dtype": "DT_FLOAT",
                            "tensorShape": { "dim": [{ "size": "120" }] }
                        }
                    }
                }
            },
            {
                "name": "PartitionedCall/transpose_61/perm",
                "op": "Const",
                "attr": {
                    "dtype": { "type": "DT_INT32" },
                    "value": {
                        "tensor": {
                            "dtype": "DT_INT32",
                            "tensorShape": { "dim": [{ "size": "4" }] }
                        }
                    }
                }
            },
            {
                "name": "PartitionedCall/transpose_69/perm",
                "op": "Const",
                "attr": {
                    "dtype": { "type": "DT_INT32" },
                    "value": {
                        "tensor": {
                            "dtype": "DT_INT32",
                            "tensorShape": { "dim": [{ "size": "4" }] }
                        }
                    }
                }
            },
            {
                "name": "PartitionedCall/split_15",
                "op": "Const",
                "attr": {
                    "value": {
                        "tensor": {
                            "dtype": "DT_FLOAT",
                            "tensorShape": {
                                "dim": [
                                    { "size": "1" },
                                    { "size": "1" },
                                    { "size": "120" },
                                    { "size": "40" }
                                ]
                            }
                        }
                    },
                    "dtype": { "type": "DT_FLOAT" }
                }
            },
            {
                "name": "unknown_43",
                "op": "Const",
                "attr": {
                    "dtype": { "type": "DT_FLOAT" },
                    "value": {
                        "tensor": {
                            "dtype": "DT_FLOAT",
                            "tensorShape": { "dim": [{ "size": "40" }] }
                        }
                    }
                }
            },
            {
                "name": "PartitionedCall/transpose_70/perm",
                "op": "Const",
                "attr": {
                    "value": {
                        "tensor": {
                            "dtype": "DT_INT32",
                            "tensorShape": { "dim": [{ "size": "4" }] }
                        }
                    },
                    "dtype": { "type": "DT_INT32" }
                }
            },
            {
                "name": "ConstantFolding/PartitionedCall/onnx_tf_prefix_/_net/_net1/encoder/4/block/2/scale_activation/Div_recip",
                "op": "Const",
                "attr": {
                    "dtype": { "type": "DT_FLOAT" },
                    "value": {
                        "tensor": { "dtype": "DT_FLOAT", "tensorShape": {} }
                    }
                }
            },
            {
                "name": "ConstantFolding/PartitionedCall/split_7-folded-1",
                "op": "Const",
                "attr": {
                    "value": {
                        "tensor": {
                            "dtype": "DT_INT32",
                            "tensorShape": { "dim": [{ "size": "2" }] }
                        }
                    },
                    "dtype": { "type": "DT_INT32" }
                }
            },
            {
                "name": "PartitionedCall/transpose_48/perm",
                "op": "Const",
                "attr": {
                    "value": {
                        "tensor": {
                            "dtype": "DT_INT32",
                            "tensorShape": { "dim": [{ "size": "4" }] }
                        }
                    },
                    "dtype": { "type": "DT_INT32" }
                }
            },
            {
                "name": "PartitionedCall/split_8",
                "op": "Const",
                "attr": {
                    "dtype": { "type": "DT_FLOAT" },
                    "value": {
                        "tensor": {
                            "dtype": "DT_FLOAT",
                            "tensorShape": {
                                "dim": [
                                    { "size": "1" },
                                    { "size": "1" },
                                    { "size": "72" },
                                    { "size": "24" }
                                ]
                            }
                        }
                    }
                }
            },
            {
                "name": "unknown_29",
                "op": "Const",
                "attr": {
                    "dtype": { "type": "DT_FLOAT" },
                    "value": {
                        "tensor": {
                            "dtype": "DT_FLOAT",
                            "tensorShape": { "dim": [{ "size": "24" }] }
                        }
                    }
                }
            },
            {
                "name": "PartitionedCall/transpose_49/perm",
                "op": "Const",
                "attr": {
                    "value": {
                        "tensor": {
                            "dtype": "DT_INT32",
                            "tensorShape": { "dim": [{ "size": "4" }] }
                        }
                    },
                    "dtype": { "type": "DT_INT32" }
                }
            },
            {
                "name": "PartitionedCall/transpose_51/perm",
                "op": "Const",
                "attr": {
                    "dtype": { "type": "DT_INT32" },
                    "value": {
                        "tensor": {
                            "dtype": "DT_INT32",
                            "tensorShape": { "dim": [{ "size": "4" }] }
                        }
                    }
                }
            },
            {
                "name": "PartitionedCall/split_9",
                "op": "Const",
                "attr": {
                    "dtype": { "type": "DT_FLOAT" },
                    "value": {
                        "tensor": {
                            "dtype": "DT_FLOAT",
                            "tensorShape": {
                                "dim": [
                                    { "size": "1" },
                                    { "size": "1" },
                                    { "size": "24" },
                                    { "size": "72" }
                                ]
                            }
                        }
                    }
                }
            },
            {
                "name": "unknown_31",
                "op": "Const",
                "attr": {
                    "value": {
                        "tensor": {
                            "dtype": "DT_FLOAT",
                            "tensorShape": { "dim": [{ "size": "72" }] }
                        }
                    },
                    "dtype": { "type": "DT_FLOAT" }
                }
            },
            {
                "name": "PartitionedCall/transpose_52/perm",
                "op": "Const",
                "attr": {
                    "dtype": { "type": "DT_INT32" },
                    "value": {
                        "tensor": {
                            "dtype": "DT_INT32",
                            "tensorShape": { "dim": [{ "size": "4" }] }
                        }
                    }
                }
            },
            {
                "name": "PartitionedCall/split_4",
                "op": "Const",
                "attr": {
                    "dtype": { "type": "DT_FLOAT" },
                    "value": {
                        "tensor": {
                            "dtype": "DT_FLOAT",
                            "tensorShape": {
                                "dim": [
                                    { "size": "1" },
                                    { "size": "1" },
                                    { "size": "24" },
                                    { "size": "72" }
                                ]
                            }
                        }
                    }
                }
            },
            {
                "name": "unknown_19",
                "op": "Const",
                "attr": {
                    "value": {
                        "tensor": {
                            "dtype": "DT_FLOAT",
                            "tensorShape": { "dim": [{ "size": "72" }] }
                        }
                    },
                    "dtype": { "type": "DT_FLOAT" }
                }
            },
            {
                "name": "PartitionedCall/transpose_34/perm",
                "op": "Const",
                "attr": {
                    "value": {
                        "tensor": {
                            "dtype": "DT_INT32",
                            "tensorShape": { "dim": [{ "size": "4" }] }
                        }
                    },
                    "dtype": { "type": "DT_INT32" }
                }
            },
            {
                "name": "PartitionedCall/Const_5",
                "op": "Const",
                "attr": {
                    "value": {
                        "tensor": {
                            "dtype": "DT_INT32",
                            "tensorShape": {
                                "dim": [{ "size": "4" }, { "size": "2" }]
                            }
                        }
                    },
                    "dtype": { "type": "DT_INT32" }
                }
            },
            {
                "name": "PartitionedCall/transpose_36/perm",
                "op": "Const",
                "attr": {
                    "dtype": { "type": "DT_INT32" },
                    "value": {
                        "tensor": {
                            "dtype": "DT_INT32",
                            "tensorShape": { "dim": [{ "size": "4" }] }
                        }
                    }
                }
            },
            {
                "name": "PartitionedCall/Reshape_4",
                "op": "Const",
                "attr": {
                    "value": {
                        "tensor": {
                            "dtype": "DT_FLOAT",
                            "tensorShape": {
                                "dim": [
                                    { "size": "3" },
                                    { "size": "3" },
                                    { "size": "72" },
                                    { "size": "1" }
                                ]
                            }
                        }
                    },
                    "dtype": { "type": "DT_FLOAT" }
                }
            },
            {
                "name": "unknown_21",
                "op": "Const",
                "attr": {
                    "value": {
                        "tensor": {
                            "dtype": "DT_FLOAT",
                            "tensorShape": { "dim": [{ "size": "72" }] }
                        }
                    },
                    "dtype": { "type": "DT_FLOAT" }
                }
            },
            {
                "name": "PartitionedCall/transpose_37/perm",
                "op": "Const",
                "attr": {
                    "value": {
                        "tensor": {
                            "dtype": "DT_INT32",
                            "tensorShape": { "dim": [{ "size": "4" }] }
                        }
                    },
                    "dtype": { "type": "DT_INT32" }
                }
            },
            {
                "name": "PartitionedCall/transpose_39/perm",
                "op": "Const",
                "attr": {
                    "value": {
                        "tensor": {
                            "dtype": "DT_INT32",
                            "tensorShape": { "dim": [{ "size": "4" }] }
                        }
                    },
                    "dtype": { "type": "DT_INT32" }
                }
            },
            {
                "name": "PartitionedCall/split_5",
                "op": "Const",
                "attr": {
                    "dtype": { "type": "DT_FLOAT" },
                    "value": {
                        "tensor": {
                            "dtype": "DT_FLOAT",
                            "tensorShape": {
                                "dim": [
                                    { "size": "1" },
                                    { "size": "1" },
                                    { "size": "72" },
                                    { "size": "24" }
                                ]
                            }
                        }
                    }
                }
            },
            {
                "name": "unknown_23",
                "op": "Const",
                "attr": {
                    "dtype": { "type": "DT_FLOAT" },
                    "value": {
                        "tensor": {
                            "dtype": "DT_FLOAT",
                            "tensorShape": { "dim": [{ "size": "24" }] }
                        }
                    }
                }
            },
            {
                "name": "PartitionedCall/transpose_40/perm",
                "op": "Const",
                "attr": {
                    "value": {
                        "tensor": {
                            "dtype": "DT_INT32",
                            "tensorShape": { "dim": [{ "size": "4" }] }
                        }
                    },
                    "dtype": { "type": "DT_INT32" }
                }
            },
            {
                "name": "PartitionedCall/Const_3",
                "op": "Const",
                "attr": {
                    "value": {
                        "tensor": {
                            "dtype": "DT_INT32",
                            "tensorShape": {
                                "dim": [{ "size": "4" }, { "size": "2" }]
                            }
                        }
                    },
                    "dtype": { "type": "DT_INT32" }
                }
            },
            {
                "name": "PartitionedCall/transpose_18/perm",
                "op": "Const",
                "attr": {
                    "dtype": { "type": "DT_INT32" },
                    "value": {
                        "tensor": {
                            "dtype": "DT_INT32",
                            "tensorShape": { "dim": [{ "size": "4" }] }
                        }
                    }
                }
            },
            {
                "name": "PartitionedCall/Reshape_2",
                "op": "Const",
                "attr": {
                    "value": {
                        "tensor": {
                            "dtype": "DT_FLOAT",
                            "tensorShape": {
                                "dim": [
                                    { "size": "3" },
                                    { "size": "3" },
                                    { "size": "16" },
                                    { "size": "1" }
                                ]
                            }
                        }
                    },
                    "dtype": { "type": "DT_FLOAT" }
                }
            },
            {
                "name": "unknown_9",
                "op": "Const",
                "attr": {
                    "dtype": { "type": "DT_FLOAT" },
                    "value": {
                        "tensor": {
                            "dtype": "DT_FLOAT",
                            "tensorShape": { "dim": [{ "size": "16" }] }
                        }
                    }
                }
            },
            {
                "name": "PartitionedCall/transpose_19/perm",
                "op": "Const",
                "attr": {
                    "value": {
                        "tensor": {
                            "dtype": "DT_INT32",
                            "tensorShape": { "dim": [{ "size": "4" }] }
                        }
                    },
                    "dtype": { "type": "DT_INT32" }
                }
            },
            {
                "name": "PartitionedCall/transpose_21/perm",
                "op": "Const",
                "attr": {
                    "dtype": { "type": "DT_INT32" },
                    "value": {
                        "tensor": {
                            "dtype": "DT_INT32",
                            "tensorShape": { "dim": [{ "size": "4" }] }
                        }
                    }
                }
            },
            {
                "name": "PartitionedCall/split_1",
                "op": "Const",
                "attr": {
                    "value": {
                        "tensor": {
                            "dtype": "DT_FLOAT",
                            "tensorShape": {
                                "dim": [
                                    { "size": "1" },
                                    { "size": "1" },
                                    { "size": "16" },
                                    { "size": "16" }
                                ]
                            }
                        }
                    },
                    "dtype": { "type": "DT_FLOAT" }
                }
            },
            {
                "name": "unknown_11",
                "op": "Const",
                "attr": {
                    "value": {
                        "tensor": {
                            "dtype": "DT_FLOAT",
                            "tensorShape": { "dim": [{ "size": "16" }] }
                        }
                    },
                    "dtype": { "type": "DT_FLOAT" }
                }
            },
            {
                "name": "PartitionedCall/transpose_22/perm",
                "op": "Const",
                "attr": {
                    "value": {
                        "tensor": {
                            "dtype": "DT_INT32",
                            "tensorShape": { "dim": [{ "size": "4" }] }
                        }
                    },
                    "dtype": { "type": "DT_INT32" }
                }
            },
            {
                "name": "ConstantFolding/PartitionedCall/onnx_tf_prefix_/_net/_net1/encoder/0/2/Div_recip",
                "op": "Const",
                "attr": {
                    "dtype": { "type": "DT_FLOAT" },
                    "value": {
                        "tensor": { "dtype": "DT_FLOAT", "tensorShape": {} }
                    }
                }
            },
            {
                "name": "PartitionedCall/Const",
                "op": "Const",
                "attr": {
                    "dtype": { "type": "DT_INT32" },
                    "value": {
                        "tensor": {
                            "dtype": "DT_INT32",
                            "tensorShape": {
                                "dim": [{ "size": "4" }, { "size": "2" }]
                            }
                        }
                    }
                }
            },
            {
                "name": "PartitionedCall/transpose_3/perm",
                "op": "Const",
                "attr": {
                    "value": {
                        "tensor": {
                            "dtype": "DT_INT32",
                            "tensorShape": { "dim": [{ "size": "4" }] }
                        }
                    },
                    "dtype": { "type": "DT_INT32" }
                }
            },
            {
                "name": "PartitionedCall/split",
                "op": "Const",
                "attr": {
                    "dtype": { "type": "DT_FLOAT" },
                    "value": {
                        "tensor": {
                            "dtype": "DT_FLOAT",
                            "tensorShape": {
                                "dim": [
                                    { "size": "3" },
                                    { "size": "3" },
                                    { "size": "3" },
                                    { "size": "16" }
                                ]
                            }
                        }
                    }
                }
            },
            {
                "name": "unknown_3",
                "op": "Const",
                "attr": {
                    "value": {
                        "tensor": {
                            "dtype": "DT_FLOAT",
                            "tensorShape": { "dim": [{ "size": "16" }] }
                        }
                    },
                    "dtype": { "type": "DT_FLOAT" }
                }
            },
            {
                "name": "PartitionedCall/transpose_4/perm",
                "op": "Const",
                "attr": {
                    "dtype": { "type": "DT_INT32" },
                    "value": {
                        "tensor": {
                            "dtype": "DT_INT32",
                            "tensorShape": { "dim": [{ "size": "4" }] }
                        }
                    }
                }
            },
            {
                "name": "PartitionedCall/transpose_24/perm",
                "op": "Const",
                "attr": {
                    "dtype": { "type": "DT_INT32" },
                    "value": {
                        "tensor": {
                            "dtype": "DT_INT32",
                            "tensorShape": { "dim": [{ "size": "4" }] }
                        }
                    }
                }
            },
            {
                "name": "PartitionedCall/split_2",
                "op": "Const",
                "attr": {
                    "dtype": { "type": "DT_FLOAT" },
                    "value": {
                        "tensor": {
                            "dtype": "DT_FLOAT",
                            "tensorShape": {
                                "dim": [
                                    { "size": "1" },
                                    { "size": "1" },
                                    { "size": "16" },
                                    { "size": "64" }
                                ]
                            }
                        }
                    }
                }
            },
            {
                "name": "unknown_13",
                "op": "Const",
                "attr": {
                    "value": {
                        "tensor": {
                            "dtype": "DT_FLOAT",
                            "tensorShape": { "dim": [{ "size": "64" }] }
                        }
                    },
                    "dtype": { "type": "DT_FLOAT" }
                }
            },
            {
                "name": "PartitionedCall/transpose_25/perm",
                "op": "Const",
                "attr": {
                    "value": {
                        "tensor": {
                            "dtype": "DT_INT32",
                            "tensorShape": { "dim": [{ "size": "4" }] }
                        }
                    },
                    "dtype": { "type": "DT_INT32" }
                }
            },
            {
                "name": "PartitionedCall/Const_4",
                "op": "Const",
                "attr": {
                    "value": {
                        "tensor": {
                            "dtype": "DT_INT32",
                            "tensorShape": {
                                "dim": [{ "size": "4" }, { "size": "2" }]
                            }
                        }
                    },
                    "dtype": { "type": "DT_INT32" }
                }
            },
            {
                "name": "PartitionedCall/transpose_27/perm",
                "op": "Const",
                "attr": {
                    "dtype": { "type": "DT_INT32" },
                    "value": {
                        "tensor": {
                            "dtype": "DT_INT32",
                            "tensorShape": { "dim": [{ "size": "4" }] }
                        }
                    }
                }
            },
            {
                "name": "PartitionedCall/Reshape_3",
                "op": "Const",
                "attr": {
                    "dtype": { "type": "DT_FLOAT" },
                    "value": {
                        "tensor": {
                            "dtype": "DT_FLOAT",
                            "tensorShape": {
                                "dim": [
                                    { "size": "3" },
                                    { "size": "3" },
                                    { "size": "64" },
                                    { "size": "1" }
                                ]
                            }
                        }
                    }
                }
            },
            {
                "name": "unknown_15",
                "op": "Const",
                "attr": {
                    "value": {
                        "tensor": {
                            "dtype": "DT_FLOAT",
                            "tensorShape": { "dim": [{ "size": "64" }] }
                        }
                    },
                    "dtype": { "type": "DT_FLOAT" }
                }
            },
            {
                "name": "PartitionedCall/transpose_28/perm",
                "op": "Const",
                "attr": {
                    "value": {
                        "tensor": {
                            "dtype": "DT_INT32",
                            "tensorShape": { "dim": [{ "size": "4" }] }
                        }
                    },
                    "dtype": { "type": "DT_INT32" }
                }
            },
            {
                "name": "PartitionedCall/transpose_30/perm",
                "op": "Const",
                "attr": {
                    "dtype": { "type": "DT_INT32" },
                    "value": {
                        "tensor": {
                            "dtype": "DT_INT32",
                            "tensorShape": { "dim": [{ "size": "4" }] }
                        }
                    }
                }
            },
            {
                "name": "PartitionedCall/split_3",
                "op": "Const",
                "attr": {
                    "dtype": { "type": "DT_FLOAT" },
                    "value": {
                        "tensor": {
                            "dtype": "DT_FLOAT",
                            "tensorShape": {
                                "dim": [
                                    { "size": "1" },
                                    { "size": "1" },
                                    { "size": "64" },
                                    { "size": "24" }
                                ]
                            }
                        }
                    }
                }
            },
            {
                "name": "unknown_17",
                "op": "Const",
                "attr": {
                    "value": {
                        "tensor": {
                            "dtype": "DT_FLOAT",
                            "tensorShape": { "dim": [{ "size": "24" }] }
                        }
                    },
                    "dtype": { "type": "DT_FLOAT" }
                }
            },
            {
                "name": "PartitionedCall/transpose_31/perm",
                "op": "Const",
                "attr": {
                    "dtype": { "type": "DT_INT32" },
                    "value": {
                        "tensor": {
                            "dtype": "DT_INT32",
                            "tensorShape": { "dim": [{ "size": "4" }] }
                        }
                    }
                }
            },
            {
                "name": "PartitionedCall/transpose_42/perm",
                "op": "Const",
                "attr": {
                    "value": {
                        "tensor": {
                            "dtype": "DT_INT32",
                            "tensorShape": { "dim": [{ "size": "4" }] }
                        }
                    },
                    "dtype": { "type": "DT_INT32" }
                }
            },
            {
                "name": "PartitionedCall/split_6",
                "op": "Const",
                "attr": {
                    "value": {
                        "tensor": {
                            "dtype": "DT_FLOAT",
                            "tensorShape": {
                                "dim": [
                                    { "size": "1" },
                                    { "size": "1" },
                                    { "size": "24" },
                                    { "size": "72" }
                                ]
                            }
                        }
                    },
                    "dtype": { "type": "DT_FLOAT" }
                }
            },
            {
                "name": "unknown_25",
                "op": "Const",
                "attr": {
                    "value": {
                        "tensor": {
                            "dtype": "DT_FLOAT",
                            "tensorShape": { "dim": [{ "size": "72" }] }
                        }
                    },
                    "dtype": { "type": "DT_FLOAT" }
                }
            },
            {
                "name": "PartitionedCall/transpose_43/perm",
                "op": "Const",
                "attr": {
                    "value": {
                        "tensor": {
                            "dtype": "DT_INT32",
                            "tensorShape": { "dim": [{ "size": "4" }] }
                        }
                    },
                    "dtype": { "type": "DT_INT32" }
                }
            },
            {
                "name": "PartitionedCall/Const_6",
                "op": "Const",
                "attr": {
                    "value": {
                        "tensor": {
                            "dtype": "DT_INT32",
                            "tensorShape": {
                                "dim": [{ "size": "4" }, { "size": "2" }]
                            }
                        }
                    },
                    "dtype": { "type": "DT_INT32" }
                }
            },
            {
                "name": "PartitionedCall/transpose_45/perm",
                "op": "Const",
                "attr": {
                    "dtype": { "type": "DT_INT32" },
                    "value": {
                        "tensor": {
                            "dtype": "DT_INT32",
                            "tensorShape": { "dim": [{ "size": "4" }] }
                        }
                    }
                }
            },
            {
                "name": "PartitionedCall/Reshape_5",
                "op": "Const",
                "attr": {
                    "dtype": { "type": "DT_FLOAT" },
                    "value": {
                        "tensor": {
                            "dtype": "DT_FLOAT",
                            "tensorShape": {
                                "dim": [
                                    { "size": "5" },
                                    { "size": "5" },
                                    { "size": "72" },
                                    { "size": "1" }
                                ]
                            }
                        }
                    }
                }
            },
            {
                "name": "unknown_27",
                "op": "Const",
                "attr": {
                    "value": {
                        "tensor": {
                            "dtype": "DT_FLOAT",
                            "tensorShape": { "dim": [{ "size": "72" }] }
                        }
                    },
                    "dtype": { "type": "DT_FLOAT" }
                }
            },
            {
                "name": "PartitionedCall/transpose_46/perm",
                "op": "Const",
                "attr": {
                    "value": {
                        "tensor": {
                            "dtype": "DT_INT32",
                            "tensorShape": { "dim": [{ "size": "4" }] }
                        }
                    },
                    "dtype": { "type": "DT_INT32" }
                }
            },
            {
                "name": "PartitionedCall/transpose_54/perm",
                "op": "Const",
                "attr": {
                    "dtype": { "type": "DT_INT32" },
                    "value": {
                        "tensor": {
                            "dtype": "DT_INT32",
                            "tensorShape": { "dim": [{ "size": "4" }] }
                        }
                    }
                }
            },
            {
                "name": "PartitionedCall/split_10",
                "op": "Const",
                "attr": {
                    "value": {
                        "tensor": {
                            "dtype": "DT_FLOAT",
                            "tensorShape": {
                                "dim": [
                                    { "size": "1" },
                                    { "size": "1" },
                                    { "size": "72" },
                                    { "size": "40" }
                                ]
                            }
                        }
                    },
                    "dtype": { "type": "DT_FLOAT" }
                }
            },
            {
                "name": "unknown_33",
                "op": "Const",
                "attr": {
                    "dtype": { "type": "DT_FLOAT" },
                    "value": {
                        "tensor": {
                            "dtype": "DT_FLOAT",
                            "tensorShape": { "dim": [{ "size": "40" }] }
                        }
                    }
                }
            },
            {
                "name": "PartitionedCall/transpose_55/perm",
                "op": "Const",
                "attr": {
                    "value": {
                        "tensor": {
                            "dtype": "DT_INT32",
                            "tensorShape": { "dim": [{ "size": "4" }] }
                        }
                    },
                    "dtype": { "type": "DT_INT32" }
                }
            },
            {
                "name": "PartitionedCall/transpose_87/perm",
                "op": "Const",
                "attr": {
                    "value": {
                        "tensor": {
                            "dtype": "DT_INT32",
                            "tensorShape": { "dim": [{ "size": "4" }] }
                        }
                    },
                    "dtype": { "type": "DT_INT32" }
                }
            },
            {
                "name": "PartitionedCall/split_21",
                "op": "Const",
                "attr": {
                    "dtype": { "type": "DT_FLOAT" },
                    "value": {
                        "tensor": {
                            "dtype": "DT_FLOAT",
                            "tensorShape": {
                                "dim": [
                                    { "size": "1" },
                                    { "size": "1" },
                                    { "size": "40" },
                                    { "size": "240" }
                                ]
                            }
                        }
                    }
                }
            },
            {
                "name": "unknown_55",
                "op": "Const",
                "attr": {
                    "dtype": { "type": "DT_FLOAT" },
                    "value": {
                        "tensor": {
                            "dtype": "DT_FLOAT",
                            "tensorShape": { "dim": [{ "size": "240" }] }
                        }
                    }
                }
            },
            {
                "name": "PartitionedCall/transpose_88/perm",
                "op": "Const",
                "attr": {
                    "value": {
                        "tensor": {
                            "dtype": "DT_INT32",
                            "tensorShape": { "dim": [{ "size": "4" }] }
                        }
                    },
                    "dtype": { "type": "DT_INT32" }
                }
            },
            {
                "name": "PartitionedCall/Const_9",
                "op": "Const",
                "attr": {
                    "value": {
                        "tensor": {
                            "dtype": "DT_INT32",
                            "tensorShape": {
                                "dim": [{ "size": "4" }, { "size": "2" }]
                            }
                        }
                    },
                    "dtype": { "type": "DT_INT32" }
                }
            },
            {
                "name": "PartitionedCall/transpose_90/perm",
                "op": "Const",
                "attr": {
                    "dtype": { "type": "DT_INT32" },
                    "value": {
                        "tensor": {
                            "dtype": "DT_INT32",
                            "tensorShape": { "dim": [{ "size": "4" }] }
                        }
                    }
                }
            },
            {
                "name": "PartitionedCall/Reshape_8",
                "op": "Const",
                "attr": {
                    "dtype": { "type": "DT_FLOAT" },
                    "value": {
                        "tensor": {
                            "dtype": "DT_FLOAT",
                            "tensorShape": {
                                "dim": [
                                    { "size": "3" },
                                    { "size": "3" },
                                    { "size": "240" },
                                    { "size": "1" }
                                ]
                            }
                        }
                    }
                }
            },
            {
                "name": "unknown_57",
                "op": "Const",
                "attr": {
                    "dtype": { "type": "DT_FLOAT" },
                    "value": {
                        "tensor": {
                            "dtype": "DT_FLOAT",
                            "tensorShape": { "dim": [{ "size": "240" }] }
                        }
                    }
                }
            },
            {
                "name": "PartitionedCall/transpose_91/perm",
                "op": "Const",
                "attr": {
                    "value": {
                        "tensor": {
                            "dtype": "DT_INT32",
                            "tensorShape": { "dim": [{ "size": "4" }] }
                        }
                    },
                    "dtype": { "type": "DT_INT32" }
                }
            },
            {
                "name": "unknown_4",
                "op": "Const",
                "attr": {
                    "value": {
                        "tensor": { "dtype": "DT_FLOAT", "tensorShape": {} }
                    },
                    "dtype": { "type": "DT_FLOAT" }
                }
            },
            {
                "name": "unknown_6",
                "op": "Const",
                "attr": {
                    "value": {
                        "tensor": { "dtype": "DT_FLOAT", "tensorShape": {} }
                    },
                    "dtype": { "type": "DT_FLOAT" }
                }
            },
            {
                "name": "PartitionedCall/transpose_93/perm",
                "op": "Const",
                "attr": {
                    "value": {
                        "tensor": {
                            "dtype": "DT_INT32",
                            "tensorShape": { "dim": [{ "size": "4" }] }
                        }
                    },
                    "dtype": { "type": "DT_INT32" }
                }
            },
            {
                "name": "PartitionedCall/split_22",
                "op": "Const",
                "attr": {
                    "dtype": { "type": "DT_FLOAT" },
                    "value": {
                        "tensor": {
                            "dtype": "DT_FLOAT",
                            "tensorShape": {
                                "dim": [
                                    { "size": "1" },
                                    { "size": "1" },
                                    { "size": "240" },
                                    { "size": "80" }
                                ]
                            }
                        }
                    }
                }
            },
            {
                "name": "unknown_59",
                "op": "Const",
                "attr": {
                    "dtype": { "type": "DT_FLOAT" },
                    "value": {
                        "tensor": {
                            "dtype": "DT_FLOAT",
                            "tensorShape": { "dim": [{ "size": "80" }] }
                        }
                    }
                }
            },
            {
                "name": "PartitionedCall/transpose_94/perm",
                "op": "Const",
                "attr": {
                    "value": {
                        "tensor": {
                            "dtype": "DT_INT32",
                            "tensorShape": { "dim": [{ "size": "4" }] }
                        }
                    },
                    "dtype": { "type": "DT_INT32" }
                }
            },
            {
                "name": "ConstantFolding/PartitionedCall/split_26-folded-1",
                "op": "Const",
                "attr": {
                    "dtype": { "type": "DT_INT32" },
                    "value": {
                        "tensor": {
                            "dtype": "DT_INT32",
                            "tensorShape": { "dim": [{ "size": "2" }] }
                        }
                    }
                }
            },
            {
                "name": "PartitionedCall/transpose_108/perm",
                "op": "Const",
                "attr": {
                    "value": {
                        "tensor": {
                            "dtype": "DT_INT32",
                            "tensorShape": { "dim": [{ "size": "4" }] }
                        }
                    },
                    "dtype": { "type": "DT_INT32" }
                }
            },
            {
                "name": "PartitionedCall/split_27",
                "op": "Const",
                "attr": {
                    "dtype": { "type": "DT_FLOAT" },
                    "value": {
                        "tensor": {
                            "dtype": "DT_FLOAT",
                            "tensorShape": {
                                "dim": [
                                    { "size": "1" },
                                    { "size": "1" },
                                    { "size": "80" },
                                    { "size": "40" }
                                ]
                            }
                        }
                    }
                }
            },
            {
                "name": "PartitionedCall/transpose_109/perm",
                "op": "Const",
                "attr": {
                    "value": {
                        "tensor": {
                            "dtype": "DT_INT32",
                            "tensorShape": { "dim": [{ "size": "4" }] }
                        }
                    },
                    "dtype": { "type": "DT_INT32" }
                }
            },
            {
                "name": "PartitionedCall/Const_11",
                "op": "Const",
                "attr": {
                    "value": {
                        "tensor": {
                            "dtype": "DT_INT32",
                            "tensorShape": { "dim": [{ "size": "2" }] }
                        }
                    },
                    "dtype": { "type": "DT_INT32" }
                }
            },
            {
                "name": "PartitionedCall/onnx_tf_prefix_/_net/_net1/decoder/Split/split_dim",
                "op": "Const",
                "attr": {
                    "value": {
                        "tensor": { "dtype": "DT_INT32", "tensorShape": {} }
                    },
                    "dtype": { "type": "DT_INT32" }
                }
            },
            {
                "name": "PartitionedCall/onnx_tf_prefix_/_net/_net1/decoder/Concat/axis",
                "op": "Const",
                "attr": {
                    "dtype": { "type": "DT_INT32" },
                    "value": {
                        "tensor": { "dtype": "DT_INT32", "tensorShape": {} }
                    }
                }
            },
            {
                "name": "PartitionedCall/transpose_116/perm",
                "op": "Const",
                "attr": {
                    "dtype": { "type": "DT_INT32" },
                    "value": {
                        "tensor": {
                            "dtype": "DT_INT32",
                            "tensorShape": { "dim": [{ "size": "4" }] }
                        }
                    }
                }
            },
            {
                "name": "PartitionedCall/Cast_1",
                "op": "Const",
                "attr": {
                    "value": {
                        "tensor": {
                            "dtype": "DT_INT32",
                            "tensorShape": { "dim": [{ "size": "2" }] }
                        }
                    },
                    "dtype": { "type": "DT_INT32" }
                }
            },
            {
                "name": "PartitionedCall/transpose_117/perm",
                "op": "Const",
                "attr": {
                    "dtype": { "type": "DT_INT32" },
                    "value": {
                        "tensor": {
                            "dtype": "DT_INT32",
                            "tensorShape": { "dim": [{ "size": "4" }] }
                        }
                    }
                }
            },
            {
                "name": "PartitionedCall/SelectV2_1",
                "op": "Const",
                "attr": {
                    "dtype": { "type": "DT_INT64" },
                    "value": {
                        "tensor": {
                            "dtype": "DT_INT64",
                            "tensorShape": { "dim": [{ "size": "2" }] }
                        }
                    }
                }
            },
            {
                "name": "PartitionedCall/zeros",
                "op": "Const",
                "attr": {
                    "dtype": { "type": "DT_INT64" },
                    "value": {
                        "tensor": { "dtype": "DT_INT64", "tensorShape": {} }
                    }
                }
            },
            {
                "name": "PartitionedCall/Const_16",
                "op": "Const",
                "attr": {
                    "value": {
                        "tensor": { "dtype": "DT_INT64", "tensorShape": {} }
                    },
                    "dtype": { "type": "DT_INT64" }
                }
            },
            {
                "name": "PartitionedCall/Shape",
                "op": "Const",
                "attr": {
                    "dtype": { "type": "DT_INT64" },
                    "value": {
                        "tensor": {
                            "dtype": "DT_INT64",
                            "tensorShape": { "dim": [{ "size": "4" }] }
                        }
                    }
                }
            },
            {
                "name": "PartitionedCall/SelectV2_2",
                "op": "Const",
                "attr": {
                    "dtype": { "type": "DT_INT64" },
                    "value": {
                        "tensor": {
                            "dtype": "DT_INT64",
                            "tensorShape": { "dim": [{ "size": "2" }] }
                        }
                    }
                }
            },
            {
                "name": "PartitionedCall/Const_15",
                "op": "Const",
                "attr": {
                    "dtype": { "type": "DT_INT64" },
                    "value": {
                        "tensor": { "dtype": "DT_INT64", "tensorShape": {} }
                    }
                }
            },
            {
                "name": "PartitionedCall/ExpandDims",
                "op": "Const",
                "attr": {
                    "value": {
                        "tensor": {
                            "dtype": "DT_INT64",
                            "tensorShape": {
                                "dim": [{ "size": "2" }, { "size": "1" }]
                            }
                        }
                    },
                    "dtype": { "type": "DT_INT64" }
                }
            },
            {
                "name": "PartitionedCall/Cast_3",
                "op": "Const",
                "attr": {
                    "dtype": { "type": "DT_INT64" },
                    "value": {
                        "tensor": {
                            "dtype": "DT_INT64",
                            "tensorShape": { "dim": [{ "size": "1" }] }
                        }
                    }
                }
            },
            {
                "name": "PartitionedCall/Const_17",
                "op": "Const",
                "attr": {
                    "dtype": { "type": "DT_INT64" },
                    "value": {
                        "tensor": { "dtype": "DT_INT64", "tensorShape": {} }
                    }
                }
            },
            {
                "name": "PartitionedCall/onnx_tf_prefix_/_net/_net1/decoder/Concat_3/axis",
                "op": "Const",
                "attr": {
                    "dtype": { "type": "DT_INT32" },
                    "value": {
                        "tensor": { "dtype": "DT_INT32", "tensorShape": {} }
                    }
                }
            },
            {
                "name": "PartitionedCall/Const_18",
                "op": "Const",
                "attr": {
                    "value": {
                        "tensor": {
                            "dtype": "DT_INT32",
                            "tensorShape": {
                                "dim": [{ "size": "4" }, { "size": "2" }]
                            }
                        }
                    },
                    "dtype": { "type": "DT_INT32" }
                }
            },
            {
                "name": "PartitionedCall/transpose_119/perm",
                "op": "Const",
                "attr": {
                    "value": {
                        "tensor": {
                            "dtype": "DT_INT32",
                            "tensorShape": { "dim": [{ "size": "4" }] }
                        }
                    },
                    "dtype": { "type": "DT_INT32" }
                }
            },
            {
                "name": "PartitionedCall/split_30",
                "op": "Const",
                "attr": {
                    "value": {
                        "tensor": {
                            "dtype": "DT_FLOAT",
                            "tensorShape": {
                                "dim": [
                                    { "size": "3" },
                                    { "size": "3" },
                                    { "size": "83" },
                                    { "size": "32" }
                                ]
                            }
                        }
                    },
                    "dtype": { "type": "DT_FLOAT" }
                }
            },
            {
                "name": "unknown_80",
                "op": "Const",
                "attr": {
                    "value": {
                        "tensor": {
                            "dtype": "DT_FLOAT",
                            "tensorShape": { "dim": [{ "size": "32" }] }
                        }
                    },
                    "dtype": { "type": "DT_FLOAT" }
                }
            },
            {
                "name": "PartitionedCall/transpose_120/perm",
                "op": "Const",
                "attr": {
                    "dtype": { "type": "DT_INT32" },
                    "value": {
                        "tensor": {
                            "dtype": "DT_INT32",
                            "tensorShape": { "dim": [{ "size": "4" }] }
                        }
                    }
                }
            },
            {
                "name": "PartitionedCall/Const_19",
                "op": "Const",
                "attr": {
                    "dtype": { "type": "DT_INT32" },
                    "value": {
                        "tensor": {
                            "dtype": "DT_INT32",
                            "tensorShape": { "dim": [{ "size": "2" }] }
                        }
                    }
                }
            },
            {
                "name": "PartitionedCall/onnx_tf_prefix_/_net/_net1/decoder/Split_1/split_dim",
                "op": "Const",
                "attr": {
                    "dtype": { "type": "DT_INT32" },
                    "value": {
                        "tensor": { "dtype": "DT_INT32", "tensorShape": {} }
                    }
                }
            },
            {
                "name": "PartitionedCall/onnx_tf_prefix_/_net/_net1/decoder/Concat_4/axis",
                "op": "Const",
                "attr": {
                    "value": {
                        "tensor": { "dtype": "DT_INT32", "tensorShape": {} }
                    },
                    "dtype": { "type": "DT_INT32" }
                }
            },
            {
                "name": "PartitionedCall/transpose_127/perm",
                "op": "Const",
                "attr": {
                    "value": {
                        "tensor": {
                            "dtype": "DT_INT32",
                            "tensorShape": { "dim": [{ "size": "4" }] }
                        }
                    },
                    "dtype": { "type": "DT_INT32" }
                }
            },
            {
                "name": "PartitionedCall/Cast_4",
                "op": "Const",
                "attr": {
                    "dtype": { "type": "DT_INT32" },
                    "value": {
                        "tensor": {
                            "dtype": "DT_INT32",
                            "tensorShape": { "dim": [{ "size": "2" }] }
                        }
                    }
                }
            },
            {
                "name": "PartitionedCall/transpose_128/perm",
                "op": "Const",
                "attr": {
                    "value": {
                        "tensor": {
                            "dtype": "DT_INT32",
                            "tensorShape": { "dim": [{ "size": "4" }] }
                        }
                    },
                    "dtype": { "type": "DT_INT32" }
                }
            },
            {
                "name": "PartitionedCall/SelectV2_5",
                "op": "Const",
                "attr": {
                    "value": {
                        "tensor": {
                            "dtype": "DT_INT64",
                            "tensorShape": { "dim": [{ "size": "2" }] }
                        }
                    },
                    "dtype": { "type": "DT_INT64" }
                }
            },
            {
                "name": "PartitionedCall/zeros_1",
                "op": "Const",
                "attr": {
                    "value": {
                        "tensor": { "dtype": "DT_INT64", "tensorShape": {} }
                    },
                    "dtype": { "type": "DT_INT64" }
                }
            },
            {
                "name": "PartitionedCall/Const_24",
                "op": "Const",
                "attr": {
                    "value": {
                        "tensor": { "dtype": "DT_INT64", "tensorShape": {} }
                    },
                    "dtype": { "type": "DT_INT64" }
                }
            },
            {
                "name": "PartitionedCall/Shape_1",
                "op": "Const",
                "attr": {
                    "dtype": { "type": "DT_INT64" },
                    "value": {
                        "tensor": {
                            "dtype": "DT_INT64",
                            "tensorShape": { "dim": [{ "size": "4" }] }
                        }
                    }
                }
            },
            {
                "name": "PartitionedCall/SelectV2_6",
                "op": "Const",
                "attr": {
                    "value": {
                        "tensor": {
                            "dtype": "DT_INT64",
                            "tensorShape": { "dim": [{ "size": "2" }] }
                        }
                    },
                    "dtype": { "type": "DT_INT64" }
                }
            },
            {
                "name": "PartitionedCall/Const_23",
                "op": "Const",
                "attr": {
                    "value": {
                        "tensor": { "dtype": "DT_INT64", "tensorShape": {} }
                    },
                    "dtype": { "type": "DT_INT64" }
                }
            },
            {
                "name": "PartitionedCall/ExpandDims_1",
                "op": "Const",
                "attr": {
                    "value": {
                        "tensor": {
                            "dtype": "DT_INT64",
                            "tensorShape": {
                                "dim": [{ "size": "2" }, { "size": "1" }]
                            }
                        }
                    },
                    "dtype": { "type": "DT_INT64" }
                }
            },
            {
                "name": "PartitionedCall/Cast_6",
                "op": "Const",
                "attr": {
                    "value": {
                        "tensor": {
                            "dtype": "DT_INT64",
                            "tensorShape": { "dim": [{ "size": "1" }] }
                        }
                    },
                    "dtype": { "type": "DT_INT64" }
                }
            },
            {
                "name": "PartitionedCall/Const_25",
                "op": "Const",
                "attr": {
                    "dtype": { "type": "DT_INT64" },
                    "value": {
                        "tensor": { "dtype": "DT_INT64", "tensorShape": {} }
                    }
                }
            },
            {
                "name": "PartitionedCall/onnx_tf_prefix_/_net/_net1/decoder/Concat_7/axis",
                "op": "Const",
                "attr": {
                    "dtype": { "type": "DT_INT32" },
                    "value": {
                        "tensor": { "dtype": "DT_INT32", "tensorShape": {} }
                    }
                }
            },
            {
                "name": "PartitionedCall/Const_26",
                "op": "Const",
                "attr": {
                    "value": {
                        "tensor": {
                            "dtype": "DT_INT32",
                            "tensorShape": {
                                "dim": [{ "size": "4" }, { "size": "2" }]
                            }
                        }
                    },
                    "dtype": { "type": "DT_INT32" }
                }
            },
            {
                "name": "PartitionedCall/transpose_130/perm",
                "op": "Const",
                "attr": {
                    "value": {
                        "tensor": {
                            "dtype": "DT_INT32",
                            "tensorShape": { "dim": [{ "size": "4" }] }
                        }
                    },
                    "dtype": { "type": "DT_INT32" }
                }
            },
            {
                "name": "PartitionedCall/split_33",
                "op": "Const",
                "attr": {
                    "value": {
                        "tensor": {
                            "dtype": "DT_FLOAT",
                            "tensorShape": {
                                "dim": [
                                    { "size": "3" },
                                    { "size": "3" },
                                    { "size": "59" },
                                    { "size": "24" }
                                ]
                            }
                        }
                    },
                    "dtype": { "type": "DT_FLOAT" }
                }
            },
            {
                "name": "unknown_88",
                "op": "Const",
                "attr": {
                    "dtype": { "type": "DT_FLOAT" },
                    "value": {
                        "tensor": {
                            "dtype": "DT_FLOAT",
                            "tensorShape": { "dim": [{ "size": "24" }] }
                        }
                    }
                }
            },
            {
                "name": "PartitionedCall/transpose_131/perm",
                "op": "Const",
                "attr": {
                    "dtype": { "type": "DT_INT32" },
                    "value": {
                        "tensor": {
                            "dtype": "DT_INT32",
                            "tensorShape": { "dim": [{ "size": "4" }] }
                        }
                    }
                }
            },
            {
                "name": "PartitionedCall/Const_27",
                "op": "Const",
                "attr": {
                    "dtype": { "type": "DT_INT32" },
                    "value": {
                        "tensor": {
                            "dtype": "DT_INT32",
                            "tensorShape": { "dim": [{ "size": "2" }] }
                        }
                    }
                }
            },
            {
                "name": "PartitionedCall/onnx_tf_prefix_/_net/_net1/decoder/Split_2/split_dim",
                "op": "Const",
                "attr": {
                    "value": {
                        "tensor": { "dtype": "DT_INT32", "tensorShape": {} }
                    },
                    "dtype": { "type": "DT_INT32" }
                }
            },
            {
                "name": "PartitionedCall/onnx_tf_prefix_/_net/_net1/decoder/Concat_8/axis",
                "op": "Const",
                "attr": {
                    "dtype": { "type": "DT_INT32" },
                    "value": {
                        "tensor": { "dtype": "DT_INT32", "tensorShape": {} }
                    }
                }
            },
            {
                "name": "PartitionedCall/transpose_138/perm",
                "op": "Const",
                "attr": {
                    "dtype": { "type": "DT_INT32" },
                    "value": {
                        "tensor": {
                            "dtype": "DT_INT32",
                            "tensorShape": { "dim": [{ "size": "4" }] }
                        }
                    }
…
                        "original_dtype": "float32"
                    }
                },
                {
                    "name": "PartitionedCall/transpose_49/perm",
                    "shape": [4],
                    "dtype": "int32"
                },
                {
                    "name": "PartitionedCall/transpose_51/perm",
                    "shape": [4],
                    "dtype": "int32"
                },
                {
                    "name": "PartitionedCall/split_9",
                    "shape": [1, 1, 24, 72],
                    "dtype": "float32",
                    "quantization": {
                        "dtype": "uint8",
                        "min": -0.03431087521945729,
                        "scale": 0.0008169256004632688,
                        "original_dtype": "float32"
                    }
                },
                {
                    "name": "unknown_31",
                    "shape": [72],
                    "dtype": "float32",
                    "quantization": {
                        "dtype": "uint8",
                        "min": -0.02566000455442597,
                        "scale": 0.0006752632777480518,
                        "original_dtype": "float32"
                    }
                },
                {
                    "name": "PartitionedCall/transpose_52/perm",
                    "shape": [4],
                    "dtype": "int32"
                },
                {
                    "name": "PartitionedCall/split_4",
                    "shape": [1, 1, 24, 72],
                    "dtype": "float32",
                    "quantization": {
                        "dtype": "uint8",
                        "min": -0.5640942629645852,
                        "scale": 0.005937834346995634,
                        "original_dtype": "float32"
                    }
                },
                {
                    "name": "unknown_19",
                    "shape": [72],
                    "dtype": "float32",
                    "quantization": {
                        "dtype": "uint8",
                        "min": -1.6878594160079956,
                        "scale": 0.01061546802520752,
                        "original_dtype": "float32"
                    }
                },
                {
                    "name": "PartitionedCall/transpose_34/perm",
                    "shape": [4],
                    "dtype": "int32"
                },
                {
                    "name": "PartitionedCall/Const_5",
                    "shape": [4, 2],
                    "dtype": "int32"
                },
                {
                    "name": "PartitionedCall/transpose_36/perm",
                    "shape": [4],
                    "dtype": "int32"
                },
                {
                    "name": "PartitionedCall/Reshape_4",
                    "shape": [3, 3, 72, 1],
                    "dtype": "float32",
                    "quantization": {
                        "dtype": "uint8",
                        "min": -4.987246285232843,
                        "scale": 0.03896286160338159,
                        "original_dtype": "float32"
                    }
                },
                {
                    "name": "unknown_21",
                    "shape": [72],
                    "dtype": "float32",
                    "quantization": {
                        "dtype": "uint8",
                        "min": -1.225344040814568,
                        "scale": 0.019146000637727624,
                        "original_dtype": "float32"
                    }
                },
                {
                    "name": "PartitionedCall/transpose_37/perm",
                    "shape": [4],
                    "dtype": "int32"
                },
                {
                    "name": "PartitionedCall/transpose_39/perm",
                    "shape": [4],
                    "dtype": "int32"
                },
                {
                    "name": "PartitionedCall/split_5",
                    "shape": [1, 1, 72, 24],
                    "dtype": "float32",
                    "quantization": {
                        "dtype": "uint8",
                        "min": -1.5134680902256687,
                        "scale": 0.01593124305500704,
                        "original_dtype": "float32"
                    }
                },
                {
                    "name": "unknown_23",
                    "shape": [24],
                    "dtype": "float32",
                    "quantization": {
                        "dtype": "uint8",
                        "min": -2.3509800321915573,
                        "scale": 0.023747273052439972,
                        "original_dtype": "float32"
                    }
                },
                {
                    "name": "PartitionedCall/transpose_40/perm",
                    "shape": [4],
                    "dtype": "int32"
                },
                {
                    "name": "PartitionedCall/Const_3",
                    "shape": [4, 2],
                    "dtype": "int32"
                },
                {
                    "name": "PartitionedCall/transpose_18/perm",
                    "shape": [4],
                    "dtype": "int32"
                },
                {
                    "name": "PartitionedCall/Reshape_2",
                    "shape": [3, 3, 16, 1],
                    "dtype": "float32",
                    "quantization": {
                        "dtype": "uint8",
                        "min": -4.073911818336038,
                        "scale": 0.03312123429541494,
                        "original_dtype": "float32"
                    }
                },
                {
                    "name": "unknown_9",
                    "shape": [16],
                    "dtype": "float32",
                    "quantization": {
                        "dtype": "uint8",
                        "min": -5.011482928780948,
                        "scale": 0.028313462874468634,
                        "original_dtype": "float32"
                    }
                },
                {
                    "name": "PartitionedCall/transpose_19/perm",
                    "shape": [4],
                    "dtype": "int32"
                },
                {
                    "name": "PartitionedCall/transpose_21/perm",
                    "shape": [4],
                    "dtype": "int32"
                },
                {
                    "name": "PartitionedCall/split_1",
                    "shape": [1, 1, 16, 16],
                    "dtype": "float32",
                    "quantization": {
                        "dtype": "uint8",
                        "min": -3.721423891478894,
                        "scale": 0.02620721050337249,
                        "original_dtype": "float32"
                    }
                },
                {
                    "name": "unknown_11",
                    "shape": [16],
                    "dtype": "float32",
                    "quantization": {
                        "dtype": "uint8",
                        "min": -5.822870052562041,
                        "scale": 0.04219471052581189,
                        "original_dtype": "float32"
                    }
                },
                {
                    "name": "PartitionedCall/transpose_22/perm",
                    "shape": [4],
                    "dtype": "int32"
                },
                {
                    "name": "ConstantFolding/PartitionedCall/onnx_tf_prefix_/_net/_net1/encoder/0/2/Div_recip",
                    "shape": [],
                    "dtype": "float32",
                    "quantization": {
                        "dtype": "uint8",
                        "min": 0.1666666716337204,
                        "scale": 1.0,
                        "original_dtype": "float32"
                    }
                },
                {
                    "name": "PartitionedCall/Const",
                    "shape": [4, 2],
                    "dtype": "int32"
                },
                {
                    "name": "PartitionedCall/transpose_3/perm",
                    "shape": [4],
                    "dtype": "int32"
                },
                {
                    "name": "PartitionedCall/split",
                    "shape": [3, 3, 3, 16],
                    "dtype": "float32",
                    "quantization": {
                        "dtype": "uint8",
                        "min": -5.072015930624569,
                        "scale": 0.04410448635325712,
                        "original_dtype": "float32"
                    }
                },
                {
                    "name": "unknown_3",
                    "shape": [16],
                    "dtype": "float32",
                    "quantization": {
                        "dtype": "uint8",
                        "min": -4.262237548828125,
                        "scale": 0.035518646240234375,
                        "original_dtype": "float32"
                    }
                },
                {
                    "name": "PartitionedCall/transpose_4/perm",
                    "shape": [4],
                    "dtype": "int32"
                },
                {
                    "name": "PartitionedCall/transpose_24/perm",
                    "shape": [4],
                    "dtype": "int32"
                },
                {
                    "name": "PartitionedCall/split_2",
                    "shape": [1, 1, 16, 64],
                    "dtype": "float32",
                    "quantization": {
                        "dtype": "uint8",
                        "min": -0.6755631040124331,
                        "scale": 0.007506256711249258,
                        "original_dtype": "float32"
                    }
                },
                {
                    "name": "unknown_13",
                    "shape": [64],
                    "dtype": "float32",
                    "quantization": {
                        "dtype": "uint8",
                        "min": -3.408621862822888,
                        "scale": 0.025437476588230507,
                        "original_dtype": "float32"
                    }
                },
                {
                    "name": "PartitionedCall/transpose_25/perm",
                    "shape": [4],
                    "dtype": "int32"
                },
                {
                    "name": "PartitionedCall/Const_4",
                    "shape": [4, 2],
                    "dtype": "int32"
                },
                {
                    "name": "PartitionedCall/transpose_27/perm",
                    "shape": [4],
                    "dtype": "int32"
                },
                {
                    "name": "PartitionedCall/Reshape_3",
                    "shape": [3, 3, 64, 1],
                    "dtype": "float32",
                    "quantization": {
                        "dtype": "uint8",
                        "min": -3.081679676093307,
                        "scale": 0.028800744636386048,
                        "original_dtype": "float32"
                    }
                },
                {
                    "name": "unknown_15",
                    "shape": [64],
                    "dtype": "float32",
                    "quantization": {
                        "dtype": "uint8",
                        "min": -5.236198812372544,
                        "scale": 0.03212391909431009,
                        "original_dtype": "float32"
                    }
                },
                {
                    "name": "PartitionedCall/transpose_28/perm",
                    "shape": [4],
                    "dtype": "int32"
                },
                {
                    "name": "PartitionedCall/transpose_30/perm",
                    "shape": [4],
                    "dtype": "int32"
                },
                {
                    "name": "PartitionedCall/split_3",
                    "shape": [1, 1, 64, 24],
                    "dtype": "float32",
                    "quantization": {
                        "dtype": "uint8",
                        "min": -1.1633475841260426,
                        "scale": 0.00961444284401688,
                        "original_dtype": "float32"
                    }
                },
                {
                    "name": "unknown_17",
                    "shape": [24],
                    "dtype": "float32",
                    "quantization": {
                        "dtype": "uint8",
                        "min": -2.9369187130647547,
                        "scale": 0.025762444851445215,
                        "original_dtype": "float32"
                    }
                },
                {
                    "name": "PartitionedCall/transpose_31/perm",
                    "shape": [4],
                    "dtype": "int32"
                },
                {
                    "name": "PartitionedCall/transpose_42/perm",
                    "shape": [4],
                    "dtype": "int32"
                },
                {
                    "name": "PartitionedCall/split_6",
                    "shape": [1, 1, 24, 72],
                    "dtype": "float32",
                    "quantization": {
                        "dtype": "uint8",
                        "min": -0.7707689416174794,
                        "scale": 0.006644559841529995,
                        "original_dtype": "float32"
                    }
                },
                {
                    "name": "unknown_25",
                    "shape": [72],
                    "dtype": "float32",
                    "quantization": {
                        "dtype": "uint8",
                        "min": -0.8211626772787057,
                        "scale": 0.007465115247988234,
                        "original_dtype": "float32"
                    }
                },
                {
                    "name": "PartitionedCall/transpose_43/perm",
                    "shape": [4],
                    "dtype": "int32"
                },
                {
                    "name": "PartitionedCall/Const_6",
                    "shape": [4, 2],
                    "dtype": "int32"
                },
                {
                    "name": "PartitionedCall/transpose_45/perm",
                    "shape": [4],
                    "dtype": "int32"
                },
                {
                    "name": "PartitionedCall/Reshape_5",
                    "shape": [5, 5, 72, 1],
                    "dtype": "float32",
                    "quantization": {
                        "dtype": "uint8",
                        "min": -1.2679058673335057,
                        "scale": 0.010225047317205692,
                        "original_dtype": "float32"
                    }
                },
                {
                    "name": "unknown_27",
                    "shape": [72],
                    "dtype": "float32",
                    "quantization": {
                        "dtype": "uint8",
                        "min": -0.3110876679420471,
                        "scale": 0.012443506717681884,
                        "original_dtype": "float32"
                    }
                },
                {
                    "name": "PartitionedCall/transpose_46/perm",
                    "shape": [4],
                    "dtype": "int32"
                },
                {
                    "name": "PartitionedCall/transpose_54/perm",
                    "shape": [4],
                    "dtype": "int32"
                },
                {
                    "name": "PartitionedCall/split_10",
                    "shape": [1, 1, 72, 40],
                    "dtype": "float32",
                    "quantization": {
                        "dtype": "uint8",
                        "min": -1.6336829213535085,
                        "scale": 0.012664208692662856,
                        "original_dtype": "float32"
                    }
                },
                {
                    "name": "unknown_33",
                    "shape": [40],
                    "dtype": "float32",
                    "quantization": {
                        "dtype": "uint8",
                        "min": -6.210057344623641,
                        "scale": 0.05353497710882449,
                        "original_dtype": "float32"
                    }
                },
                {
                    "name": "PartitionedCall/transpose_55/perm",
                    "shape": [4],
                    "dtype": "int32"
                },
                {
                    "name": "PartitionedCall/transpose_87/perm",
                    "shape": [4],
                    "dtype": "int32"
                },
                {
                    "name": "PartitionedCall/split_21",
                    "shape": [1, 1, 40, 240],
                    "dtype": "float32",
                    "quantization": {
                        "dtype": "uint8",
                        "min": -0.7642488301969043,
                        "scale": 0.005344397413964365,
                        "original_dtype": "float32"
                    }
                },
                {
                    "name": "unknown_55",
                    "shape": [240],
                    "dtype": "float32",
                    "quantization": {
                        "dtype": "uint8",
                        "min": -2.458194523231656,
                        "scale": 0.016172332389681948,
                        "original_dtype": "float32"
                    }
                },
                {
                    "name": "PartitionedCall/transpose_88/perm",
                    "shape": [4],
                    "dtype": "int32"
                },
                {
                    "name": "PartitionedCall/Const_9",
                    "shape": [4, 2],
                    "dtype": "int32"
                },
                {
                    "name": "PartitionedCall/transpose_90/perm",
                    "shape": [4],
                    "dtype": "int32"
                },
                {
                    "name": "PartitionedCall/Reshape_8",
                    "shape": [3, 3, 240, 1],
                    "dtype": "float32",
                    "quantization": {
                        "dtype": "uint8",
                        "min": -9.824409484863281,
                        "scale": 0.07223830503575943,
                        "original_dtype": "float32"
                    }
                },
                {
                    "name": "unknown_57",
                    "shape": [240],
                    "dtype": "float32",
                    "quantization": {
                        "dtype": "uint8",
                        "min": -2.9251607249764837,
                        "scale": 0.03145334112877939,
                        "original_dtype": "float32"
                    }
                },
                {
                    "name": "PartitionedCall/transpose_91/perm",
                    "shape": [4],
                    "dtype": "int32"
                },
                {
                    "name": "unknown_4",
                    "shape": [],
                    "dtype": "float32",
                    "quantization": {
                        "dtype": "uint8",
                        "min": 3.0,
                        "scale": 1.0,
                        "original_dtype": "float32"
                    }
                },
                {
                    "name": "unknown_6",
                    "shape": [],
                    "dtype": "float32",
                    "quantization": {
                        "dtype": "uint8",
                        "min": 6.0,
                        "scale": 1.0,
                        "original_dtype": "float32"
                    }
                },
                {
                    "name": "PartitionedCall/transpose_93/perm",
                    "shape": [4],
                    "dtype": "int32"
                },
                {
                    "name": "PartitionedCall/split_22",
                    "shape": [1, 1, 240, 80],
                    "dtype": "float32",
                    "quantization": {
                        "dtype": "uint8",
                        "min": -0.6196331248563879,
                        "scale": 0.00484088378794053,
                        "original_dtype": "float32"
                    }
                },
                {
                    "name": "unknown_59",
                    "shape": [80],
                    "dtype": "float32",
                    "quantization": {
                        "dtype": "uint8",
                        "min": -3.5918377147001377,
                        "scale": 0.02993198095583448,
                        "original_dtype": "float32"
                    }
                },
                {
                    "name": "PartitionedCall/transpose_94/perm",
                    "shape": [4],
                    "dtype": "int32"
                },
                {
                    "name": "ConstantFolding/PartitionedCall/split_26-folded-1",
                    "shape": [2],
                    "dtype": "int32"
                },
                {
                    "name": "PartitionedCall/transpose_108/perm",
                    "shape": [4],
                    "dtype": "int32"
                },
                {
                    "name": "PartitionedCall/split_27",
                    "shape": [1, 1, 80, 40],
                    "dtype": "float32",
                    "quantization": {
                        "dtype": "uint8",
                        "min": -0.6622933894980187,
                        "scale": 0.006430032907747755,
                        "original_dtype": "float32"
                    }
                },
                {
                    "name": "PartitionedCall/transpose_109/perm",
                    "shape": [4],
                    "dtype": "int32"
                },
                {
                    "name": "PartitionedCall/Const_11",
                    "shape": [2],
                    "dtype": "int32"
                },
                {
                    "name": "PartitionedCall/onnx_tf_prefix_/_net/_net1/decoder/Split/split_dim",
                    "shape": [],
                    "dtype": "int32"
                },
                {
                    "name": "PartitionedCall/onnx_tf_prefix_/_net/_net1/decoder/Concat/axis",
                    "shape": [],
                    "dtype": "int32"
                },
                {
                    "name": "PartitionedCall/transpose_116/perm",
                    "shape": [4],
                    "dtype": "int32"
                },
                {
                    "name": "PartitionedCall/Cast_1",
                    "shape": [2],
                    "dtype": "int32"
                },
                {
                    "name": "PartitionedCall/transpose_117/perm",
                    "shape": [4],
                    "dtype": "int32"
                },
                {
                    "name": "PartitionedCall/SelectV2_1",
                    "shape": [2],
                    "dtype": "int32"
                },
                {
                    "name": "PartitionedCall/zeros",
                    "shape": [],
                    "dtype": "int32"
                },
                {
                    "name": "PartitionedCall/Const_16",
                    "shape": [],
                    "dtype": "int32"
                },
                {
                    "name": "PartitionedCall/Shape",
                    "shape": [4],
                    "dtype": "int32"
                },
                {
                    "name": "PartitionedCall/SelectV2_2",
                    "shape": [2],
                    "dtype": "int32"
                },
                {
                    "name": "PartitionedCall/Const_15",
                    "shape": [],
                    "dtype": "int32"
                },
                {
                    "name": "PartitionedCall/ExpandDims",
                    "shape": [2, 1],
                    "dtype": "int32"
                },
                {
                    "name": "PartitionedCall/Cast_3",
                    "shape": [1],
                    "dtype": "int32"
                },
                {
                    "name": "PartitionedCall/Const_17",
                    "shape": [],
                    "dtype": "int32"
                },
                {
                    "name": "PartitionedCall/onnx_tf_prefix_/_net/_net1/decoder/Concat_3/axis",
                    "shape": [],
                    "dtype": "int32"
                },
                {
                    "name": "PartitionedCall/Const_18",
                    "shape": [4, 2],
                    "dtype": "int32"
                },
                {
                    "name": "PartitionedCall/transpose_119/perm",
                    "shape": [4],
                    "dtype": "int32"
                },
                {
                    "name": "PartitionedCall/split_30",
                    "shape": [3, 3, 83, 32],
                    "dtype": "float32",
                    "quantization": {
                        "dtype": "uint8",
                        "min": -0.42626898569219257,
                        "scale": 0.0034656015096926223,
                        "original_dtype": "float32"
                    }
                },
                {
                    "name": "unknown_80",
                    "shape": [32],
                    "dtype": "float32",
                    "quantization": {
                        "dtype": "uint8",
                        "min": -1.194304945422154,
                        "scale": 0.01038526039497525,
                        "original_dtype": "float32"
                    }
                },
                {
                    "name": "PartitionedCall/transpose_120/perm",
                    "shape": [4],
                    "dtype": "int32"
                },
                {
                    "name": "PartitionedCall/Const_19",
                    "shape": [2],
                    "dtype": "int32"
                },
                {
                    "name": "PartitionedCall/onnx_tf_prefix_/_net/_net1/decoder/Split_1/split_dim",
                    "shape": [],
                    "dtype": "int32"
                },
                {
                    "name": "PartitionedCall/onnx_tf_prefix_/_net/_net1/decoder/Concat_4/axis",
                    "shape": [],
                    "dtype": "int32"
                },
                {
                    "name": "PartitionedCall/transpose_127/perm",
                    "shape": [4],
                    "dtype": "int32"
                },
                {
                    "name": "PartitionedCall/Cast_4",
                    "shape": [2],
                    "dtype": "int32"
                },
                {
                    "name": "PartitionedCall/transpose_128/perm",
                    "shape": [4],
                    "dtype": "int32"
                },
                {
                    "name": "PartitionedCall/SelectV2_5",
                    "shape": [2],
                    "dtype": "int32"
                },
                {
                    "name": "PartitionedCall/zeros_1",
                    "shape": [],
                    "dtype": "int32"
                },
                {
                    "name": "PartitionedCall/Const_24",
                    "shape": [],
                    "dtype": "int32"
                },
                {
                    "name": "PartitionedCall/Shape_1",
                    "shape": [4],
                    "dtype": "int32"
                },
                {
                    "name": "PartitionedCall/SelectV2_6",
                    "shape": [2],
                    "dtype": "int32"
                },
                {
                    "name": "PartitionedCall/Const_23",
                    "shape": [],
                    "dtype": "int32"
                },
                {
                    "name": "PartitionedCall/ExpandDims_1",
                    "shape": [2, 1],
                    "dtype": "int32"
                },
                {
                    "name": "PartitionedCall/Cast_6",
                    "shape": [1],
                    "dtype": "int32"
                },
                {
                    "name": "PartitionedCall/Const_25",
                    "shape": [],
                    "dtype": "int32"
                },
                {
                    "name": "PartitionedCall/onnx_tf_prefix_/_net/_net1/decoder/Concat_7/axis",
                    "shape": [],
                    "dtype": "int32"
                },
                {
                    "name": "PartitionedCall/Const_26",
                    "shape": [4, 2],
                    "dtype": "int32"
                },
                {
                    "name": "PartitionedCall/transpose_130/perm",
                    "shape": [4],
                    "dtype": "int32"
                },
                {
                    "name": "PartitionedCall/split_33",
                    "shape": [3, 3, 59, 24],
                    "dtype": "float32",
                    "quantization": {
                        "dtype": "uint8",
                        "min": -0.8761275067048915,
                        "scale": 0.007893040600944968,
                        "original_dtype": "float32"
                    }
                },
                {
                    "name": "unknown_88",
                    "shape": [24],
                    "dtype": "float32",
                    "quantization": {
                        "dtype": "uint8",
                        "min": -0.931151177368912,
                        "scale": 0.006557402657527549,
                        "original_dtype": "float32"
                    }
                },
                {
                    "name": "PartitionedCall/transpose_131/perm",
                    "shape": [4],
                    "dtype": "int32"
                },
                {
                    "name": "PartitionedCall/Const_27",
                    "shape": [2],
                    "dtype": "int32"
                },
                {
                    "name": "PartitionedCall/onnx_tf_prefix_/_net/_net1/decoder/Split_2/split_dim",
                    "shape": [],
                    "dtype": "int32"
                },
                {
                    "name": "PartitionedCall/onnx_tf_prefix_/_net/_net1/decoder/Concat_8/axis",
                    "shape": [],
                    "dtype": "int32"
                },
                {
                    "name": "PartitionedCall/transpose_138/perm",
                    "shape": [4],
                    "dtype": "int32"
                },
                {
                    "name": "PartitionedCall/Cast_7",
                    "shape": [2],
                    "dtype": "int32"
                },
                {
                    "name": "PartitionedCall/transpose_139/perm",
                    "shape": [4],
                    "dtype": "int32"
                },
                {
                    "name": "PartitionedCall/SelectV2_9",
                    "shape": [2],
                    "dtype": "int32"
                },
                {
                    "name": "PartitionedCall/zeros_2",
                    "shape": [],
                    "dtype": "int32"
                },
                {
                    "name": "PartitionedCall/Const_32",
                    "shape": [],
                    "dtype": "int32"
                },
                {
                    "name": "PartitionedCall/Shape_2",
                    "shape": [4],
                    "dtype": "int32"
                },
                {
                    "name": "PartitionedCall/SelectV2_10",
                    "shape": [2],
                    "dtype": "int32"
                },
                {
                    "name": "PartitionedCall/Const_31",
                    "shape": [],
                    "dtype": "int32"
                },
                {
                    "name": "PartitionedCall/ExpandDims_2",
                    "shape": [2, 1],
                    "dtype": "int32"
                },
                {
                    "name": "PartitionedCall/Cast_9",
                    "shape": [1],
                    "dtype": "int32"
                },
                {
                    "name": "PartitionedCall/Const_33",
                    "shape": [],
                    "dtype": "int32"
                },
                {
                    "name": "PartitionedCall/onnx_tf_prefix_/_net/_net1/decoder/Concat_11/axis",
                    "shape": [],
                    "dtype": "int32"
                },
                {
                    "name": "PartitionedCall/Const_34",
                    "shape": [4, 2],
                    "dtype": "int32"
                },
                {
                    "name": "PartitionedCall/transpose_141/perm",
                    "shape": [4],
                    "dtype": "int32"
                },
                {
                    "name": "PartitionedCall/split_36",
                    "shape": [3, 3, 43, 20],
                    "dtype": "float32",
                    "quantization": {
                        "dtype": "uint8",
                        "min": -0.7469485320296941,
                        "scale": 0.006495204626345167,
                        "original_dtype": "float32"
                    }
                },
                {
                    "name": "unknown_96",
                    "shape": [20],
                    "dtype": "float32",
                    "quantization": {
                        "dtype": "uint8",
                        "min": -1.531113566604315,
                        "scale": 0.01562360782249301,
                        "original_dtype": "float32"
                    }
                },
                {
                    "name": "PartitionedCall/transpose_142/perm",
                    "shape": [4],
                    "dtype": "int32"
                },
                {
                    "name": "PartitionedCall/Const_35",
                    "shape": [2],
                    "dtype": "int32"
                },
                {
                    "name": "PartitionedCall/onnx_tf_prefix_/_net/_net1/decoder/Split_3/split_dim",
                    "shape": [],
                    "dtype": "int32"
                },
                {
                    "name": "PartitionedCall/onnx_tf_prefix_/_net/_net1/decoder/Concat_12/axis",
                    "shape": [],
                    "dtype": "int32"
                },
                {
                    "name": "PartitionedCall/transpose_149/perm",
                    "shape": [4],
                    "dtype": "int32"
                },
                {
                    "name": "PartitionedCall/Cast_10",
                    "shape": [2],
                    "dtype": "int32"
                },
                {
                    "name": "PartitionedCall/transpose_150/perm",
                    "shape": [4],
                    "dtype": "int32"
                },
                {
                    "name": "PartitionedCall/SelectV2_13",
                    "shape": [2],
                    "dtype": "int32"
                },
                {
                    "name": "PartitionedCall/zeros_3",
                    "shape": [],
                    "dtype": "int32"
                },
                {
                    "name": "PartitionedCall/Const_40",
                    "shape": [],
                    "dtype": "int32"
                },
                {
                    "name": "PartitionedCall/Shape_3",
                    "shape": [4],
                    "dtype": "int32"
                },
                {
                    "name": "PartitionedCall/SelectV2_14",
                    "shape": [2],
                    "dtype": "int32"
                },
                {
                    "name": "PartitionedCall/Const_39",
                    "shape": [],
                    "dtype": "int32"
                },
                {
                    "name": "PartitionedCall/ExpandDims_3",
                    "shape": [2, 1],
                    "dtype": "int32"
                },
                {
                    "name": "PartitionedCall/Cast_12",
                    "shape": [1],
                    "dtype": "int32"
                },
                { "name": "unknown_78", "shape": [2], "dtype": "int32" },
                {
                    "name": "PartitionedCall/Const_41",
                    "shape": [],
                    "dtype": "int32"
                },
                {
                    "name": "PartitionedCall/onnx_tf_prefix_/_net/_net1/decoder/Concat_15/axis",
                    "shape": [],
                    "dtype": "int32"
                },
                {
                    "name": "PartitionedCall/Const_42",
                    "shape": [4, 2],
                    "dtype": "int32"
                },
                {
                    "name": "PartitionedCall/transpose_152/perm",
                    "shape": [4],
                    "dtype": "int32"
                },
                {
                    "name": "PartitionedCall/split_39",
                    "shape": [3, 3, 23, 16],
                    "dtype": "float32",
                    "quantization": {
                        "dtype": "uint8",
                        "min": -0.2725445172365974,
                        "scale": 0.0024776774294236127,
                        "original_dtype": "float32"
                    }
                },
                {
                    "name": "unknown_104",
                    "shape": [16],
                    "dtype": "float32",
                    "quantization": {
                        "dtype": "uint8",
                        "min": -1.1091188168993185,
                        "scale": 0.00693199260562074,
                        "original_dtype": "float32"
                    }
                },
                {
                    "name": "PartitionedCall/transpose_153/perm",
                    "shape": [4],
                    "dtype": "int32"
                },
                {
                    "name": "PartitionedCall/Const_43",
                    "shape": [4, 2],
                    "dtype": "int32"
                },
                {
                    "name": "PartitionedCall/transpose_155/perm",
                    "shape": [4],
                    "dtype": "int32"
                },
                {
                    "name": "PartitionedCall/split_40",
                    "shape": [3, 3, 16, 16],
                    "dtype": "float32",
                    "quantization": {
                        "dtype": "uint8",
                        "min": -0.41408562192729875,
                        "scale": 0.00331268497541839,
                        "original_dtype": "float32"
                    }
                },
                {
                    "name": "unknown_106",
                    "shape": [16],
                    "dtype": "float32",
                    "quantization": {
                        "dtype": "uint8",
                        "min": -0.5931103372106366,
                        "scale": 0.004147624735738717,
                        "original_dtype": "float32"
                    }
                },
                {
                    "name": "PartitionedCall/transpose_156/perm",
                    "shape": [4],
                    "dtype": "int32"
                },
                {
                    "name": "PartitionedCall/onnx_tf_prefix_/_net/_net2/Concat_3/axis",
                    "shape": [],
                    "dtype": "int32"
                },
                {
                    "name": "PartitionedCall/transpose_167/perm",
                    "shape": [4],
                    "dtype": "int32"
                },
                {
                    "name": "PartitionedCall/split_42",
                    "shape": [1, 1, 24, 16],
                    "dtype": "float32",
                    "quantization": {
                        "dtype": "uint8",
                        "min": -6.264283685123218,
                        "scale": 0.04745669458426681,
                        "original_dtype": "float32"
                    }
                },
                {
                    "name": "unknown_114",
                    "shape": [16],
                    "dtype": "float32",
                    "quantization": {
                        "dtype": "uint8",
                        "min": -0.5308853747797948,
                        "scale": 0.005104667065190334,
                        "original_dtype": "float32"
                    }
                },
                {
                    "name": "PartitionedCall/transpose_168/perm",
                    "shape": [4],
                    "dtype": "int32"
                },
                {
                    "name": "PartitionedCall/transpose_170/perm",
                    "shape": [4],
                    "dtype": "int32"
                },
                {
                    "name": "PartitionedCall/split_43",
                    "shape": [1, 1, 16, 16],
                    "dtype": "float32",
                    "quantization": {
                        "dtype": "uint8",
                        "min": -2.6847107775071084,
                        "scale": 0.019454425923964555,
                        "original_dtype": "float32"
                    }
                },
                {
                    "name": "unknown_116",
                    "shape": [16],
                    "dtype": "float32",
                    "quantization": {
                        "dtype": "uint8",
                        "min": -0.6364769082443387,
                        "scale": 0.0055345818108203364,
                        "original_dtype": "float32"
                    }
                },
                {
                    "name": "PartitionedCall/transpose_171/perm",
                    "shape": [4],
                    "dtype": "int32"
                },
                {
                    "name": "PartitionedCall/transpose_173/perm",
                    "shape": [4],
                    "dtype": "int32"
                },
                {
                    "name": "PartitionedCall/split_44",
                    "shape": [1, 1, 16, 4],
                    "dtype": "float32",
                    "quantization": {
                        "dtype": "uint8",
                        "min": -0.3391580683343551,
                        "scale": 0.002670535971136654,
                        "original_dtype": "float32"
                    }
                },
                {
                    "name": "unknown_118",
                    "shape": [4],
                    "dtype": "float32",
                    "quantization": {
                        "dtype": "uint8",
                        "min": 0.00821909960359335,
                        "scale": 0.0006833844653823796,
                        "original_dtype": "float32"
                    }
                },
                {
                    "name": "PartitionedCall/transpose_174/perm",
                    "shape": [4],
                    "dtype": "int32"
                },
                {
                    "name": "PartitionedCall/onnx_tf_prefix_input_order_convert_transpose_0/perm",
                    "shape": [4],
                    "dtype": "int32"
                },
                {
                    "name": "unknown",
                    "shape": [1, 3, 1, 1],
                    "dtype": "float32",
                    "quantization": {
                        "dtype": "uint8",
                        "min": 0.4059999883174896,
                        "scale": 0.0003098040234808828,
                        "original_dtype": "float32"
                    }
                },
                {
                    "name": "ConstantFolding/PartitionedCall/onnx_tf_prefix_/Div_recip",
                    "shape": [1, 3, 1, 1],
                    "dtype": "float32",
                    "quantization": {
                        "dtype": "uint8",
                        "min": 4.366812229156494,
                        "scale": 0.0003822476256127451,
                        "original_dtype": "float32"
                    }
                },
                {
                    "name": "PartitionedCall/transpose/perm",
                    "shape": [4],
                    "dtype": "int32"
                },
                {
                    "name": "PartitionedCall/Cast",
                    "shape": [2],
                    "dtype": "int32"
                },
                {
                    "name": "PartitionedCall/transpose_1/perm",
                    "shape": [4],
                    "dtype": "int32"
                },
                {
                    "name": "PartitionedCall/onnx_tf_prefix_/_net/_net2/ReduceMean_1/reduction_indices",
                    "shape": [],
                    "dtype": "int32"
                },
                {
                    "name": "PartitionedCall/onnx_tf_prefix_/_net/_net2/Concat_2/axis",
                    "shape": [],
                    "dtype": "int32"
                },
                {
                    "name": "PartitionedCall/Const_1",
                    "shape": [4, 2],
                    "dtype": "int32"
                },
                {
                    "name": "PartitionedCall/transpose_12/perm",
                    "shape": [4],
                    "dtype": "int32"
                },
                {
                    "name": "PartitionedCall/Reshape",
                    "shape": [3, 3, 4, 1],
                    "dtype": "float32",
                    "quantization": {
                        "dtype": "uint8",
                        "min": 0.046324681490659714,
                        "scale": 0.0011600864430268605,
                        "original_dtype": "float32"
                    }
                },
                {
                    "name": "PartitionedCall/transpose_13/perm",
                    "shape": [4],
                    "dtype": "int32"
                },
                {
                    "name": "PartitionedCall/transpose_177/perm",
                    "shape": [4],
                    "dtype": "int32"
                },
                {
                    "name": "PartitionedCall/Cast_20",
                    "shape": [2],
                    "dtype": "int32"
                },
                {
                    "name": "PartitionedCall/transpose_178/perm",
                    "shape": [4],
                    "dtype": "int32"
                },
                {
                    "name": "unknown_71",
                    "shape": [],
                    "dtype": "float32",
                    "quantization": {
                        "dtype": "uint8",
                        "min": 1.0,
                        "scale": 1.0,
                        "original_dtype": "float32"
                    }
                },
                {
                    "name": "unknown_7",
                    "shape": [],
                    "dtype": "float32",
                    "quantization": {
                        "dtype": "uint8",
                        "min": 0.0,
                        "scale": 1.0,
                        "original_dtype": "float32"
                    }
                },
                {
                    "name": "PartitionedCall/SelectV2_29",
                    "shape": [1],
                    "dtype": "int32"
                },
                {
                    "name": "PartitionedCall/zeros_7",
                    "shape": [],
                    "dtype": "int32"
                },
                {
                    "name": "PartitionedCall/Const_57",
                    "shape": [],
                    "dtype": "int32"
                },
                {
                    "name": "PartitionedCall/Shape_7",
                    "shape": [4],
                    "dtype": "int32"
                },
                {
                    "name": "PartitionedCall/SelectV2_30",
                    "shape": [1],
                    "dtype": "int32"
                },
                {
                    "name": "PartitionedCall/Const_56",
                    "shape": [],
                    "dtype": "int32"
                },
                {
                    "name": "PartitionedCall/ExpandDims_7",
                    "shape": [1, 1],
                    "dtype": "int32"
                },
                {
                    "name": "PartitionedCall/Cast_22",
                    "shape": [1],
                    "dtype": "int32"
                },
                { "name": "unknown_109", "shape": [1], "dtype": "int32" },
                {
                    "name": "PartitionedCall/Const_58",
                    "shape": [],
                    "dtype": "int32"
                }
            ]
        }
    ]
}
