{
    "format": "graph-model",
    "generatedBy": "2.13.0",
    "convertedBy": "TensorFlow.js Converter v4.9.0",
    "signature": {
        "inputs": {
            "input": {
                "name": "input:0",
                "dtype": "DT_FLOAT",
                "tensorShape": {
                    "dim": [
                        { "size": "1" },
                        { "size": "384" },
                        { "size": "384" },
                        { "size": "3" }
                    ]
                }
            },
            "hi1": {
                "name": "hi1:0",
                "dtype": "DT_FLOAT",
                "tensorShape": {
                    "dim": [
                        { "size": "1" },
                        { "size": "20" },
                        { "size": "24" },
                        { "size": "24" }
                    ]
                }
            },
            "hi3": {
                "name": "hi3:0",
                "dtype": "DT_FLOAT",
                "tensorShape": {
                    "dim": [
                        { "size": "1" },
                        { "size": "12" },
                        { "size": "96" },
                        { "size": "96" }
                    ]
                }
            },
            "hi4": {
                "name": "hi4:0",
                "dtype": "DT_FLOAT",
                "tensorShape": {
                    "dim": [
                        { "size": "1" },
                        { "size": "10" },
                        { "size": "192" },
                        { "size": "192" }
                    ]
                }
            },
            "hi2": {
                "name": "hi2:0",
                "dtype": "DT_FLOAT",
                "tensorShape": {
                    "dim": [
                        { "size": "1" },
                        { "size": "16" },
                        { "size": "48" },
                        { "size": "48" }
                    ]
                }
            }
        },
        "outputs": {
            "ho1": {
                "name": "Identity:0",
                "dtype": "DT_FLOAT",
                "tensorShape": {
                    "dim": [
                        { "size": "1" },
                        { "size": "20" },
                        { "size": "24" },
                        { "size": "24" }
                    ]
                }
            },
            "output": {
                "name": "Identity_4:0",
                "dtype": "DT_FLOAT",
                "tensorShape": {
                    "dim": [
                        { "size": "1" },
                        { "size": "1" },
                        { "size": "384" },
                        { "size": "384" }
                    ]
                }
            },
            "ho2": {
                "name": "Identity_1:0",
                "dtype": "DT_FLOAT",
                "tensorShape": {
                    "dim": [
                        { "size": "1" },
                        { "size": "16" },
                        { "size": "48" },
                        { "size": "48" }
                    ]
                }
            },
            "ho4": {
                "name": "Identity_3:0",
                "dtype": "DT_FLOAT",
                "tensorShape": {
                    "dim": [
                        { "size": "1" },
                        { "size": "10" },
                        { "size": "192" },
                        { "size": "192" }
                    ]
                }
            },
            "ho3": {
                "name": "Identity_2:0",
                "dtype": "DT_FLOAT",
                "tensorShape": {
                    "dim": [
                        { "size": "1" },
                        { "size": "12" },
                        { "size": "96" },
                        { "size": "96" }
                    ]
                }
            }
        }
    },
    "modelTopology": {
        "node": [
            {
                "name": "PartitionedCall/SelectV2_17",
                "op": "Const",
                "attr": {
                    "dtype": { "type": "DT_INT64" },
                    "value": {
                        "tensor": {
                            "dtype": "DT_INT64",
                            "tensorShape": { "dim": [{ "size": "1" }] }
                        }
                    }
                }
            },
            {
                "name": "PartitionedCall/zeros_4",
                "op": "Const",
                "attr": {
                    "dtype": { "type": "DT_INT64" },
                    "value": {
                        "tensor": { "dtype": "DT_INT64", "tensorShape": {} }
                    }
                }
            },
            {
                "name": "PartitionedCall/Const_44",
                "op": "Const",
                "attr": {
                    "value": {
                        "tensor": { "dtype": "DT_INT64", "tensorShape": {} }
                    },
                    "dtype": { "type": "DT_INT64" }
                }
            },
            {
                "name": "PartitionedCall/Shape_4",
                "op": "Const",
                "attr": {
                    "dtype": { "type": "DT_INT64" },
                    "value": {
                        "tensor": {
                            "dtype": "DT_INT64",
                            "tensorShape": { "dim": [{ "size": "4" }] }
                        }
                    }
                }
            },
            {
                "name": "PartitionedCall/SelectV2_18",
                "op": "Const",
                "attr": {
                    "dtype": { "type": "DT_INT64" },
                    "value": {
                        "tensor": {
                            "dtype": "DT_INT64",
                            "tensorShape": { "dim": [{ "size": "1" }] }
                        }
                    }
                }
            },
            {
                "name": "PartitionedCall/Const_43",
                "op": "Const",
                "attr": {
                    "dtype": { "type": "DT_INT64" },
                    "value": {
                        "tensor": { "dtype": "DT_INT64", "tensorShape": {} }
                    }
                }
            },
            {
                "name": "PartitionedCall/ExpandDims_4",
                "op": "Const",
                "attr": {
                    "dtype": { "type": "DT_INT64" },
                    "value": {
                        "tensor": {
                            "dtype": "DT_INT64",
                            "tensorShape": {
                                "dim": [{ "size": "1" }, { "size": "1" }]
                            }
                        }
                    }
                }
            },
            {
                "name": "PartitionedCall/Cast_14",
                "op": "Const",
                "attr": {
                    "dtype": { "type": "DT_INT64" },
                    "value": {
                        "tensor": {
                            "dtype": "DT_INT64",
                            "tensorShape": { "dim": [{ "size": "1" }] }
                        }
                    }
                }
            },
            {
                "name": "PartitionedCall/Const_45",
                "op": "Const",
                "attr": {
                    "value": {
                        "tensor": { "dtype": "DT_INT64", "tensorShape": {} }
                    },
                    "dtype": { "type": "DT_INT64" }
                }
            },
            {
                "name": "PartitionedCall/onnx_tf_prefix_/_net/decoder/convGRU4/gru_cell/Concat/axis",
                "op": "Const",
                "attr": {
                    "value": {
                        "tensor": { "dtype": "DT_INT32", "tensorShape": {} }
                    },
                    "dtype": { "type": "DT_INT32" }
                }
            },
            {
                "name": "PartitionedCall/Const_34",
                "op": "Const",
                "attr": {
                    "value": {
                        "tensor": {
                            "dtype": "DT_INT32",
                            "tensorShape": {
                                "dim": [{ "size": "4" }, { "size": "2" }]
                            }
                        }
                    },
                    "dtype": { "type": "DT_INT32" }
                }
            },
            {
                "name": "PartitionedCall/transpose_138/perm",
                "op": "Const",
                "attr": {
                    "value": {
                        "tensor": {
                            "dtype": "DT_INT32",
                            "tensorShape": { "dim": [{ "size": "4" }] }
                        }
                    },
                    "dtype": { "type": "DT_INT32" }
                }
            },
            {
                "name": "PartitionedCall/split_37",
                "op": "Const",
                "attr": {
                    "value": {
                        "tensor": {
                            "dtype": "DT_FLOAT",
                            "tensorShape": {
                                "dim": [
                                    { "size": "3" },
                                    { "size": "3" },
                                    { "size": "20" },
                                    { "size": "20" }
                                ]
                            }
                        }
                    },
                    "dtype": { "type": "DT_FLOAT" }
                }
            },
            {
                "name": "unknown_97",
                "op": "Const",
                "attr": {
                    "value": {
                        "tensor": {
                            "dtype": "DT_FLOAT",
                            "tensorShape": { "dim": [{ "size": "20" }] }
                        }
                    },
                    "dtype": { "type": "DT_FLOAT" }
                }
            },
            {
                "name": "PartitionedCall/transpose_139/perm",
                "op": "Const",
                "attr": {
                    "value": {
                        "tensor": {
                            "dtype": "DT_INT32",
                            "tensorShape": { "dim": [{ "size": "4" }] }
                        }
                    },
                    "dtype": { "type": "DT_INT32" }
                }
            },
            {
                "name": "PartitionedCall/Const_35",
                "op": "Const",
                "attr": {
                    "dtype": { "type": "DT_INT32" },
                    "value": {
                        "tensor": {
                            "dtype": "DT_INT32",
                            "tensorShape": { "dim": [{ "size": "2" }] }
                        }
                    }
                }
            },
            {
                "name": "PartitionedCall/onnx_tf_prefix_/_net/decoder/convGRU4/gru_cell/Split/split_dim",
                "op": "Const",
                "attr": {
                    "value": {
                        "tensor": { "dtype": "DT_INT32", "tensorShape": {} }
                    },
                    "dtype": { "type": "DT_INT32" }
                }
            },
            {
                "name": "PartitionedCall/onnx_tf_prefix_/_net/decoder/convGRU4/gru_cell/Concat_1/axis",
                "op": "Const",
                "attr": {
                    "value": {
                        "tensor": { "dtype": "DT_INT32", "tensorShape": {} }
                    },
                    "dtype": { "type": "DT_INT32" }
                }
            },
            {
                "name": "PartitionedCall/Const_36",
                "op": "Const",
                "attr": {
                    "value": {
                        "tensor": {
                            "dtype": "DT_INT32",
                            "tensorShape": {
                                "dim": [{ "size": "4" }, { "size": "2" }]
                            }
                        }
                    },
                    "dtype": { "type": "DT_INT32" }
                }
            },
            {
                "name": "PartitionedCall/transpose_141/perm",
                "op": "Const",
                "attr": {
                    "value": {
                        "tensor": {
                            "dtype": "DT_INT32",
                            "tensorShape": { "dim": [{ "size": "4" }] }
                        }
                    },
                    "dtype": { "type": "DT_INT32" }
                }
            },
            {
                "name": "PartitionedCall/split_38",
                "op": "Const",
                "attr": {
                    "dtype": { "type": "DT_FLOAT" },
                    "value": {
                        "tensor": {
                            "dtype": "DT_FLOAT",
                            "tensorShape": {
                                "dim": [
                                    { "size": "3" },
                                    { "size": "3" },
                                    { "size": "20" },
                                    { "size": "10" }
                                ]
                            }
                        }
                    }
                }
            },
            {
                "name": "unknown_99",
                "op": "Const",
                "attr": {
                    "value": {
                        "tensor": {
                            "dtype": "DT_FLOAT",
                            "tensorShape": { "dim": [{ "size": "10" }] }
                        }
                    },
                    "dtype": { "type": "DT_FLOAT" }
                }
            },
            {
                "name": "PartitionedCall/transpose_142/perm",
                "op": "Const",
                "attr": {
                    "value": {
                        "tensor": {
                            "dtype": "DT_INT32",
                            "tensorShape": { "dim": [{ "size": "4" }] }
                        }
                    },
                    "dtype": { "type": "DT_INT32" }
                }
            },
            {
                "name": "PartitionedCall/transpose_6/perm",
                "op": "Const",
                "attr": {
                    "dtype": { "type": "DT_INT32" },
                    "value": {
                        "tensor": {
                            "dtype": "DT_INT32",
                            "tensorShape": { "dim": [{ "size": "4" }] }
                        }
                    }
                }
            },
            {
                "name": "PartitionedCall/onnx_tf_prefix_/_net/decoder/convGRU3/gru_cell/Concat/axis",
                "op": "Const",
                "attr": {
                    "value": {
                        "tensor": { "dtype": "DT_INT32", "tensorShape": {} }
                    },
                    "dtype": { "type": "DT_INT32" }
                }
            },
            {
                "name": "PartitionedCall/Const_26",
                "op": "Const",
                "attr": {
                    "dtype": { "type": "DT_INT32" },
                    "value": {
                        "tensor": {
                            "dtype": "DT_INT32",
                            "tensorShape": {
                                "dim": [{ "size": "4" }, { "size": "2" }]
                            }
                        }
                    }
                }
            },
            {
                "name": "PartitionedCall/transpose_127/perm",
                "op": "Const",
                "attr": {
                    "dtype": { "type": "DT_INT32" },
                    "value": {
                        "tensor": {
                            "dtype": "DT_INT32",
                            "tensorShape": { "dim": [{ "size": "4" }] }
                        }
                    }
                }
            },
            {
                "name": "PartitionedCall/split_34",
                "op": "Const",
                "attr": {
                    "value": {
                        "tensor": {
                            "dtype": "DT_FLOAT",
                            "tensorShape": {
                                "dim": [
                                    { "size": "3" },
                                    { "size": "3" },
                                    { "size": "24" },
                                    { "size": "24" }
                                ]
                            }
                        }
                    },
                    "dtype": { "type": "DT_FLOAT" }
                }
            },
            {
                "name": "unknown_89",
                "op": "Const",
                "attr": {
                    "value": {
                        "tensor": {
                            "dtype": "DT_FLOAT",
                            "tensorShape": { "dim": [{ "size": "24" }] }
                        }
                    },
                    "dtype": { "type": "DT_FLOAT" }
                }
            },
            {
                "name": "PartitionedCall/transpose_128/perm",
                "op": "Const",
                "attr": {
                    "dtype": { "type": "DT_INT32" },
                    "value": {
                        "tensor": {
                            "dtype": "DT_INT32",
                            "tensorShape": { "dim": [{ "size": "4" }] }
                        }
                    }
                }
            },
            {
                "name": "PartitionedCall/Const_27",
                "op": "Const",
                "attr": {
                    "value": {
                        "tensor": {
                            "dtype": "DT_INT32",
                            "tensorShape": { "dim": [{ "size": "2" }] }
                        }
                    },
                    "dtype": { "type": "DT_INT32" }
                }
            },
            {
                "name": "PartitionedCall/onnx_tf_prefix_/_net/decoder/convGRU3/gru_cell/Split/split_dim",
                "op": "Const",
                "attr": {
                    "dtype": { "type": "DT_INT32" },
                    "value": {
                        "tensor": { "dtype": "DT_INT32", "tensorShape": {} }
                    }
                }
            },
            {
                "name": "PartitionedCall/onnx_tf_prefix_/_net/decoder/convGRU3/gru_cell/Concat_1/axis",
                "op": "Const",
                "attr": {
                    "value": {
                        "tensor": { "dtype": "DT_INT32", "tensorShape": {} }
                    },
                    "dtype": { "type": "DT_INT32" }
                }
            },
            {
                "name": "PartitionedCall/Const_28",
                "op": "Const",
                "attr": {
                    "dtype": { "type": "DT_INT32" },
                    "value": {
                        "tensor": {
                            "dtype": "DT_INT32",
                            "tensorShape": {
                                "dim": [{ "size": "4" }, { "size": "2" }]
                            }
                        }
                    }
                }
            },
            {
                "name": "PartitionedCall/transpose_130/perm",
                "op": "Const",
                "attr": {
                    "dtype": { "type": "DT_INT32" },
                    "value": {
                        "tensor": {
                            "dtype": "DT_INT32",
                            "tensorShape": { "dim": [{ "size": "4" }] }
                        }
                    }
                }
            },
            {
                "name": "PartitionedCall/split_35",
                "op": "Const",
                "attr": {
                    "value": {
                        "tensor": {
                            "dtype": "DT_FLOAT",
                            "tensorShape": {
                                "dim": [
                                    { "size": "3" },
                                    { "size": "3" },
                                    { "size": "24" },
                                    { "size": "12" }
                                ]
                            }
                        }
                    },
                    "dtype": { "type": "DT_FLOAT" }
                }
            },
            {
                "name": "unknown_91",
                "op": "Const",
                "attr": {
                    "value": {
                        "tensor": {
                            "dtype": "DT_FLOAT",
                            "tensorShape": { "dim": [{ "size": "12" }] }
                        }
                    },
                    "dtype": { "type": "DT_FLOAT" }
                }
            },
            {
                "name": "PartitionedCall/transpose_131/perm",
                "op": "Const",
                "attr": {
                    "dtype": { "type": "DT_INT32" },
                    "value": {
                        "tensor": {
                            "dtype": "DT_INT32",
                            "tensorShape": { "dim": [{ "size": "4" }] }
                        }
                    }
                }
            },
            {
                "name": "PartitionedCall/transpose_8/perm",
                "op": "Const",
                "attr": {
                    "dtype": { "type": "DT_INT32" },
                    "value": {
                        "tensor": {
                            "dtype": "DT_INT32",
                            "tensorShape": { "dim": [{ "size": "4" }] }
                        }
                    }
                }
            },
            {
                "name": "PartitionedCall/onnx_tf_prefix_/_net/decoder/convGRU2/gru_cell/Concat/axis",
                "op": "Const",
                "attr": {
                    "value": {
                        "tensor": { "dtype": "DT_INT32", "tensorShape": {} }
                    },
                    "dtype": { "type": "DT_INT32" }
                }
            },
            {
                "name": "PartitionedCall/Const_18",
                "op": "Const",
                "attr": {
                    "value": {
                        "tensor": {
                            "dtype": "DT_INT32",
                            "tensorShape": {
                                "dim": [{ "size": "4" }, { "size": "2" }]
                            }
                        }
                    },
                    "dtype": { "type": "DT_INT32" }
                }
            },
            {
                "name": "PartitionedCall/transpose_116/perm",
                "op": "Const",
                "attr": {
                    "value": {
                        "tensor": {
                            "dtype": "DT_INT32",
                            "tensorShape": { "dim": [{ "size": "4" }] }
                        }
                    },
                    "dtype": { "type": "DT_INT32" }
                }
            },
            {
                "name": "PartitionedCall/split_31",
                "op": "Const",
                "attr": {
                    "dtype": { "type": "DT_FLOAT" },
                    "value": {
                        "tensor": {
                            "dtype": "DT_FLOAT",
                            "tensorShape": {
                                "dim": [
                                    { "size": "3" },
                                    { "size": "3" },
                                    { "size": "32" },
                                    { "size": "32" }
                                ]
                            }
                        }
                    }
                }
            },
            {
                "name": "unknown_81",
                "op": "Const",
                "attr": {
                    "value": {
                        "tensor": {
                            "dtype": "DT_FLOAT",
                            "tensorShape": { "dim": [{ "size": "32" }] }
                        }
                    },
                    "dtype": { "type": "DT_FLOAT" }
                }
            },
            {
                "name": "PartitionedCall/transpose_117/perm",
                "op": "Const",
                "attr": {
                    "dtype": { "type": "DT_INT32" },
                    "value": {
                        "tensor": {
                            "dtype": "DT_INT32",
                            "tensorShape": { "dim": [{ "size": "4" }] }
                        }
                    }
                }
            },
            {
                "name": "PartitionedCall/Const_19",
                "op": "Const",
                "attr": {
                    "value": {
                        "tensor": {
                            "dtype": "DT_INT32",
                            "tensorShape": { "dim": [{ "size": "2" }] }
                        }
                    },
                    "dtype": { "type": "DT_INT32" }
                }
            },
            {
                "name": "PartitionedCall/onnx_tf_prefix_/_net/decoder/convGRU2/gru_cell/Split/split_dim",
                "op": "Const",
                "attr": {
                    "dtype": { "type": "DT_INT32" },
                    "value": {
                        "tensor": { "dtype": "DT_INT32", "tensorShape": {} }
                    }
                }
            },
            {
                "name": "PartitionedCall/onnx_tf_prefix_/_net/decoder/convGRU2/gru_cell/Concat_1/axis",
                "op": "Const",
                "attr": {
                    "value": {
                        "tensor": { "dtype": "DT_INT32", "tensorShape": {} }
                    },
                    "dtype": { "type": "DT_INT32" }
                }
            },
            {
                "name": "PartitionedCall/Const_20",
                "op": "Const",
                "attr": {
                    "dtype": { "type": "DT_INT32" },
                    "value": {
                        "tensor": {
                            "dtype": "DT_INT32",
                            "tensorShape": {
                                "dim": [{ "size": "4" }, { "size": "2" }]
                            }
                        }
                    }
                }
            },
            {
                "name": "PartitionedCall/transpose_119/perm",
                "op": "Const",
                "attr": {
                    "value": {
                        "tensor": {
                            "dtype": "DT_INT32",
                            "tensorShape": { "dim": [{ "size": "4" }] }
                        }
                    },
                    "dtype": { "type": "DT_INT32" }
                }
            },
            {
                "name": "PartitionedCall/split_32",
                "op": "Const",
                "attr": {
                    "dtype": { "type": "DT_FLOAT" },
                    "value": {
                        "tensor": {
                            "dtype": "DT_FLOAT",
                            "tensorShape": {
                                "dim": [
                                    { "size": "3" },
                                    { "size": "3" },
                                    { "size": "32" },
                                    { "size": "16" }
                                ]
                            }
                        }
                    }
                }
            },
            {
                "name": "unknown_83",
                "op": "Const",
                "attr": {
                    "value": {
                        "tensor": {
                            "dtype": "DT_FLOAT",
                            "tensorShape": { "dim": [{ "size": "16" }] }
                        }
                    },
                    "dtype": { "type": "DT_FLOAT" }
                }
            },
            {
                "name": "PartitionedCall/transpose_120/perm",
                "op": "Const",
                "attr": {
                    "value": {
                        "tensor": {
                            "dtype": "DT_INT32",
                            "tensorShape": { "dim": [{ "size": "4" }] }
                        }
                    },
                    "dtype": { "type": "DT_INT32" }
                }
            },
            {
                "name": "PartitionedCall/transpose_10/perm",
                "op": "Const",
                "attr": {
                    "value": {
                        "tensor": {
                            "dtype": "DT_INT32",
                            "tensorShape": { "dim": [{ "size": "4" }] }
                        }
                    },
                    "dtype": { "type": "DT_INT32" }
                }
            },
            {
                "name": "unknown_70",
                "op": "Const",
                "attr": {
                    "dtype": { "type": "DT_FLOAT" },
                    "value": {
                        "tensor": { "dtype": "DT_FLOAT", "tensorShape": {} }
                    }
                }
            },
            {
                "name": "PartitionedCall/onnx_tf_prefix_/_net/decoder/convGRU1/gru_cell/Concat/axis",
                "op": "Const",
                "attr": {
                    "dtype": { "type": "DT_INT32" },
                    "value": {
                        "tensor": { "dtype": "DT_INT32", "tensorShape": {} }
                    }
                }
            },
            {
                "name": "PartitionedCall/Const_10",
                "op": "Const",
                "attr": {
                    "value": {
                        "tensor": {
                            "dtype": "DT_INT32",
                            "tensorShape": {
                                "dim": [{ "size": "4" }, { "size": "2" }]
                            }
                        }
                    },
                    "dtype": { "type": "DT_INT32" }
                }
            },
            {
                "name": "PartitionedCall/transpose_105/perm",
                "op": "Const",
                "attr": {
                    "dtype": { "type": "DT_INT32" },
                    "value": {
                        "tensor": {
                            "dtype": "DT_INT32",
                            "tensorShape": { "dim": [{ "size": "4" }] }
                        }
                    }
                }
            },
            {
                "name": "PartitionedCall/split_28",
                "op": "Const",
                "attr": {
                    "value": {
                        "tensor": {
                            "dtype": "DT_FLOAT",
                            "tensorShape": {
                                "dim": [
                                    { "size": "3" },
                                    { "size": "3" },
                                    { "size": "40" },
                                    { "size": "40" }
                                ]
                            }
                        }
                    },
                    "dtype": { "type": "DT_FLOAT" }
                }
            },
            {
                "name": "unknown_69",
                "op": "Const",
                "attr": {
                    "dtype": { "type": "DT_FLOAT" },
                    "value": {
                        "tensor": {
                            "dtype": "DT_FLOAT",
                            "tensorShape": { "dim": [{ "size": "40" }] }
                        }
                    }
                }
            },
            {
                "name": "PartitionedCall/transpose_106/perm",
                "op": "Const",
                "attr": {
                    "value": {
                        "tensor": {
                            "dtype": "DT_INT32",
                            "tensorShape": { "dim": [{ "size": "4" }] }
                        }
                    },
                    "dtype": { "type": "DT_INT32" }
                }
            },
            {
                "name": "PartitionedCall/Const_11",
                "op": "Const",
                "attr": {
                    "dtype": { "type": "DT_INT32" },
                    "value": {
                        "tensor": {
                            "dtype": "DT_INT32",
                            "tensorShape": { "dim": [{ "size": "2" }] }
                        }
                    }
                }
            },
            {
                "name": "PartitionedCall/onnx_tf_prefix_/_net/decoder/convGRU1/gru_cell/Split/split_dim",
                "op": "Const",
                "attr": {
                    "value": {
                        "tensor": { "dtype": "DT_INT32", "tensorShape": {} }
                    },
                    "dtype": { "type": "DT_INT32" }
                }
            },
            {
                "name": "PartitionedCall/onnx_tf_prefix_/_net/decoder/convGRU1/gru_cell/Concat_1/axis",
                "op": "Const",
                "attr": {
                    "value": {
                        "tensor": { "dtype": "DT_INT32", "tensorShape": {} }
                    },
                    "dtype": { "type": "DT_INT32" }
                }
            },
            {
                "name": "PartitionedCall/Const_12",
                "op": "Const",
                "attr": {
                    "value": {
                        "tensor": {
                            "dtype": "DT_INT32",
                            "tensorShape": {
                                "dim": [{ "size": "4" }, { "size": "2" }]
                            }
                        }
                    },
                    "dtype": { "type": "DT_INT32" }
                }
            },
            {
                "name": "PartitionedCall/transpose_108/perm",
                "op": "Const",
                "attr": {
                    "dtype": { "type": "DT_INT32" },
                    "value": {
                        "tensor": {
                            "dtype": "DT_INT32",
                            "tensorShape": { "dim": [{ "size": "4" }] }
                        }
                    }
                }
            },
            {
                "name": "PartitionedCall/split_29",
                "op": "Const",
                "attr": {
                    "value": {
                        "tensor": {
                            "dtype": "DT_FLOAT",
                            "tensorShape": {
                                "dim": [
                                    { "size": "3" },
                                    { "size": "3" },
                                    { "size": "40" },
                                    { "size": "20" }
                                ]
                            }
                        }
                    },
                    "dtype": { "type": "DT_FLOAT" }
                }
            },
            {
                "name": "unknown_72",
                "op": "Const",
                "attr": {
                    "dtype": { "type": "DT_FLOAT" },
                    "value": {
                        "tensor": {
                            "dtype": "DT_FLOAT",
                            "tensorShape": { "dim": [{ "size": "20" }] }
                        }
                    }
                }
            },
            {
                "name": "PartitionedCall/transpose_109/perm",
                "op": "Const",
                "attr": {
                    "dtype": { "type": "DT_INT32" },
                    "value": {
                        "tensor": {
                            "dtype": "DT_INT32",
                            "tensorShape": { "dim": [{ "size": "4" }] }
                        }
                    }
                }
            },
            {
                "name": "PartitionedCall/transpose_99/perm",
                "op": "Const",
                "attr": {
                    "dtype": { "type": "DT_INT32" },
                    "value": {
                        "tensor": {
                            "dtype": "DT_INT32",
                            "tensorShape": { "dim": [{ "size": "4" }] }
                        }
                    }
                }
            },
            {
                "name": "PartitionedCall/split_25",
                "op": "Const",
                "attr": {
                    "value": {
                        "tensor": {
                            "dtype": "DT_FLOAT",
                            "tensorShape": {
                                "dim": [
                                    { "size": "1" },
                                    { "size": "1" },
                                    { "size": "80" },
                                    { "size": "40" }
                                ]
                            }
                        }
                    },
                    "dtype": { "type": "DT_FLOAT" }
                }
            },
            {
                "name": "unknown_66",
                "op": "Const",
                "attr": {
                    "dtype": { "type": "DT_FLOAT" },
                    "value": {
                        "tensor": {
                            "dtype": "DT_FLOAT",
                            "tensorShape": { "dim": [{ "size": "40" }] }
                        }
                    }
                }
            },
            {
                "name": "PartitionedCall/transpose_100/perm",
                "op": "Const",
                "attr": {
                    "value": {
                        "tensor": {
                            "dtype": "DT_INT32",
                            "tensorShape": { "dim": [{ "size": "4" }] }
                        }
                    },
                    "dtype": { "type": "DT_INT32" }
                }
            },
            {
                "name": "ConstantFolding/PartitionedCall/onnx_tf_prefix_/_net/encoder/8/block/1/2/Div_recip",
                "op": "Const",
                "attr": {
                    "dtype": { "type": "DT_FLOAT" },
                    "value": {
                        "tensor": { "dtype": "DT_FLOAT", "tensorShape": {} }
                    }
                }
            },
            {
                "name": "ConstantFolding/PartitionedCall/onnx_tf_prefix_/_net/encoder/8/block/0/2/Div_recip",
                "op": "Const",
                "attr": {
                    "value": {
                        "tensor": { "dtype": "DT_FLOAT", "tensorShape": {} }
                    },
                    "dtype": { "type": "DT_FLOAT" }
                }
            },
            {
                "name": "PartitionedCall/split_23",
                "op": "Const",
                "attr": {
                    "value": {
                        "tensor": {
                            "dtype": "DT_FLOAT",
                            "tensorShape": {
                                "dim": [
                                    { "size": "1" },
                                    { "size": "1" },
                                    { "size": "80" },
                                    { "size": "200" }
                                ]
                            }
                        }
                    },
                    "dtype": { "type": "DT_FLOAT" }
                }
            },
            {
                "name": "unknown_60",
                "op": "Const",
                "attr": {
                    "dtype": { "type": "DT_FLOAT" },
                    "value": {
                        "tensor": {
                            "dtype": "DT_FLOAT",
                            "tensorShape": { "dim": [{ "size": "200" }] }
                        }
                    }
                }
            },
            {
                "name": "PartitionedCall/transpose_91/perm",
                "op": "Const",
                "attr": {
                    "dtype": { "type": "DT_INT32" },
                    "value": {
                        "tensor": {
                            "dtype": "DT_INT32",
                            "tensorShape": { "dim": [{ "size": "4" }] }
                        }
                    }
                }
            },
            {
                "name": "PartitionedCall/Const_8",
                "op": "Const",
                "attr": {
                    "dtype": { "type": "DT_INT32" },
                    "value": {
                        "tensor": {
                            "dtype": "DT_INT32",
                            "tensorShape": {
                                "dim": [{ "size": "4" }, { "size": "2" }]
                            }
                        }
                    }
                }
            },
            {
                "name": "PartitionedCall/transpose_93/perm",
                "op": "Const",
                "attr": {
                    "dtype": { "type": "DT_INT32" },
                    "value": {
                        "tensor": {
                            "dtype": "DT_INT32",
                            "tensorShape": { "dim": [{ "size": "4" }] }
                        }
                    }
                }
            },
            {
                "name": "PartitionedCall/Reshape_7",
                "op": "Const",
                "attr": {
                    "value": {
                        "tensor": {
                            "dtype": "DT_FLOAT",
                            "tensorShape": {
                                "dim": [
                                    { "size": "3" },
                                    { "size": "3" },
                                    { "size": "200" },
                                    { "size": "1" }
                                ]
                            }
                        }
                    },
                    "dtype": { "type": "DT_FLOAT" }
                }
            },
            {
                "name": "unknown_62",
                "op": "Const",
                "attr": {
                    "dtype": { "type": "DT_FLOAT" },
                    "value": {
                        "tensor": {
                            "dtype": "DT_FLOAT",
                            "tensorShape": { "dim": [{ "size": "200" }] }
                        }
                    }
                }
            },
            {
                "name": "PartitionedCall/transpose_94/perm",
                "op": "Const",
                "attr": {
                    "dtype": { "type": "DT_INT32" },
                    "value": {
                        "tensor": {
                            "dtype": "DT_INT32",
                            "tensorShape": { "dim": [{ "size": "4" }] }
                        }
                    }
                }
            },
            {
                "name": "PartitionedCall/transpose_96/perm",
                "op": "Const",
                "attr": {
                    "value": {
                        "tensor": {
                            "dtype": "DT_INT32",
                            "tensorShape": { "dim": [{ "size": "4" }] }
                        }
                    },
                    "dtype": { "type": "DT_INT32" }
                }
            },
            {
                "name": "PartitionedCall/split_24",
                "op": "Const",
                "attr": {
                    "dtype": { "type": "DT_FLOAT" },
                    "value": {
                        "tensor": {
                            "dtype": "DT_FLOAT",
                            "tensorShape": {
                                "dim": [
                                    { "size": "1" },
                                    { "size": "1" },
                                    { "size": "200" },
                                    { "size": "80" }
                                ]
                            }
                        }
                    }
                }
            },
            {
                "name": "unknown_64",
                "op": "Const",
                "attr": {
                    "dtype": { "type": "DT_FLOAT" },
                    "value": {
                        "tensor": {
                            "dtype": "DT_FLOAT",
                            "tensorShape": { "dim": [{ "size": "80" }] }
                        }
                    }
                }
            },
            {
                "name": "PartitionedCall/transpose_97/perm",
                "op": "Const",
                "attr": {
                    "value": {
                        "tensor": {
                            "dtype": "DT_INT32",
                            "tensorShape": { "dim": [{ "size": "4" }] }
                        }
                    },
                    "dtype": { "type": "DT_INT32" }
                }
            },
            {
                "name": "ConstantFolding/PartitionedCall/onnx_tf_prefix_/_net/encoder/7/block/1/2/Div_recip",
                "op": "Const",
                "attr": {
                    "dtype": { "type": "DT_FLOAT" },
                    "value": {
                        "tensor": { "dtype": "DT_FLOAT", "tensorShape": {} }
                    }
                }
            },
            {
                "name": "ConstantFolding/PartitionedCall/onnx_tf_prefix_/_net/encoder/7/block/0/2/Div_recip",
                "op": "Const",
                "attr": {
                    "value": {
                        "tensor": { "dtype": "DT_FLOAT", "tensorShape": {} }
                    },
                    "dtype": { "type": "DT_FLOAT" }
                }
            },
            {
                "name": "ConstantFolding/PartitionedCall/onnx_tf_prefix_/_net/encoder/6/Div_recip",
                "op": "Const",
                "attr": {
                    "dtype": { "type": "DT_FLOAT" },
                    "value": {
                        "tensor": { "dtype": "DT_FLOAT", "tensorShape": {} }
                    }
                }
            },
            {
                "name": "ConstantFolding/PartitionedCall/split_17-folded-1",
                "op": "Const",
                "attr": {
                    "dtype": { "type": "DT_INT32" },
                    "value": {
                        "tensor": {
                            "dtype": "DT_INT32",
                            "tensorShape": { "dim": [{ "size": "2" }] }
                        }
                    }
                }
            },
            {
                "name": "PartitionedCall/transpose_72/perm",
                "op": "Const",
                "attr": {
                    "dtype": { "type": "DT_INT32" },
                    "value": {
                        "tensor": {
                            "dtype": "DT_INT32",
                            "tensorShape": { "dim": [{ "size": "4" }] }
                        }
                    }
                }
            },
            {
                "name": "PartitionedCall/split_18",
                "op": "Const",
                "attr": {
                    "dtype": { "type": "DT_FLOAT" },
                    "value": {
                        "tensor": {
                            "dtype": "DT_FLOAT",
                            "tensorShape": {
                                "dim": [
                                    { "size": "1" },
                                    { "size": "1" },
                                    { "size": "120" },
                                    { "size": "32" }
                                ]
                            }
                        }
                    }
                }
            },
            {
                "name": "unknown_48",
                "op": "Const",
                "attr": {
                    "value": {
                        "tensor": {
                            "dtype": "DT_FLOAT",
                            "tensorShape": { "dim": [{ "size": "32" }] }
                        }
                    },
                    "dtype": { "type": "DT_FLOAT" }
                }
            },
            {
                "name": "PartitionedCall/transpose_73/perm",
                "op": "Const",
                "attr": {
                    "dtype": { "type": "DT_INT32" },
                    "value": {
                        "tensor": {
                            "dtype": "DT_INT32",
                            "tensorShape": { "dim": [{ "size": "4" }] }
                        }
                    }
                }
            },
            {
                "name": "PartitionedCall/transpose_75/perm",
                "op": "Const",
                "attr": {
                    "value": {
                        "tensor": {
                            "dtype": "DT_INT32",
                            "tensorShape": { "dim": [{ "size": "4" }] }
                        }
                    },
                    "dtype": { "type": "DT_INT32" }
                }
            },
            {
                "name": "PartitionedCall/split_19",
                "op": "Const",
                "attr": {
                    "dtype": { "type": "DT_FLOAT" },
                    "value": {
                        "tensor": {
                            "dtype": "DT_FLOAT",
                            "tensorShape": {
                                "dim": [
                                    { "size": "1" },
                                    { "size": "1" },
                                    { "size": "32" },
                                    { "size": "120" }
                                ]
                            }
                        }
                    }
                }
            },
            {
                "name": "unknown_50",
                "op": "Const",
                "attr": {
                    "dtype": { "type": "DT_FLOAT" },
                    "value": {
                        "tensor": {
                            "dtype": "DT_FLOAT",
                            "tensorShape": { "dim": [{ "size": "120" }] }
                        }
                    }
                }
            },
            {
                "name": "PartitionedCall/transpose_76/perm",
                "op": "Const",
                "attr": {
                    "dtype": { "type": "DT_INT32" },
                    "value": {
                        "tensor": {
                            "dtype": "DT_INT32",
                            "tensorShape": { "dim": [{ "size": "4" }] }
                        }
                    }
                }
            },
            {
                "name": "PartitionedCall/transpose_66/perm",
                "op": "Const",
                "attr": {
                    "dtype": { "type": "DT_INT32" },
                    "value": {
                        "tensor": {
                            "dtype": "DT_INT32",
                            "tensorShape": { "dim": [{ "size": "4" }] }
                        }
                    }
                }
            },
            {
                "name": "PartitionedCall/split_16",
                "op": "Const",
                "attr": {
                    "value": {
                        "tensor": {
                            "dtype": "DT_FLOAT",
                            "tensorShape": {
                                "dim": [
                                    { "size": "1" },
                                    { "size": "1" },
                                    { "size": "40" },
                                    { "size": "120" }
                                ]
                            }
                        }
                    },
                    "dtype": { "type": "DT_FLOAT" }
                }
            },
            {
                "name": "unknown_44",
                "op": "Const",
                "attr": {
                    "value": {
                        "tensor": {
                            "dtype": "DT_FLOAT",
                            "tensorShape": { "dim": [{ "size": "120" }] }
                        }
                    },
                    "dtype": { "type": "DT_FLOAT" }
                }
            },
            {
                "name": "PartitionedCall/transpose_67/perm",
                "op": "Const",
                "attr": {
                    "dtype": { "type": "DT_INT32" },
                    "value": {
                        "tensor": {
                            "dtype": "DT_INT32",
                            "tensorShape": { "dim": [{ "size": "4" }] }
                        }
                    }
                }
            },
            {
                "name": "PartitionedCall/Const_6",
                "op": "Const",
                "attr": {
                    "dtype": { "type": "DT_INT32" },
                    "value": {
                        "tensor": {
                            "dtype": "DT_INT32",
                            "tensorShape": {
                                "dim": [{ "size": "4" }, { "size": "2" }]
                            }
                        }
                    }
                }
            },
            {
                "name": "PartitionedCall/transpose_69/perm",
                "op": "Const",
                "attr": {
                    "value": {
                        "tensor": {
                            "dtype": "DT_INT32",
                            "tensorShape": { "dim": [{ "size": "4" }] }
                        }
                    },
                    "dtype": { "type": "DT_INT32" }
                }
            },
            {
                "name": "PartitionedCall/Reshape_5",
                "op": "Const",
                "attr": {
                    "value": {
                        "tensor": {
                            "dtype": "DT_FLOAT",
                            "tensorShape": {
                                "dim": [
                                    { "size": "5" },
                                    { "size": "5" },
                                    { "size": "120" },
                                    { "size": "1" }
                                ]
                            }
                        }
                    },
                    "dtype": { "type": "DT_FLOAT" }
                }
            },
            {
                "name": "unknown_46",
                "op": "Const",
                "attr": {
                    "value": {
                        "tensor": {
                            "dtype": "DT_FLOAT",
                            "tensorShape": { "dim": [{ "size": "120" }] }
                        }
                    },
                    "dtype": { "type": "DT_FLOAT" }
                }
            },
            {
                "name": "PartitionedCall/transpose_70/perm",
                "op": "Const",
                "attr": {
                    "value": {
                        "tensor": {
                            "dtype": "DT_INT32",
                            "tensorShape": { "dim": [{ "size": "4" }] }
                        }
                    },
                    "dtype": { "type": "DT_INT32" }
                }
            },
            {
                "name": "PartitionedCall/transpose_78/perm",
                "op": "Const",
                "attr": {
                    "dtype": { "type": "DT_INT32" },
                    "value": {
                        "tensor": {
                            "dtype": "DT_INT32",
                            "tensorShape": { "dim": [{ "size": "4" }] }
                        }
                    }
                }
            },
            {
                "name": "PartitionedCall/split_20",
                "op": "Const",
                "attr": {
                    "value": {
                        "tensor": {
                            "dtype": "DT_FLOAT",
                            "tensorShape": {
                                "dim": [
                                    { "size": "1" },
                                    { "size": "1" },
                                    { "size": "120" },
                                    { "size": "40" }
                                ]
                            }
                        }
                    },
                    "dtype": { "type": "DT_FLOAT" }
                }
            },
            {
                "name": "unknown_52",
                "op": "Const",
                "attr": {
                    "value": {
                        "tensor": {
                            "dtype": "DT_FLOAT",
                            "tensorShape": { "dim": [{ "size": "40" }] }
                        }
                    },
                    "dtype": { "type": "DT_FLOAT" }
                }
            },
            {
                "name": "PartitionedCall/transpose_79/perm",
                "op": "Const",
                "attr": {
                    "dtype": { "type": "DT_INT32" },
                    "value": {
                        "tensor": {
                            "dtype": "DT_INT32",
                            "tensorShape": { "dim": [{ "size": "4" }] }
                        }
                    }
                }
            },
            {
                "name": "ConstantFolding/PartitionedCall/onnx_tf_prefix_/_net/encoder/5/block/2/scale_activation/Div_recip",
                "op": "Const",
                "attr": {
                    "value": {
                        "tensor": { "dtype": "DT_FLOAT", "tensorShape": {} }
                    },
                    "dtype": { "type": "DT_FLOAT" }
                }
            },
            {
                "name": "ConstantFolding/PartitionedCall/split_12-folded-1",
                "op": "Const",
                "attr": {
                    "value": {
                        "tensor": {
                            "dtype": "DT_INT32",
                            "tensorShape": { "dim": [{ "size": "2" }] }
                        }
                    },
                    "dtype": { "type": "DT_INT32" }
                }
            },
            {
                "name": "PartitionedCall/transpose_57/perm",
                "op": "Const",
                "attr": {
                    "value": {
                        "tensor": {
                            "dtype": "DT_INT32",
                            "tensorShape": { "dim": [{ "size": "4" }] }
                        }
                    },
                    "dtype": { "type": "DT_INT32" }
                }
            },
            {
                "name": "PartitionedCall/split_13",
                "op": "Const",
                "attr": {
                    "dtype": { "type": "DT_FLOAT" },
                    "value": {
                        "tensor": {
                            "dtype": "DT_FLOAT",
                            "tensorShape": {
                                "dim": [
                                    { "size": "1" },
                                    { "size": "1" },
                                    { "size": "120" },
                                    { "size": "32" }
                                ]
                            }
                        }
                    }
                }
            },
            {
                "name": "unknown_38",
                "op": "Const",
                "attr": {
                    "dtype": { "type": "DT_FLOAT" },
                    "value": {
                        "tensor": {
                            "dtype": "DT_FLOAT",
                            "tensorShape": { "dim": [{ "size": "32" }] }
                        }
                    }
                }
            },
            {
                "name": "PartitionedCall/transpose_58/perm",
                "op": "Const",
                "attr": {
                    "dtype": { "type": "DT_INT32" },
                    "value": {
                        "tensor": {
                            "dtype": "DT_INT32",
                            "tensorShape": { "dim": [{ "size": "4" }] }
                        }
                    }
                }
            },
            {
                "name": "PartitionedCall/transpose_60/perm",
                "op": "Const",
                "attr": {
                    "dtype": { "type": "DT_INT32" },
                    "value": {
                        "tensor": {
                            "dtype": "DT_INT32",
                            "tensorShape": { "dim": [{ "size": "4" }] }
                        }
                    }
                }
            },
            {
                "name": "PartitionedCall/split_14",
                "op": "Const",
                "attr": {
                    "value": {
                        "tensor": {
                            "dtype": "DT_FLOAT",
                            "tensorShape": {
                                "dim": [
                                    { "size": "1" },
                                    { "size": "1" },
                                    { "size": "32" },
                                    { "size": "120" }
                                ]
                            }
                        }
                    },
                    "dtype": { "type": "DT_FLOAT" }
                }
            },
            {
                "name": "unknown_40",
                "op": "Const",
                "attr": {
                    "value": {
                        "tensor": {
                            "dtype": "DT_FLOAT",
                            "tensorShape": { "dim": [{ "size": "120" }] }
                        }
                    },
                    "dtype": { "type": "DT_FLOAT" }
                }
            },
            {
                "name": "PartitionedCall/transpose_61/perm",
                "op": "Const",
                "attr": {
                    "value": {
                        "tensor": {
                            "dtype": "DT_INT32",
                            "tensorShape": { "dim": [{ "size": "4" }] }
                        }
                    },
                    "dtype": { "type": "DT_INT32" }
                }
            },
            {
                "name": "PartitionedCall/split_11",
                "op": "Const",
                "attr": {
                    "value": {
                        "tensor": {
                            "dtype": "DT_FLOAT",
                            "tensorShape": {
                                "dim": [
                                    { "size": "1" },
                                    { "size": "1" },
                                    { "size": "40" },
                                    { "size": "120" }
                                ]
                            }
                        }
                    },
                    "dtype": { "type": "DT_FLOAT" }
                }
            },
            {
                "name": "unknown_34",
                "op": "Const",
                "attr": {
                    "dtype": { "type": "DT_FLOAT" },
                    "value": {
                        "tensor": {
                            "dtype": "DT_FLOAT",
                            "tensorShape": { "dim": [{ "size": "120" }] }
                        }
                    }
                }
            },
            {
                "name": "PartitionedCall/transpose_52/perm",
                "op": "Const",
                "attr": {
                    "dtype": { "type": "DT_INT32" },
                    "value": {
                        "tensor": {
                            "dtype": "DT_INT32",
                            "tensorShape": { "dim": [{ "size": "4" }] }
                        }
                    }
                }
            },
            {
                "name": "PartitionedCall/Const_5",
                "op": "Const",
                "attr": {
                    "dtype": { "type": "DT_INT32" },
                    "value": {
                        "tensor": {
                            "dtype": "DT_INT32",
                            "tensorShape": {
                                "dim": [{ "size": "4" }, { "size": "2" }]
                            }
                        }
                    }
                }
            },
            {
                "name": "PartitionedCall/transpose_54/perm",
                "op": "Const",
                "attr": {
                    "value": {
                        "tensor": {
                            "dtype": "DT_INT32",
                            "tensorShape": { "dim": [{ "size": "4" }] }
                        }
                    },
                    "dtype": { "type": "DT_INT32" }
                }
            },
            {
                "name": "PartitionedCall/Reshape_4",
                "op": "Const",
                "attr": {
                    "dtype": { "type": "DT_FLOAT" },
                    "value": {
                        "tensor": {
                            "dtype": "DT_FLOAT",
                            "tensorShape": {
                                "dim": [
                                    { "size": "5" },
                                    { "size": "5" },
                                    { "size": "120" },
                                    { "size": "1" }
                                ]
                            }
                        }
                    }
                }
            },
            {
                "name": "unknown_36",
                "op": "Const",
                "attr": {
                    "dtype": { "type": "DT_FLOAT" },
                    "value": {
                        "tensor": {
                            "dtype": "DT_FLOAT",
                            "tensorShape": { "dim": [{ "size": "120" }] }
                        }
                    }
                }
            },
            {
                "name": "PartitionedCall/transpose_55/perm",
                "op": "Const",
                "attr": {
                    "value": {
                        "tensor": {
                            "dtype": "DT_INT32",
                            "tensorShape": { "dim": [{ "size": "4" }] }
                        }
                    },
                    "dtype": { "type": "DT_INT32" }
                }
            },
            {
                "name": "PartitionedCall/transpose_63/perm",
                "op": "Const",
                "attr": {
                    "value": {
                        "tensor": {
                            "dtype": "DT_INT32",
                            "tensorShape": { "dim": [{ "size": "4" }] }
                        }
                    },
                    "dtype": { "type": "DT_INT32" }
                }
            },
            {
                "name": "PartitionedCall/split_15",
                "op": "Const",
                "attr": {
                    "value": {
                        "tensor": {
                            "dtype": "DT_FLOAT",
                            "tensorShape": {
                                "dim": [
                                    { "size": "1" },
                                    { "size": "1" },
                                    { "size": "120" },
                                    { "size": "40" }
                                ]
                            }
                        }
                    },
                    "dtype": { "type": "DT_FLOAT" }
                }
            },
            {
                "name": "unknown_42",
                "op": "Const",
                "attr": {
                    "value": {
                        "tensor": {
                            "dtype": "DT_FLOAT",
                            "tensorShape": { "dim": [{ "size": "40" }] }
                        }
                    },
                    "dtype": { "type": "DT_FLOAT" }
                }
            },
            {
                "name": "PartitionedCall/transpose_64/perm",
                "op": "Const",
                "attr": {
                    "value": {
                        "tensor": {
                            "dtype": "DT_INT32",
                            "tensorShape": { "dim": [{ "size": "4" }] }
                        }
                    },
                    "dtype": { "type": "DT_INT32" }
                }
            },
            {
                "name": "ConstantFolding/PartitionedCall/onnx_tf_prefix_/_net/encoder/4/block/2/scale_activation/Div_recip",
                "op": "Const",
                "attr": {
                    "value": {
                        "tensor": { "dtype": "DT_FLOAT", "tensorShape": {} }
                    },
                    "dtype": { "type": "DT_FLOAT" }
                }
            },
            {
                "name": "ConstantFolding/PartitionedCall/split_7-folded-1",
                "op": "Const",
                "attr": {
                    "dtype": { "type": "DT_INT32" },
                    "value": {
                        "tensor": {
                            "dtype": "DT_INT32",
                            "tensorShape": { "dim": [{ "size": "2" }] }
                        }
                    }
                }
            },
            {
                "name": "PartitionedCall/transpose_42/perm",
                "op": "Const",
                "attr": {
                    "dtype": { "type": "DT_INT32" },
                    "value": {
                        "tensor": {
                            "dtype": "DT_INT32",
                            "tensorShape": { "dim": [{ "size": "4" }] }
                        }
                    }
                }
            },
            {
                "name": "PartitionedCall/split_8",
                "op": "Const",
                "attr": {
                    "dtype": { "type": "DT_FLOAT" },
                    "value": {
                        "tensor": {
                            "dtype": "DT_FLOAT",
                            "tensorShape": {
                                "dim": [
                                    { "size": "1" },
                                    { "size": "1" },
                                    { "size": "72" },
                                    { "size": "24" }
                                ]
                            }
                        }
                    }
                }
            },
            {
                "name": "unknown_28",
                "op": "Const",
                "attr": {
                    "value": {
                        "tensor": {
                            "dtype": "DT_FLOAT",
                            "tensorShape": { "dim": [{ "size": "24" }] }
                        }
                    },
                    "dtype": { "type": "DT_FLOAT" }
                }
            },
            {
                "name": "PartitionedCall/transpose_43/perm",
                "op": "Const",
                "attr": {
                    "dtype": { "type": "DT_INT32" },
                    "value": {
                        "tensor": {
                            "dtype": "DT_INT32",
                            "tensorShape": { "dim": [{ "size": "4" }] }
                        }
                    }
                }
            },
            {
                "name": "PartitionedCall/transpose_45/perm",
                "op": "Const",
                "attr": {
                    "value": {
                        "tensor": {
                            "dtype": "DT_INT32",
                            "tensorShape": { "dim": [{ "size": "4" }] }
                        }
                    },
                    "dtype": { "type": "DT_INT32" }
                }
            },
            {
                "name": "PartitionedCall/split_9",
                "op": "Const",
                "attr": {
                    "dtype": { "type": "DT_FLOAT" },
                    "value": {
                        "tensor": {
                            "dtype": "DT_FLOAT",
                            "tensorShape": {
                                "dim": [
                                    { "size": "1" },
                                    { "size": "1" },
                                    { "size": "24" },
                                    { "size": "72" }
                                ]
                            }
                        }
                    }
                }
            },
            {
                "name": "unknown_30",
                "op": "Const",
                "attr": {
                    "value": {
                        "tensor": {
                            "dtype": "DT_FLOAT",
                            "tensorShape": { "dim": [{ "size": "72" }] }
                        }
                    },
                    "dtype": { "type": "DT_FLOAT" }
                }
            },
            {
                "name": "PartitionedCall/transpose_46/perm",
                "op": "Const",
                "attr": {
                    "value": {
                        "tensor": {
                            "dtype": "DT_INT32",
                            "tensorShape": { "dim": [{ "size": "4" }] }
                        }
                    },
                    "dtype": { "type": "DT_INT32" }
                }
            },
            {
                "name": "PartitionedCall/split_4",
                "op": "Const",
                "attr": {
                    "dtype": { "type": "DT_FLOAT" },
                    "value": {
                        "tensor": {
                            "dtype": "DT_FLOAT",
                            "tensorShape": {
                                "dim": [
                                    { "size": "1" },
                                    { "size": "1" },
                                    { "size": "24" },
                                    { "size": "72" }
                                ]
                            }
                        }
                    }
                }
            },
            {
                "name": "unknown_18",
                "op": "Const",
                "attr": {
                    "dtype": { "type": "DT_FLOAT" },
                    "value": {
                        "tensor": {
                            "dtype": "DT_FLOAT",
                            "tensorShape": { "dim": [{ "size": "72" }] }
                        }
                    }
                }
            },
            {
                "name": "PartitionedCall/transpose_28/perm",
                "op": "Const",
                "attr": {
                    "value": {
                        "tensor": {
                            "dtype": "DT_INT32",
                            "tensorShape": { "dim": [{ "size": "4" }] }
                        }
                    },
                    "dtype": { "type": "DT_INT32" }
                }
            },
            {
                "name": "PartitionedCall/Const_3",
                "op": "Const",
                "attr": {
                    "dtype": { "type": "DT_INT32" },
                    "value": {
                        "tensor": {
                            "dtype": "DT_INT32",
                            "tensorShape": {
                                "dim": [{ "size": "4" }, { "size": "2" }]
                            }
                        }
                    }
                }
            },
            {
                "name": "PartitionedCall/transpose_30/perm",
                "op": "Const",
                "attr": {
                    "value": {
                        "tensor": {
                            "dtype": "DT_INT32",
                            "tensorShape": { "dim": [{ "size": "4" }] }
                        }
                    },
                    "dtype": { "type": "DT_INT32" }
                }
            },
            {
                "name": "PartitionedCall/Reshape_2",
                "op": "Const",
                "attr": {
                    "value": {
                        "tensor": {
                            "dtype": "DT_FLOAT",
                            "tensorShape": {
                                "dim": [
                                    { "size": "3" },
                                    { "size": "3" },
                                    { "size": "72" },
                                    { "size": "1" }
                                ]
                            }
                        }
                    },
                    "dtype": { "type": "DT_FLOAT" }
                }
            },
            {
                "name": "unknown_20",
                "op": "Const",
                "attr": {
                    "value": {
                        "tensor": {
                            "dtype": "DT_FLOAT",
                            "tensorShape": { "dim": [{ "size": "72" }] }
                        }
                    },
                    "dtype": { "type": "DT_FLOAT" }
                }
            },
            {
                "name": "PartitionedCall/transpose_31/perm",
                "op": "Const",
                "attr": {
                    "dtype": { "type": "DT_INT32" },
                    "value": {
                        "tensor": {
                            "dtype": "DT_INT32",
                            "tensorShape": { "dim": [{ "size": "4" }] }
                        }
                    }
                }
            },
            {
                "name": "PartitionedCall/transpose_33/perm",
                "op": "Const",
                "attr": {
                    "value": {
                        "tensor": {
                            "dtype": "DT_INT32",
                            "tensorShape": { "dim": [{ "size": "4" }] }
                        }
                    },
                    "dtype": { "type": "DT_INT32" }
                }
            },
            {
                "name": "PartitionedCall/split_5",
                "op": "Const",
                "attr": {
                    "dtype": { "type": "DT_FLOAT" },
                    "value": {
                        "tensor": {
                            "dtype": "DT_FLOAT",
                            "tensorShape": {
                                "dim": [
                                    { "size": "1" },
                                    { "size": "1" },
                                    { "size": "72" },
                                    { "size": "24" }
                                ]
                            }
                        }
                    }
                }
            },
            {
                "name": "unknown_22",
                "op": "Const",
                "attr": {
                    "dtype": { "type": "DT_FLOAT" },
                    "value": {
                        "tensor": {
                            "dtype": "DT_FLOAT",
                            "tensorShape": { "dim": [{ "size": "24" }] }
                        }
                    }
                }
            },
            {
                "name": "PartitionedCall/transpose_34/perm",
                "op": "Const",
                "attr": {
                    "dtype": { "type": "DT_INT32" },
                    "value": {
                        "tensor": {
                            "dtype": "DT_INT32",
                            "tensorShape": { "dim": [{ "size": "4" }] }
                        }
                    }
                }
            },
            {
                "name": "PartitionedCall/Const_1",
                "op": "Const",
                "attr": {
                    "value": {
                        "tensor": {
                            "dtype": "DT_INT32",
                            "tensorShape": {
                                "dim": [{ "size": "4" }, { "size": "2" }]
                            }
                        }
                    },
                    "dtype": { "type": "DT_INT32" }
                }
            },
            {
                "name": "PartitionedCall/transpose_12/perm",
                "op": "Const",
                "attr": {
                    "dtype": { "type": "DT_INT32" },
                    "value": {
                        "tensor": {
                            "dtype": "DT_INT32",
                            "tensorShape": { "dim": [{ "size": "4" }] }
                        }
                    }
                }
            },
            {
                "name": "PartitionedCall/Reshape",
                "op": "Const",
                "attr": {
                    "value": {
                        "tensor": {
                            "dtype": "DT_FLOAT",
                            "tensorShape": {
                                "dim": [
                                    { "size": "3" },
                                    { "size": "3" },
                                    { "size": "16" },
                                    { "size": "1" }
                                ]
                            }
                        }
                    },
                    "dtype": { "type": "DT_FLOAT" }
                }
            },
            {
                "name": "unknown_8",
                "op": "Const",
                "attr": {
                    "value": {
                        "tensor": {
                            "dtype": "DT_FLOAT",
                            "tensorShape": { "dim": [{ "size": "16" }] }
                        }
                    },
                    "dtype": { "type": "DT_FLOAT" }
                }
            },
            {
                "name": "PartitionedCall/transpose_13/perm",
                "op": "Const",
                "attr": {
                    "dtype": { "type": "DT_INT32" },
                    "value": {
                        "tensor": {
                            "dtype": "DT_INT32",
                            "tensorShape": { "dim": [{ "size": "4" }] }
                        }
                    }
                }
            },
            {
                "name": "PartitionedCall/transpose_15/perm",
                "op": "Const",
                "attr": {
                    "value": {
                        "tensor": {
                            "dtype": "DT_INT32",
                            "tensorShape": { "dim": [{ "size": "4" }] }
                        }
                    },
                    "dtype": { "type": "DT_INT32" }
                }
            },
            {
                "name": "PartitionedCall/split_1",
                "op": "Const",
                "attr": {
                    "value": {
                        "tensor": {
                            "dtype": "DT_FLOAT",
                            "tensorShape": {
                                "dim": [
                                    { "size": "1" },
                                    { "size": "1" },
                                    { "size": "16" },
                                    { "size": "16" }
                                ]
                            }
                        }
                    },
                    "dtype": { "type": "DT_FLOAT" }
                }
            },
            {
                "name": "unknown_10",
                "op": "Const",
                "attr": {
                    "value": {
                        "tensor": {
                            "dtype": "DT_FLOAT",
                            "tensorShape": { "dim": [{ "size": "16" }] }
                        }
                    },
                    "dtype": { "type": "DT_FLOAT" }
                }
            },
            {
                "name": "PartitionedCall/transpose_16/perm",
                "op": "Const",
                "attr": {
                    "dtype": { "type": "DT_INT32" },
                    "value": {
                        "tensor": {
                            "dtype": "DT_INT32",
                            "tensorShape": { "dim": [{ "size": "4" }] }
                        }
                    }
                }
            },
            {
                "name": "ConstantFolding/PartitionedCall/onnx_tf_prefix_/_net/encoder/0/2/Div_recip",
                "op": "Const",
                "attr": {
                    "dtype": { "type": "DT_FLOAT" },
                    "value": {
                        "tensor": { "dtype": "DT_FLOAT", "tensorShape": {} }
                    }
                }
            },
            {
                "name": "PartitionedCall/onnx_tf_prefix_input_order_convert_transpose_0/perm",
                "op": "Const",
                "attr": {
                    "value": {
                        "tensor": {
                            "dtype": "DT_INT32",
                            "tensorShape": { "dim": [{ "size": "4" }] }
                        }
                    },
                    "dtype": { "type": "DT_INT32" }
                }
            },
            {
                "name": "unknown",
                "op": "Const",
                "attr": {
                    "value": {
                        "tensor": {
                            "dtype": "DT_FLOAT",
                            "tensorShape": {
                                "dim": [
                                    { "size": "1" },
                                    { "size": "3" },
                                    { "size": "1" },
                                    { "size": "1" }
                                ]
                            }
                        }
                    },
                    "dtype": { "type": "DT_FLOAT" }
                }
            },
            {
                "name": "ConstantFolding/PartitionedCall/onnx_tf_prefix_/Div_recip",
                "op": "Const",
                "attr": {
                    "value": {
                        "tensor": {
                            "dtype": "DT_FLOAT",
                            "tensorShape": {
                                "dim": [
                                    { "size": "1" },
                                    { "size": "3" },
                                    { "size": "1" },
                                    { "size": "1" }
                                ]
                            }
                        }
                    },
                    "dtype": { "type": "DT_FLOAT" }
                }
            },
            {
                "name": "PartitionedCall/transpose/perm",
                "op": "Const",
                "attr": {
                    "value": {
                        "tensor": {
                            "dtype": "DT_INT32",
                            "tensorShape": { "dim": [{ "size": "4" }] }
                        }
                    },
                    "dtype": { "type": "DT_INT32" }
                }
            },
            {
                "name": "PartitionedCall/Cast",
                "op": "Const",
                "attr": {
                    "dtype": { "type": "DT_INT32" },
                    "value": {
                        "tensor": {
                            "dtype": "DT_INT32",
                            "tensorShape": { "dim": [{ "size": "2" }] }
                        }
                    }
                }
            },
            {
                "name": "PartitionedCall/transpose_1/perm",
                "op": "Const",
                "attr": {
                    "value": {
                        "tensor": {
                            "dtype": "DT_INT32",
                            "tensorShape": { "dim": [{ "size": "4" }] }
                        }
                    },
                    "dtype": { "type": "DT_INT32" }
                }
            },
            {
                "name": "PartitionedCall/Const",
                "op": "Const",
                "attr": {
                    "dtype": { "type": "DT_INT32" },
                    "value": {
                        "tensor": {
                            "dtype": "DT_INT32",
                            "tensorShape": {
                                "dim": [{ "size": "4" }, { "size": "2" }]
                            }
                        }
                    }
                }
            },
            {
                "name": "PartitionedCall/transpose_3/perm",
                "op": "Const",
                "attr": {
                    "value": {
                        "tensor": {
                            "dtype": "DT_INT32",
                            "tensorShape": { "dim": [{ "size": "4" }] }
                        }
                    },
                    "dtype": { "type": "DT_INT32" }
                }
            },
            {
                "name": "PartitionedCall/split",
                "op": "Const",
                "attr": {
                    "dtype": { "type": "DT_FLOAT" },
                    "value": {
                        "tensor": {
                            "dtype": "DT_FLOAT",
                            "tensorShape": {
                                "dim": [
                                    { "size": "3" },
                                    { "size": "3" },
                                    { "size": "3" },
                                    { "size": "16" }
                                ]
                            }
                        }
                    }
                }
            },
            {
                "name": "unknown_3",
                "op": "Const",
                "attr": {
                    "dtype": { "type": "DT_FLOAT" },
                    "value": {
                        "tensor": {
                            "dtype": "DT_FLOAT",
                            "tensorShape": { "dim": [{ "size": "16" }] }
                        }
                    }
                }
            },
            {
                "name": "PartitionedCall/transpose_4/perm",
                "op": "Const",
                "attr": {
                    "dtype": { "type": "DT_INT32" },
                    "value": {
                        "tensor": {
                            "dtype": "DT_INT32",
                            "tensorShape": { "dim": [{ "size": "4" }] }
                        }
                    }
                }
            },
            {
                "name": "PartitionedCall/transpose_18/perm",
                "op": "Const",
                "attr": {
                    "value": {
                        "tensor": {
                            "dtype": "DT_INT32",
                            "tensorShape": { "dim": [{ "size": "4" }] }
                        }
                    },
                    "dtype": { "type": "DT_INT32" }
                }
            },
            {
                "name": "PartitionedCall/split_2",
                "op": "Const",
                "attr": {
                    "dtype": { "type": "DT_FLOAT" },
                    "value": {
                        "tensor": {
                            "dtype": "DT_FLOAT",
                            "tensorShape": {
                                "dim": [
                                    { "size": "1" },
                                    { "size": "1" },
                                    { "size": "16" },
                                    { "size": "64" }
                                ]
                            }
                        }
                    }
                }
            },
            {
                "name": "unknown_12",
                "op": "Const",
                "attr": {
                    "value": {
                        "tensor": {
                            "dtype": "DT_FLOAT",
                            "tensorShape": { "dim": [{ "size": "64" }] }
                        }
                    },
                    "dtype": { "type": "DT_FLOAT" }
                }
            },
            {
                "name": "PartitionedCall/transpose_19/perm",
                "op": "Const",
                "attr": {
                    "dtype": { "type": "DT_INT32" },
                    "value": {
                        "tensor": {
                            "dtype": "DT_INT32",
                            "tensorShape": { "dim": [{ "size": "4" }] }
                        }
                    }
                }
            },
            {
                "name": "PartitionedCall/Const_2",
                "op": "Const",
                "attr": {
                    "dtype": { "type": "DT_INT32" },
                    "value": {
                        "tensor": {
                            "dtype": "DT_INT32",
                            "tensorShape": {
                                "dim": [{ "size": "4" }, { "size": "2" }]
                            }
                        }
                    }
                }
            },
            {
                "name": "PartitionedCall/transpose_21/perm",
                "op": "Const",
                "attr": {
                    "value": {
                        "tensor": {
                            "dtype": "DT_INT32",
                            "tensorShape": { "dim": [{ "size": "4" }] }
                        }
                    },
                    "dtype": { "type": "DT_INT32" }
                }
            },
            {
                "name": "PartitionedCall/Reshape_1",
                "op": "Const",
                "attr": {
                    "dtype": { "type": "DT_FLOAT" },
                    "value": {
                        "tensor": {
                            "dtype": "DT_FLOAT",
                            "tensorShape": {
                                "dim": [
                                    { "size": "3" },
                                    { "size": "3" },
                                    { "size": "64" },
                                    { "size": "1" }
                                ]
                            }
                        }
                    }
                }
            },
            {
                "name": "unknown_14",
                "op": "Const",
                "attr": {
                    "dtype": { "type": "DT_FLOAT" },
                    "value": {
                        "tensor": {
                            "dtype": "DT_FLOAT",
                            "tensorShape": { "dim": [{ "size": "64" }] }
                        }
                    }
                }
            },
            {
                "name": "PartitionedCall/transpose_22/perm",
                "op": "Const",
                "attr": {
                    "dtype": { "type": "DT_INT32" },
                    "value": {
                        "tensor": {
                            "dtype": "DT_INT32",
                            "tensorShape": { "dim": [{ "size": "4" }] }
                        }
                    }
                }
            },
            {
                "name": "PartitionedCall/transpose_24/perm",
                "op": "Const",
                "attr": {
                    "value": {
                        "tensor": {
                            "dtype": "DT_INT32",
                            "tensorShape": { "dim": [{ "size": "4" }] }
                        }
                    },
                    "dtype": { "type": "DT_INT32" }
                }
            },
            {
                "name": "PartitionedCall/split_3",
                "op": "Const",
                "attr": {
                    "value": {
                        "tensor": {
                            "dtype": "DT_FLOAT",
                            "tensorShape": {
                                "dim": [
                                    { "size": "1" },
                                    { "size": "1" },
                                    { "size": "64" },
                                    { "size": "24" }
                                ]
                            }
                        }
                    },
                    "dtype": { "type": "DT_FLOAT" }
                }
            },
            {
                "name": "unknown_16",
                "op": "Const",
                "attr": {
                    "dtype": { "type": "DT_FLOAT" },
                    "value": {
                        "tensor": {
                            "dtype": "DT_FLOAT",
                            "tensorShape": { "dim": [{ "size": "24" }] }
                        }
                    }
                }
            },
            {
                "name": "PartitionedCall/transpose_25/perm",
                "op": "Const",
                "attr": {
                    "value": {
                        "tensor": {
                            "dtype": "DT_INT32",
                            "tensorShape": { "dim": [{ "size": "4" }] }
                        }
                    },
                    "dtype": { "type": "DT_INT32" }
                }
            },
            {
                "name": "PartitionedCall/transpose_36/perm",
                "op": "Const",
                "attr": {
                    "value": {
                        "tensor": {
                            "dtype": "DT_INT32",
                            "tensorShape": { "dim": [{ "size": "4" }] }
                        }
                    },
                    "dtype": { "type": "DT_INT32" }
                }
            },
            {
                "name": "PartitionedCall/split_6",
                "op": "Const",
                "attr": {
                    "dtype": { "type": "DT_FLOAT" },
                    "value": {
                        "tensor": {
                            "dtype": "DT_FLOAT",
                            "tensorShape": {
                                "dim": [
                                    { "size": "1" },
                                    { "size": "1" },
                                    { "size": "24" },
                                    { "size": "72" }
                                ]
                            }
                        }
                    }
                }
            },
            {
                "name": "unknown_24",
                "op": "Const",
                "attr": {
                    "value": {
                        "tensor": {
                            "dtype": "DT_FLOAT",
                            "tensorShape": { "dim": [{ "size": "72" }] }
                        }
                    },
                    "dtype": { "type": "DT_FLOAT" }
                }
            },
            {
                "name": "PartitionedCall/transpose_37/perm",
                "op": "Const",
                "attr": {
                    "value": {
                        "tensor": {
                            "dtype": "DT_INT32",
                            "tensorShape": { "dim": [{ "size": "4" }] }
                        }
                    },
                    "dtype": { "type": "DT_INT32" }
                }
            },
            {
                "name": "PartitionedCall/Const_4",
                "op": "Const",
                "attr": {
                    "value": {
                        "tensor": {
                            "dtype": "DT_INT32",
                            "tensorShape": {
                                "dim": [{ "size": "4" }, { "size": "2" }]
                            }
                        }
                    },
                    "dtype": { "type": "DT_INT32" }
                }
            },
            {
                "name": "PartitionedCall/transpose_39/perm",
                "op": "Const",
                "attr": {
                    "value": {
                        "tensor": {
                            "dtype": "DT_INT32",
                            "tensorShape": { "dim": [{ "size": "4" }] }
                        }
                    },
                    "dtype": { "type": "DT_INT32" }
                }
            },
            {
                "name": "PartitionedCall/Reshape_3",
                "op": "Const",
                "attr": {
                    "value": {
                        "tensor": {
                            "dtype": "DT_FLOAT",
                            "tensorShape": {
                                "dim": [
                                    { "size": "5" },
                                    { "size": "5" },
                                    { "size": "72" },
                                    { "size": "1" }
                                ]
                            }
                        }
                    },
                    "dtype": { "type": "DT_FLOAT" }
                }
            },
            {
                "name": "unknown_26",
                "op": "Const",
                "attr": {
                    "dtype": { "type": "DT_FLOAT" },
                    "value": {
                        "tensor": {
                            "dtype": "DT_FLOAT",
                            "tensorShape": { "dim": [{ "size": "72" }] }
                        }
                    }
                }
            },
            {
                "name": "PartitionedCall/transpose_40/perm",
                "op": "Const",
                "attr": {
                    "dtype": { "type": "DT_INT32" },
                    "value": {
                        "tensor": {
                            "dtype": "DT_INT32",
                            "tensorShape": { "dim": [{ "size": "4" }] }
                        }
                    }
                }
            },
            {
                "name": "PartitionedCall/transpose_48/perm",
                "op": "Const",
                "attr": {
                    "dtype": { "type": "DT_INT32" },
                    "value": {
                        "tensor": {
                            "dtype": "DT_INT32",
                            "tensorShape": { "dim": [{ "size": "4" }] }
                        }
                    }
                }
            },
            {
                "name": "PartitionedCall/split_10",
                "op": "Const",
                "attr": {
                    "value": {
                        "tensor": {
                            "dtype": "DT_FLOAT",
                            "tensorShape": {
                                "dim": [
                                    { "size": "1" },
                                    { "size": "1" },
                                    { "size": "72" },
                                    { "size": "40" }
                                ]
                            }
                        }
                    },
                    "dtype": { "type": "DT_FLOAT" }
                }
            },
            {
                "name": "unknown_32",
                "op": "Const",
                "attr": {
                    "value": {
                        "tensor": {
                            "dtype": "DT_FLOAT",
                            "tensorShape": { "dim": [{ "size": "40" }] }
                        }
                    },
                    "dtype": { "type": "DT_FLOAT" }
                }
            },
            {
                "name": "PartitionedCall/transpose_49/perm",
                "op": "Const",
                "attr": {
                    "dtype": { "type": "DT_INT32" },
                    "value": {
                        "tensor": {
                            "dtype": "DT_INT32",
                            "tensorShape": { "dim": [{ "size": "4" }] }
                        }
                    }
                }
            },
            {
                "name": "PartitionedCall/transpose_81/perm",
                "op": "Const",
                "attr": {
                    "value": {
                        "tensor": {
                            "dtype": "DT_INT32",
                            "tensorShape": { "dim": [{ "size": "4" }] }
                        }
                    },
                    "dtype": { "type": "DT_INT32" }
                }
            },
            {
                "name": "PartitionedCall/split_21",
                "op": "Const",
                "attr": {
                    "dtype": { "type": "DT_FLOAT" },
                    "value": {
                        "tensor": {
                            "dtype": "DT_FLOAT",
                            "tensorShape": {
                                "dim": [
                                    { "size": "1" },
                                    { "size": "1" },
                                    { "size": "40" },
                                    { "size": "240" }
                                ]
                            }
                        }
                    }
                }
            },
            {
                "name": "unknown_54",
                "op": "Const",
                "attr": {
                    "dtype": { "type": "DT_FLOAT" },
                    "value": {
                        "tensor": {
                            "dtype": "DT_FLOAT",
                            "tensorShape": { "dim": [{ "size": "240" }] }
                        }
                    }
                }
            },
            {
                "name": "PartitionedCall/transpose_82/perm",
                "op": "Const",
                "attr": {
                    "dtype": { "type": "DT_INT32" },
                    "value": {
                        "tensor": {
                            "dtype": "DT_INT32",
                            "tensorShape": { "dim": [{ "size": "4" }] }
                        }
                    }
                }
            },
            {
                "name": "PartitionedCall/Const_7",
                "op": "Const",
                "attr": {
                    "dtype": { "type": "DT_INT32" },
                    "value": {
                        "tensor": {
                            "dtype": "DT_INT32",
                            "tensorShape": {
                                "dim": [{ "size": "4" }, { "size": "2" }]
                            }
                        }
                    }
                }
            },
            {
                "name": "PartitionedCall/transpose_84/perm",
                "op": "Const",
                "attr": {
                    "dtype": { "type": "DT_INT32" },
                    "value": {
                        "tensor": {
                            "dtype": "DT_INT32",
                            "tensorShape": { "dim": [{ "size": "4" }] }
                        }
                    }
                }
            },
            {
                "name": "PartitionedCall/Reshape_6",
                "op": "Const",
                "attr": {
                    "dtype": { "type": "DT_FLOAT" },
                    "value": {
                        "tensor": {
                            "dtype": "DT_FLOAT",
                            "tensorShape": {
                                "dim": [
                                    { "size": "3" },
                                    { "size": "3" },
                                    { "size": "240" },
                                    { "size": "1" }
                                ]
                            }
                        }
                    }
                }
            },
            {
                "name": "unknown_56",
                "op": "Const",
                "attr": {
                    "dtype": { "type": "DT_FLOAT" },
                    "value": {
                        "tensor": {
                            "dtype": "DT_FLOAT",
                            "tensorShape": { "dim": [{ "size": "240" }] }
                        }
                    }
                }
            },
            {
                "name": "PartitionedCall/transpose_85/perm",
                "op": "Const",
                "attr": {
                    "dtype": { "type": "DT_INT32" },
                    "value": {
                        "tensor": {
                            "dtype": "DT_INT32",
                            "tensorShape": { "dim": [{ "size": "4" }] }
                        }
                    }
                }
            },
            {
                "name": "unknown_4",
                "op": "Const",
                "attr": {
                    "dtype": { "type": "DT_FLOAT" },
                    "value": {
                        "tensor": { "dtype": "DT_FLOAT", "tensorShape": {} }
                    }
                }
            },
            {
                "name": "unknown_5",
                "op": "Const",
                "attr": {
                    "value": {
                        "tensor": { "dtype": "DT_FLOAT", "tensorShape": {} }
                    },
                    "dtype": { "type": "DT_FLOAT" }
                }
            },
            {
                "name": "unknown_6",
                "op": "Const",
                "attr": {
                    "dtype": { "type": "DT_FLOAT" },
                    "value": {
                        "tensor": { "dtype": "DT_FLOAT", "tensorShape": {} }
                    }
                }
            },
            {
                "name": "PartitionedCall/transpose_87/perm",
                "op": "Const",
                "attr": {
                    "dtype": { "type": "DT_INT32" },
                    "value": {
                        "tensor": {
                            "dtype": "DT_INT32",
                            "tensorShape": { "dim": [{ "size": "4" }] }
                        }
                    }
                }
            },
            {
                "name": "PartitionedCall/split_22",
                "op": "Const",
                "attr": {
                    "value": {
                        "tensor": {
                            "dtype": "DT_FLOAT",
                            "tensorShape": {
                                "dim": [
                                    { "size": "1" },
                                    { "size": "1" },
                                    { "size": "240" },
                                    { "size": "80" }
                                ]
                            }
                        }
                    },
                    "dtype": { "type": "DT_FLOAT" }
                }
            },
            {
                "name": "unknown_58",
                "op": "Const",
                "attr": {
                    "value": {
                        "tensor": {
                            "dtype": "DT_FLOAT",
                            "tensorShape": { "dim": [{ "size": "80" }] }
                        }
                    },
                    "dtype": { "type": "DT_FLOAT" }
                }
            },
            {
                "name": "PartitionedCall/transpose_88/perm",
                "op": "Const",
                "attr": {
                    "value": {
                        "tensor": {
                            "dtype": "DT_INT32",
                            "tensorShape": { "dim": [{ "size": "4" }] }
                        }
                    },
                    "dtype": { "type": "DT_INT32" }
                }
            },
            {
                "name": "ConstantFolding/PartitionedCall/split_26-folded-1",
                "op": "Const",
                "attr": {
                    "value": {
                        "tensor": {
                            "dtype": "DT_INT32",
                            "tensorShape": { "dim": [{ "size": "2" }] }
                        }
                    },
                    "dtype": { "type": "DT_INT32" }
                }
            },
            {
                "name": "PartitionedCall/transpose_102/perm",
                "op": "Const",
                "attr": {
                    "dtype": { "type": "DT_INT32" },
                    "value": {
                        "tensor": {
                            "dtype": "DT_INT32",
                            "tensorShape": { "dim": [{ "size": "4" }] }
                        }
                    }
                }
            },
            {
                "name": "PartitionedCall/split_27",
                "op": "Const",
                "attr": {
                    "value": {
                        "tensor": {
                            "dtype": "DT_FLOAT",
                            "tensorShape": {
                                "dim": [
                                    { "size": "1" },
                                    { "size": "1" },
                                    { "size": "80" },
                                    { "size": "40" }
                                ]
                            }
                        }
                    },
                    "dtype": { "type": "DT_FLOAT" }
                }
            },
            {
                "name": "PartitionedCall/transpose_103/perm",
                "op": "Const",
                "attr": {
                    "value": {
                        "tensor": {
                            "dtype": "DT_INT32",
                            "tensorShape": { "dim": [{ "size": "4" }] }
                        }
                    },
                    "dtype": { "type": "DT_INT32" }
                }
            },
            {
                "name": "PartitionedCall/Const_9",
                "op": "Const",
                "attr": {
                    "value": {
                        "tensor": {
                            "dtype": "DT_INT32",
                            "tensorShape": { "dim": [{ "size": "2" }] }
                        }
                    },
                    "dtype": { "type": "DT_INT32" }
                }
            },
            {
                "name": "PartitionedCall/onnx_tf_prefix_/_net/decoder/Split/split_dim",
                "op": "Const",
                "attr": {
                    "value": {
                        "tensor": { "dtype": "DT_INT32", "tensorShape": {} }
                    },
                    "dtype": { "type": "DT_INT32" }
                }
            },
            {
                "name": "PartitionedCall/onnx_tf_prefix_/_net/decoder/Concat/axis",
                "op": "Const",
                "attr": {
                    "dtype": { "type": "DT_INT32" },
                    "value": {
                        "tensor": { "dtype": "DT_INT32", "tensorShape": {} }
                    }
                }
            },
            {
                "name": "PartitionedCall/transpose_110/perm",
                "op": "Const",
                "attr": {
                    "value": {
                        "tensor": {
                            "dtype": "DT_INT32",
                            "tensorShape": { "dim": [{ "size": "4" }] }
                        }
                    },
                    "dtype": { "type": "DT_INT32" }
                }
            },
            {
                "name": "PartitionedCall/Cast_1",
                "op": "Const",
                "attr": {
                    "value": {
                        "tensor": {
                            "dtype": "DT_INT32",
                            "tensorShape": { "dim": [{ "size": "2" }] }
                        }
                    },
                    "dtype": { "type": "DT_INT32" }
                }
            },
            {
                "name": "PartitionedCall/transpose_111/perm",
                "op": "Const",
                "attr": {
                    "value": {
                        "tensor": {
                            "dtype": "DT_INT32",
                            "tensorShape": { "dim": [{ "size": "4" }] }
                        }
                    },
                    "dtype": { "type": "DT_INT32" }
                }
            },
            {
                "name": "PartitionedCall/SelectV2_1",
                "op": "Const",
                "attr": {
                    "dtype": { "type": "DT_INT64" },
                    "value": {
                        "tensor": {
                            "dtype": "DT_INT64",
                            "tensorShape": { "dim": [{ "size": "2" }] }
                        }
                    }
                }
            },
            {
                "name": "PartitionedCall/zeros",
                "op": "Const",
                "attr": {
                    "dtype": { "type": "DT_INT64" },
                    "value": {
                        "tensor": { "dtype": "DT_INT64", "tensorShape": {} }
                    }
                }
            },
            {
                "name": "PartitionedCall/Const_14",
                "op": "Const",
                "attr": {
                    "value": {
                        "tensor": { "dtype": "DT_INT64", "tensorShape": {} }
                    },
                    "dtype": { "type": "DT_INT64" }
                }
            },
            {
                "name": "PartitionedCall/Shape",
                "op": "Const",
                "attr": {
                    "dtype": { "type": "DT_INT64" },
                    "value": {
                        "tensor": {
                            "dtype": "DT_INT64",
                            "tensorShape": { "dim": [{ "size": "4" }] }
                        }
                    }
                }
            },
            {
                "name": "PartitionedCall/SelectV2_2",
                "op": "Const",
                "attr": {
                    "dtype": { "type": "DT_INT64" },
                    "value": {
                        "tensor": {
                            "dtype": "DT_INT64",
                            "tensorShape": { "dim": [{ "size": "2" }] }
                        }
                    }
                }
            },
            {
                "name": "PartitionedCall/Const_13",
                "op": "Const",
                "attr": {
                    "dtype": { "type": "DT_INT64" },
                    "value": {
                        "tensor": { "dtype": "DT_INT64", "tensorShape": {} }
                    }
                }
            },
            {
                "name": "PartitionedCall/ExpandDims",
                "op": "Const",
                "attr": {
                    "dtype": { "type": "DT_INT64" },
                    "value": {
                        "tensor": {
                            "dtype": "DT_INT64",
                            "tensorShape": {
                                "dim": [{ "size": "2" }, { "size": "1" }]
                            }
                        }
                    }
                }
            },
            {
                "name": "PartitionedCall/Cast_3",
                "op": "Const",
                "attr": {
                    "value": {
                        "tensor": {
                            "dtype": "DT_INT64",
                            "tensorShape": { "dim": [{ "size": "1" }] }
                        }
                    },
                    "dtype": { "type": "DT_INT64" }
                }
            },
            {
                "name": "PartitionedCall/Const_15",
                "op": "Const",
                "attr": {
                    "value": {
                        "tensor": { "dtype": "DT_INT64", "tensorShape": {} }
                    },
                    "dtype": { "type": "DT_INT64" }
                }
            },
            {
                "name": "PartitionedCall/onnx_tf_prefix_/_net/decoder/Concat_3/axis",
                "op": "Const",
                "attr": {
                    "dtype": { "type": "DT_INT32" },
                    "value": {
                        "tensor": { "dtype": "DT_INT32", "tensorShape": {} }
                    }
                }
            },
            {
                "name": "PartitionedCall/Const_16",
                "op": "Const",
                "attr": {
                    "value": {
                        "tensor": {
                            "dtype": "DT_INT32",
                            "tensorShape": {
                                "dim": [{ "size": "4" }, { "size": "2" }]
                            }
                        }
                    },
                    "dtype": { "type": "DT_INT32" }
                }
            },
            {
                "name": "PartitionedCall/transpose_113/perm",
                "op": "Const",
                "attr": {
                    "value": {
                        "tensor": {
                            "dtype": "DT_INT32",
                            "tensorShape": { "dim": [{ "size": "4" }] }
                        }
                    },
                    "dtype": { "type": "DT_INT32" }
                }
            },
            {
                "name": "PartitionedCall/split_30",
                "op": "Const",
                "attr": {
                    "dtype": { "type": "DT_FLOAT" },
                    "value": {
                        "tensor": {
                            "dtype": "DT_FLOAT",
                            "tensorShape": {
                                "dim": [
                                    { "size": "3" },
                                    { "size": "3" },
                                    { "size": "83" },
                                    { "size": "32" }
                                ]
                            }
                        }
                    }
                }
            },
            {
                "name": "unknown_79",
                "op": "Const",
                "attr": {
                    "value": {
                        "tensor": {
                            "dtype": "DT_FLOAT",
                            "tensorShape": { "dim": [{ "size": "32" }] }
                        }
                    },
                    "dtype": { "type": "DT_FLOAT" }
                }
            },
            {
                "name": "PartitionedCall/transpose_114/perm",
                "op": "Const",
                "attr": {
                    "dtype": { "type": "DT_INT32" },
                    "value": {
                        "tensor": {
                            "dtype": "DT_INT32",
                            "tensorShape": { "dim": [{ "size": "4" }] }
                        }
                    }
                }
            },
            {
                "name": "PartitionedCall/Const_17",
                "op": "Const",
                "attr": {
                    "dtype": { "type": "DT_INT32" },
                    "value": {
                        "tensor": {
                            "dtype": "DT_INT32",
                            "tensorShape": { "dim": [{ "size": "2" }] }
                        }
                    }
                }
            },
            {
                "name": "PartitionedCall/onnx_tf_prefix_/_net/decoder/Split_1/split_dim",
                "op": "Const",
                "attr": {
                    "dtype": { "type": "DT_INT32" },
                    "value": {
                        "tensor": { "dtype": "DT_INT32", "tensorShape": {} }
                    }
                }
            },
            {
                "name": "PartitionedCall/onnx_tf_prefix_/_net/decoder/Concat_4/axis",
                "op": "Const",
                "attr": {
                    "value": {
                        "tensor": { "dtype": "DT_INT32", "tensorShape": {} }
                    },
                    "dtype": { "type": "DT_INT32" }
                }
            },
            {
                "name": "PartitionedCall/transpose_121/perm",
                "op": "Const",
                "attr": {
                    "value": {
                        "tensor": {
                            "dtype": "DT_INT32",
                            "tensorShape": { "dim": [{ "size": "4" }] }
                        }
                    },
                    "dtype": { "type": "DT_INT32" }
                }
            },
            {
                "name": "PartitionedCall/Cast_4",
                "op": "Const",
                "attr": {
                    "value": {
                        "tensor": {
                            "dtype": "DT_INT32",
                            "tensorShape": { "dim": [{ "size": "2" }] }
                        }
                    },
                    "dtype": { "type": "DT_INT32" }
                }
            },
            {
                "name": "PartitionedCall/transpose_122/perm",
                "op": "Const",
                "attr": {
                    "dtype": { "type": "DT_INT32" },
                    "value": {
                        "tensor": {
                            "dtype": "DT_INT32",
                            "tensorShape": { "dim": [{ "size": "4" }] }
                        }
                    }
                }
            },
            {
                "name": "PartitionedCall/SelectV2_5",
                "op": "Const",
                "attr": {
                    "dtype": { "type": "DT_INT64" },
                    "value": {
                        "tensor": {
                            "dtype": "DT_INT64",
                            "tensorShape": { "dim": [{ "size": "2" }] }
                        }
                    }
                }
            },
            {
                "name": "PartitionedCall/zeros_1",
                "op": "Const",
                "attr": {
                    "dtype": { "type": "DT_INT64" },
                    "value": {
                        "tensor": { "dtype": "DT_INT64", "tensorShape": {} }
                    }
                }
            },
            {
                "name": "PartitionedCall/Const_22",
                "op": "Const",
                "attr": {
                    "value": {
                        "tensor": { "dtype": "DT_INT64", "tensorShape": {} }
                    },
                    "dtype": { "type": "DT_INT64" }
                }
            },
            {
                "name": "PartitionedCall/Shape_1",
                "op": "Const",
                "attr": {
                    "value": {
                        "tensor": {
                            "dtype": "DT_INT64",
                            "tensorShape": { "dim": [{ "size": "4" }] }
                        }
                    },
                    "dtype": { "type": "DT_INT64" }
                }
            },
            {
                "name": "PartitionedCall/SelectV2_6",
                "op": "Const",
                "attr": {
                    "dtype": { "type": "DT_INT64" },
                    "value": {
                        "tensor": {
                            "dtype": "DT_INT64",
                            "tensorShape": { "dim": [{ "size": "2" }] }
                        }
                    }
                }
            },
            {
                "name": "PartitionedCall/Const_21",
                "op": "Const",
                "attr": {
                    "value": {
                        "tensor": { "dtype": "DT_INT64", "tensorShape": {} }
                    },
                    "dtype": { "type": "DT_INT64" }
                }
            },
            {
                "name": "PartitionedCall/ExpandDims_1",
                "op": "Const",
                "attr": {
                    "value": {
                        "tensor": {
                            "dtype": "DT_INT64",
                            "tensorShape": {
                                "dim": [{ "size": "2" }, { "size": "1" }]
                            }
                        }
                    },
                    "dtype": { "type": "DT_INT64" }
                }
            },
            {
                "name": "PartitionedCall/Cast_6",
                "op": "Const",
                "attr": {
                    "dtype": { "type": "DT_INT64" },
                    "value": {
                        "tensor": {
                            "dtype": "DT_INT64",
                            "tensorShape": { "dim": [{ "size": "1" }] }
                        }
                    }
                }
            },
            {
                "name": "PartitionedCall/Const_23",
                "op": "Const",
                "attr": {
                    "value": {
                        "tensor": { "dtype": "DT_INT64", "tensorShape": {} }
                    },
                    "dtype": { "type": "DT_INT64" }
                }
            },
            {
                "name": "PartitionedCall/onnx_tf_prefix_/_net/decoder/Concat_7/axis",
                "op": "Const",
                "attr": {
                    "value": {
                        "tensor": { "dtype": "DT_INT32", "tensorShape": {} }
                    },
                    "dtype": { "type": "DT_INT32" }
                }
            },
            {
                "name": "PartitionedCall/Const_24",
                "op": "Const",
                "attr": {
                    "dtype": { "type": "DT_INT32" },
                    "value": {
                        "tensor": {
                            "dtype": "DT_INT32",
                            "tensorShape": {
                                "dim": [{ "size": "4" }, { "size": "2" }]
                            }
                        }
                    }
                }
            },
            {
                "name": "PartitionedCall/transpose_124/perm",
                "op": "Const",
                "attr": {
                    "dtype": { "type": "DT_INT32" },
                    "value": {
                        "tensor": {
                            "dtype": "DT_INT32",
                            "tensorShape": { "dim": [{ "size": "4" }] }
                        }
                    }
                }
            },
            {
                "name": "PartitionedCall/split_33",
                "op": "Const",
                "attr": {
                    "dtype": { "type": "DT_FLOAT" },
                    "value": {
                        "tensor": {
                            "dtype": "DT_FLOAT",
                            "tensorShape": {
                                "dim": [
                                    { "size": "3" },
                                    { "size": "3" },
                                    { "size": "59" },
                                    { "size": "24" }
                                ]
                            }
                        }
                    }
                }
            },
            {
                "name": "unknown_87",
                "op": "Const",
                "attr": {
                    "dtype": { "type": "DT_FLOAT" },
                    "value": {
                        "tensor": {
                            "dtype": "DT_FLOAT",
                            "tensorShape": { "dim": [{ "size": "24" }] }
                        }
                    }
                }
            },
            {
                "name": "PartitionedCall/transpose_125/perm",
                "op": "Const",
                "attr": {
                    "value": {
                        "tensor": {
                            "dtype": "DT_INT32",
                            "tensorShape": { "dim": [{ "size": "4" }] }
                        }
                    },
                    "dtype": { "type": "DT_INT32" }
                }
            },
            {
                "name": "PartitionedCall/Const_25",
                "op": "Const",
                "attr": {
                    "value": {
                        "tensor": {
                            "dtype": "DT_INT32",
                            "tensorShape": { "dim": [{ "size": "2" }] }
                        }
                    },
                    "dtype": { "type": "DT_INT32" }
                }
            },
            {
                "name": "PartitionedCall/onnx_tf_prefix_/_net/decoder/Split_2/split_dim",
                "op": "Const",
                "attr": {
                    "dtype": { "type": "DT_INT32" },
                    "value": {
                        "tensor": { "dtype": "DT_INT32", "tensorShape": {} }
                    }
                }
            },
            {
                "name": "PartitionedCall/onnx_tf_prefix_/_net/decoder/Concat_8/axis",
                "op": "Const",
                "attr": {
                    "dtype": { "type": "DT_INT32" },
                    "value": {
                        "tensor": { "dtype": "DT_INT32", "tensorShape": {} }
                    }
                }
            },
            {
                "name": "PartitionedCall/transpose_132/perm",
                "op": "Const",
                "attr": {
                    "value": {
                        "tensor": {
                            "dtype": "DT_INT32",
                            "tensorShape": { "dim": [{ "size": "4" }] }
                        }
                    },
                    "dtype": { "type": "DT_INT32" }
                }
            },
            {
                "name": "PartitionedCall/Cast_7",
                "op": "Const",
                "attr": {
                    "value": {
                        "tensor": {
                            "dtype": "DT_INT32",
                            "tensorShape": { "dim": [{ "size": "2" }] }
                        }
                    },
                    "dtype": { "type": "DT_INT32" }
                }
            },
            {
                "name": "PartitionedCall/transpose_133/perm",
                "op": "Const",
                "attr": {
                    "dtype": { "type": "DT_INT32" },
                    "value": {
                        "tensor": {
                            "dtype": "DT_INT32",
                            "tensorShape": { "dim": [{ "size": "4" }] }
                        }
                    }
                }
            },
            {
                "name": "PartitionedCall/SelectV2_9",
                "op": "Const",
                "attr": {
                    "dtype": { "type": "DT_INT64" },
                    "value": {
                        "tensor": {
                            "dtype": "DT_INT64",
                            "tensorShape": { "dim": [{ "size": "2" }] }
                        }
                    }
                }
            },
            {
                "name": "PartitionedCall/zeros_2",
                "op": "Const",
                "attr": {
                    "dtype": { "type": "DT_INT64" },
                    "value": {
                        "tensor": { "dtype": "DT_INT64", "tensorShape": {} }
                    }
                }
            },
            {
                "name": "PartitionedCall/Const_30",
                "op": "Const",
                "attr": {
                    "dtype": { "type": "DT_INT64" },
                    "value": {
                        "tensor": { "dtype": "DT_INT64", "tensorShape": {} }
                    }
                }
            },
            {
                "name": "PartitionedCall/Shape_2",
                "op": "Const",
                "attr": {
                    "dtype": { "type": "DT_INT64" },
                    "value": {
                        "tensor": {
                            "dtype": "DT_INT64",
                            "tensorShape": { "dim": [{ "size": "4" }] }
                        }
                    }
                }
            },
            {
                "name": "PartitionedCall/SelectV2_10",
                "op": "Const",
                "attr": {
                    "value": {
                        "tensor": {
                            "dtype": "DT_INT64",
                            "tensorShape": { "dim": [{ "size": "2" }] }
                        }
                    },
                    "dtype": { "type": "DT_INT64" }
                }
            },
            {
                "name": "PartitionedCall/Const_29",
                "op": "Const",
                "attr": {
                    "value": {
                        "tensor": { "dtype": "DT_INT64", "tensorShape": {} }
                    },
                    "dtype": { "type": "DT_INT64" }
                }
            },
            {
                "name": "PartitionedCall/ExpandDims_2",
                "op": "Const",
                "attr": {
                    "value": {
                        "tensor": {
                            "dtype": "DT_INT64",
                            "tensorShape": {
                                "dim": [{ "size": "2" }, { "size": "1" }]
                            }
                        }
                    },
                    "dtype": { "type": "DT_INT64" }
                }
            },
            {
                "name": "PartitionedCall/Cast_9",
                "op": "Const",
                "attr": {
                    "dtype": { "type": "DT_INT64" },
                    "value": {
                        "tensor": {
                            "dtype": "DT_INT64",
                            "tensorShape": { "dim": [{ "size": "1" }] }
                        }
                    }
                }
            },
            {
                "name": "PartitionedCall/Const_31",
                "op": "Const",
                "attr": {
                    "dtype": { "type": "DT_INT64" },
                    "value": {
                        "tensor": { "dtype": "DT_INT64", "tensorShape": {} }
                    }
                }
            },
            {
                "name": "PartitionedCall/onnx_tf_prefix_/_net/decoder/Concat_11/axis",
                "op": "Const",
                "attr": {
                    "value": {
                        "tensor": { "dtype": "DT_INT32", "tensorShape": {} }
                    },
                    "dtype": { "type": "DT_INT32" }
                }
            },
            {
                "name": "PartitionedCall/Const_32",
                "op": "Const",
                "attr": {
                    "value": {
                        "tensor": {
                            "dtype": "DT_INT32",
                            "tensorShape": {
                                "dim": [{ "size": "4" }, { "size": "2" }]
                            }
                        }
                    },
                    "dtype": { "type": "DT_INT32" }
                }
            },
            {
                "name": "PartitionedCall/transpose_135/perm",
                "op": "Const",
                "attr": {
                    "value": {
                        "tensor": {
                            "dtype": "DT_INT32",
                            "tensorShape": { "dim": [{ "size": "4" }] }
                        }
                    },
                    "dtype": { "type": "DT_INT32" }
                }
            },
            {
                "name": "PartitionedCall/split_36",
                "op": "Const",
                "attr": {
                    "value": {
                        "tensor": {
                            "dtype": "DT_FLOAT",
                            "tensorShape": {
                                "dim": [
                                    { "size": "3" },
                                    { "size": "3" },
                                    { "size": "43" },
                                    { "size": "20" }
                                ]
                            }
                        }
                    },
                    "dtype": { "type": "DT_FLOAT" }
                }
            },
            {
                "name": "unknown_95",
                "op": "Const",
                "attr": {
                    "value": {
                        "tensor": {
                            "dtype": "DT_FLOAT",
                            "tensorShape": { "dim": [{ "size": "20" }] }
                        }
                    },
                    "dtype": { "type": "DT_FLOAT" }
                }
            },
            {
                "name": "PartitionedCall/transpose_136/perm",
                "op": "Const",
                "attr": {
                    "value": {
                        "tensor": {
                            "dtype": "DT_INT32",
                            "tensorShape": { "dim": [{ "size": "4" }] }
                        }
                    },
                    "dtype": { "type": "DT_INT32" }
                }
            },
            {
                "name": "PartitionedCall/Const_33",
                "op": "Const",
                "attr": {
                    "value": {
                        "tensor": {
                            "dtype": "DT_INT32",
                            "tensorShape": { "dim": [{ "size": "2" }] }
                        }
                    },
                    "dtype": { "type": "DT_INT32" }
                }
            },
            {
                "name": "PartitionedCall/onnx_tf_prefix_/_net/decoder/Split_3/split_dim",
                "op": "Const",
                "attr": {
                    "dtype": { "type": "DT_INT32" },
                    "value": {
                        "tensor": { "dtype": "DT_INT32", "tensorShape": {} }
                    }
                }
            },
            {
                "name": "PartitionedCall/onnx_tf_prefix_/_net/decoder/Concat_12/axis",
                "op": "Const",
                "attr": {
                    "dtype": { "type": "DT_INT32" },
                    "value": {
                        "tensor": { "dtype": "DT_INT32", "tensorShape": {} }
                    }
                }
            },
            {
                "name": "PartitionedCall/transpose_143/perm",
                "op": "Const",
                "attr": {
                    "dtype": { "type": "DT_INT32" },
                    "value": {
                        "tensor": {
                            "dtype": "DT_INT32",
                            "tensorShape": { "dim": [{ "size": "4" }] }
                        }
                    }
                }
            },
            {
                "name": "PartitionedCall/Cast_10",
                "op": "Const",
                "attr": {
                    "dtype": { "type": "DT_INT32" },
                    "value": {
                        "tensor": {
                            "dtype": "DT_INT32",
                            "tensorShape": { "dim": [{ "size": "2" }] }
                        }
                    }
                }
            },
            {
                "name": "PartitionedCall/transpose_144/perm",
                "op": "Const",
                "attr": {
                    "value": {
                        "tensor": {
                            "dtype": "DT_INT32",
                            "tensorShape": { "dim": [{ "size": "4" }] }
                        }
                    },
                    "dtype": { "type": "DT_INT32" }
                }
            },
            {
                "name": "PartitionedCall/SelectV2_13",
                "op": "Const",
                "attr": {
                    "dtype": { "type": "DT_INT64" },
                    "value": {
                        "tensor": {
                            "dtype": "DT_INT64",
                            "tensorShape": { "dim": [{ "size": "2" }] }
                        }
                    }
                }
            },
            {
                "name": "PartitionedCall/zeros_3",
                "op": "Const",
                "attr": {
                    "value": {
                        "tensor": { "dtype": "DT_INT64", "tensorShape": {} }
                    },
                    "dtype": { "type": "DT_INT64" }
                }
            },
            {
                "name": "PartitionedCall/Const_38",
                "op": "Const",
                "attr": {
                    "value": {
                        "tensor": { "dtype": "DT_INT64", "tensorShape": {} }
                    },
                    "dtype": { "type": "DT_INT64" }
                }
            },
            {
                "name": "PartitionedCall/Shape_3",
                "op": "Const",
                "attr": {
                    "value": {
                        "tensor": {
                            "dtype": "DT_INT64",
                            "tensorShape": { "dim": [{ "size": "4" }] }
                        }
                    },
                    "dtype": { "type": "DT_INT64" }
                }
            },
            {
                "name": "PartitionedCall/SelectV2_14",
                "op": "Const",
                "attr": {
                    "value": {
                        "tensor": {
                            "dtype": "DT_INT64",
                            "tensorShape": { "dim": [{ "size": "2" }] }
                        }
                    },
                    "dtype": { "type": "DT_INT64" }
                }
            },
            {
                "name": "PartitionedCall/Const_37",
                "op": "Const",
                "attr": {
                    "value": {
                        "tensor": { "dtype": "DT_INT64", "tensorShape": {} }
                    },
                    "dtype": { "type": "DT_INT64" }
                }
            },
            {
                "name": "PartitionedCall/ExpandDims_3",
                "op": "Const",
                "attr": {
                    "dtype": { "type": "DT_INT64" },
                    "value": {
                        "tensor": {
                            "dtype": "DT_INT64",
                            "tensorShape": {
                                "dim": [{ "size": "2" }, { "size": "1" }]
                            }
                        }
                    }
                }
            },
            {
                "name": "PartitionedCall/Cast_12",
                "op": "Const",
                "attr": {
                    "dtype": { "type": "DT_INT64" },
                    "value": {
                        "tensor": {
                            "dtype": "DT_INT64",
                            "tensorShape": { "dim": [{ "size": "1" }] }
                        }
                    }
                }
            },
            {
                "name": "unknown_77",
                "op": "Const",
                "attr": {
                    "dtype": { "type": "DT_INT64" },
                    "value": {
                        "tensor": {
                            "dtype": "DT_INT64",
                            "tensorShape": { "dim": [{ "size": "2" }] }
                        }
                    }
                }
            },
            {
                "name": "PartitionedCall/Const_39",
                "op": "Const",
                "attr": {
                    "dtype": { "type": "DT_INT64" },
                    "value": {
                        "tensor": { "dtype": "DT_INT64", "tensorShape": {} }
                    }
                }
            },
            {
                "name": "PartitionedCall/onnx_tf_prefix_/_net/decoder/Concat_15/axis",
                "op": "Const",
                "attr": {
                    "dtype": { "type": "DT_INT32" },
                    "value": {
                        "tensor": { "dtype": "DT_INT32", "tensorShape": {} }
                    }
                }
            },
            {
                "name": "PartitionedCall/Const_40",
                "op": "Const",
…
                        "original_dtype": "float32"
                    }
                },
                {
                    "name": "PartitionedCall/transpose_55/perm",
                    "shape": [4],
                    "dtype": "int32"
                },
                {
                    "name": "PartitionedCall/transpose_63/perm",
                    "shape": [4],
                    "dtype": "int32"
                },
                {
                    "name": "PartitionedCall/split_15",
                    "shape": [1, 1, 120, 40],
                    "dtype": "float32",
                    "quantization": {
                        "dtype": "uint8",
                        "min": -2.430567019593482,
                        "scale": 0.0196013469322055,
                        "original_dtype": "float32"
                    }
                },
                {
                    "name": "unknown_42",
                    "shape": [40],
                    "dtype": "float32",
                    "quantization": {
                        "dtype": "uint8",
                        "min": -2.634867421318503,
                        "scale": 0.01710952870986041,
                        "original_dtype": "float32"
                    }
                },
                {
                    "name": "PartitionedCall/transpose_64/perm",
                    "shape": [4],
                    "dtype": "int32"
                },
                {
                    "name": "ConstantFolding/PartitionedCall/onnx_tf_prefix_/_net/encoder/4/block/2/scale_activation/Div_recip",
                    "shape": [],
                    "dtype": "float32",
                    "quantization": {
                        "dtype": "uint8",
                        "min": 0.1666666716337204,
                        "scale": 1.0,
                        "original_dtype": "float32"
                    }
                },
                {
                    "name": "ConstantFolding/PartitionedCall/split_7-folded-1",
                    "shape": [2],
                    "dtype": "int32"
                },
                {
                    "name": "PartitionedCall/transpose_42/perm",
                    "shape": [4],
                    "dtype": "int32"
                },
                {
                    "name": "PartitionedCall/split_8",
                    "shape": [1, 1, 72, 24],
                    "dtype": "float32",
                    "quantization": {
                        "dtype": "uint8",
                        "min": -0.15388113242738385,
                        "scale": 0.0019478624357896692,
                        "original_dtype": "float32"
                    }
                },
                {
                    "name": "unknown_28",
                    "shape": [24],
                    "dtype": "float32",
                    "quantization": {
                        "dtype": "uint8",
                        "min": -0.0,
                        "scale": 0.0005329283472332009,
                        "original_dtype": "float32"
                    }
                },
                {
                    "name": "PartitionedCall/transpose_43/perm",
                    "shape": [4],
                    "dtype": "int32"
                },
                {
                    "name": "PartitionedCall/transpose_45/perm",
                    "shape": [4],
                    "dtype": "int32"
                },
                {
                    "name": "PartitionedCall/split_9",
                    "shape": [1, 1, 24, 72],
                    "dtype": "float32",
                    "quantization": {
                        "dtype": "uint8",
                        "min": -0.03178756873981626,
                        "scale": 0.0009082162497090359,
                        "original_dtype": "float32"
                    }
                },
                {
                    "name": "unknown_30",
                    "shape": [72],
                    "dtype": "float32",
                    "quantization": {
                        "dtype": "uint8",
                        "min": -0.0,
                        "scale": 0.000593690375427693,
                        "original_dtype": "float32"
                    }
                },
                {
                    "name": "PartitionedCall/transpose_46/perm",
                    "shape": [4],
                    "dtype": "int32"
                },
                {
                    "name": "PartitionedCall/split_4",
                    "shape": [1, 1, 24, 72],
                    "dtype": "float32",
                    "quantization": {
                        "dtype": "uint8",
                        "min": -0.5284478269371332,
                        "scale": 0.005130561426574109,
                        "original_dtype": "float32"
                    }
                },
                {
                    "name": "unknown_18",
                    "shape": [72],
                    "dtype": "float32",
                    "quantization": {
                        "dtype": "uint8",
                        "min": -1.121204372480804,
                        "scale": 0.008066218507056144,
                        "original_dtype": "float32"
                    }
                },
                {
                    "name": "PartitionedCall/transpose_28/perm",
                    "shape": [4],
                    "dtype": "int32"
                },
                {
                    "name": "PartitionedCall/Const_3",
                    "shape": [4, 2],
                    "dtype": "int32"
                },
                {
                    "name": "PartitionedCall/transpose_30/perm",
                    "shape": [4],
                    "dtype": "int32"
                },
                {
                    "name": "PartitionedCall/Reshape_2",
                    "shape": [3, 3, 72, 1],
                    "dtype": "float32",
                    "quantization": {
                        "dtype": "uint8",
                        "min": -5.840782165527344,
                        "scale": 0.048673184712727864,
                        "original_dtype": "float32"
                    }
                },
                {
                    "name": "unknown_20",
                    "shape": [72],
                    "dtype": "float32",
                    "quantization": {
                        "dtype": "uint8",
                        "min": -1.5073748424941418,
                        "scale": 0.013339600376054353,
                        "original_dtype": "float32"
                    }
                },
                {
                    "name": "PartitionedCall/transpose_31/perm",
                    "shape": [4],
                    "dtype": "int32"
                },
                {
                    "name": "PartitionedCall/transpose_33/perm",
                    "shape": [4],
                    "dtype": "int32"
                },
                {
                    "name": "PartitionedCall/split_5",
                    "shape": [1, 1, 72, 24],
                    "dtype": "float32",
                    "quantization": {
                        "dtype": "uint8",
                        "min": -1.529256887996898,
                        "scale": 0.015929759249967687,
                        "original_dtype": "float32"
                    }
                },
                {
                    "name": "unknown_22",
                    "shape": [24],
                    "dtype": "float32",
                    "quantization": {
                        "dtype": "uint8",
                        "min": -2.357403777627384,
                        "scale": 0.02182781275580911,
                        "original_dtype": "float32"
                    }
                },
                {
                    "name": "PartitionedCall/transpose_34/perm",
                    "shape": [4],
                    "dtype": "int32"
                },
                {
                    "name": "PartitionedCall/Const_1",
                    "shape": [4, 2],
                    "dtype": "int32"
                },
                {
                    "name": "PartitionedCall/transpose_12/perm",
                    "shape": [4],
                    "dtype": "int32"
                },
                {
                    "name": "PartitionedCall/Reshape",
                    "shape": [3, 3, 16, 1],
                    "dtype": "float32",
                    "quantization": {
                        "dtype": "uint8",
                        "min": -5.66263048508588,
                        "scale": 0.04566637487972484,
                        "original_dtype": "float32"
                    }
                },
                {
                    "name": "unknown_8",
                    "shape": [16],
                    "dtype": "float32",
                    "quantization": {
                        "dtype": "uint8",
                        "min": -4.536433350806143,
                        "scale": 0.02577518949321672,
                        "original_dtype": "float32"
                    }
                },
                {
                    "name": "PartitionedCall/transpose_13/perm",
                    "shape": [4],
                    "dtype": "int32"
                },
                {
                    "name": "PartitionedCall/transpose_15/perm",
                    "shape": [4],
                    "dtype": "int32"
                },
                {
                    "name": "PartitionedCall/split_1",
                    "shape": [1, 1, 16, 16],
                    "dtype": "float32",
                    "quantization": {
                        "dtype": "uint8",
                        "min": -3.6228938990948247,
                        "scale": 0.024985475166171205,
                        "original_dtype": "float32"
                    }
                },
                {
                    "name": "unknown_10",
                    "shape": [16],
                    "dtype": "float32",
                    "quantization": {
                        "dtype": "uint8",
                        "min": -5.64954605102539,
                        "scale": 0.0415407797869514,
                        "original_dtype": "float32"
                    }
                },
                {
                    "name": "PartitionedCall/transpose_16/perm",
                    "shape": [4],
                    "dtype": "int32"
                },
                {
                    "name": "ConstantFolding/PartitionedCall/onnx_tf_prefix_/_net/encoder/0/2/Div_recip",
                    "shape": [],
                    "dtype": "float32",
                    "quantization": {
                        "dtype": "uint8",
                        "min": 0.1666666716337204,
                        "scale": 1.0,
                        "original_dtype": "float32"
                    }
                },
                {
                    "name": "PartitionedCall/onnx_tf_prefix_input_order_convert_transpose_0/perm",
                    "shape": [4],
                    "dtype": "int32"
                },
                {
                    "name": "unknown",
                    "shape": [1, 3, 1, 1],
                    "dtype": "float32",
                    "quantization": {
                        "dtype": "uint8",
                        "min": 0.4059999883174896,
                        "scale": 0.0003098040234808828,
                        "original_dtype": "float32"
                    }
                },
                {
                    "name": "ConstantFolding/PartitionedCall/onnx_tf_prefix_/Div_recip",
                    "shape": [1, 3, 1, 1],
                    "dtype": "float32",
                    "quantization": {
                        "dtype": "uint8",
                        "min": 4.366812229156494,
                        "scale": 0.0003822476256127451,
                        "original_dtype": "float32"
                    }
                },
                {
                    "name": "PartitionedCall/transpose/perm",
                    "shape": [4],
                    "dtype": "int32"
                },
                {
                    "name": "PartitionedCall/Cast",
                    "shape": [2],
                    "dtype": "int32"
                },
                {
                    "name": "PartitionedCall/transpose_1/perm",
                    "shape": [4],
                    "dtype": "int32"
                },
                {
                    "name": "PartitionedCall/Const",
                    "shape": [4, 2],
                    "dtype": "int32"
                },
                {
                    "name": "PartitionedCall/transpose_3/perm",
                    "shape": [4],
                    "dtype": "int32"
                },
                {
                    "name": "PartitionedCall/split",
                    "shape": [3, 3, 3, 16],
                    "dtype": "float32",
                    "quantization": {
                        "dtype": "uint8",
                        "min": -6.194506117876838,
                        "scale": 0.053400914809283086,
                        "original_dtype": "float32"
                    }
                },
                {
                    "name": "unknown_3",
                    "shape": [16],
                    "dtype": "float32",
                    "quantization": {
                        "dtype": "uint8",
                        "min": -4.100050937428194,
                        "scale": 0.03504317040536918,
                        "original_dtype": "float32"
                    }
                },
                {
                    "name": "PartitionedCall/transpose_4/perm",
                    "shape": [4],
                    "dtype": "int32"
                },
                {
                    "name": "PartitionedCall/transpose_18/perm",
                    "shape": [4],
                    "dtype": "int32"
                },
                {
                    "name": "PartitionedCall/split_2",
                    "shape": [1, 1, 16, 64],
                    "dtype": "float32",
                    "quantization": {
                        "dtype": "uint8",
                        "min": -0.7271740317344665,
                        "scale": 0.006671321392059326,
                        "original_dtype": "float32"
                    }
                },
                {
                    "name": "unknown_12",
                    "shape": [64],
                    "dtype": "float32",
                    "quantization": {
                        "dtype": "uint8",
                        "min": -2.7605824302224553,
                        "scale": 0.025560948427985695,
                        "original_dtype": "float32"
                    }
                },
                {
                    "name": "PartitionedCall/transpose_19/perm",
                    "shape": [4],
                    "dtype": "int32"
                },
                {
                    "name": "PartitionedCall/Const_2",
                    "shape": [4, 2],
                    "dtype": "int32"
                },
                {
                    "name": "PartitionedCall/transpose_21/perm",
                    "shape": [4],
                    "dtype": "int32"
                },
                {
                    "name": "PartitionedCall/Reshape_1",
                    "shape": [3, 3, 64, 1],
                    "dtype": "float32",
                    "quantization": {
                        "dtype": "uint8",
                        "min": -4.168209681791417,
                        "scale": 0.037551438574697456,
                        "original_dtype": "float32"
                    }
                },
                {
                    "name": "unknown_14",
                    "shape": [64],
                    "dtype": "float32",
                    "quantization": {
                        "dtype": "uint8",
                        "min": -9.821549715715296,
                        "scale": 0.05196587151172114,
                        "original_dtype": "float32"
                    }
                },
                {
                    "name": "PartitionedCall/transpose_22/perm",
                    "shape": [4],
                    "dtype": "int32"
                },
                {
                    "name": "PartitionedCall/transpose_24/perm",
                    "shape": [4],
                    "dtype": "int32"
                },
                {
                    "name": "PartitionedCall/split_3",
                    "shape": [1, 1, 64, 24],
                    "dtype": "float32",
                    "quantization": {
                        "dtype": "uint8",
                        "min": -1.1414238050872203,
                        "scale": 0.009131390440697763,
                        "original_dtype": "float32"
                    }
                },
                {
                    "name": "unknown_16",
                    "shape": [24],
                    "dtype": "float32",
                    "quantization": {
                        "dtype": "uint8",
                        "min": -3.130669666739071,
                        "scale": 0.024846584656659294,
                        "original_dtype": "float32"
                    }
                },
                {
                    "name": "PartitionedCall/transpose_25/perm",
                    "shape": [4],
                    "dtype": "int32"
                },
                {
                    "name": "PartitionedCall/transpose_36/perm",
                    "shape": [4],
                    "dtype": "int32"
                },
                {
                    "name": "PartitionedCall/split_6",
                    "shape": [1, 1, 24, 72],
                    "dtype": "float32",
                    "quantization": {
                        "dtype": "uint8",
                        "min": -0.7377030484816607,
                        "scale": 0.005949218132916619,
                        "original_dtype": "float32"
                    }
                },
                {
                    "name": "unknown_24",
                    "shape": [72],
                    "dtype": "float32",
                    "quantization": {
                        "dtype": "uint8",
                        "min": -0.6707289532119153,
                        "scale": 0.006844172991958319,
                        "original_dtype": "float32"
                    }
                },
                {
                    "name": "PartitionedCall/transpose_37/perm",
                    "shape": [4],
                    "dtype": "int32"
                },
                {
                    "name": "PartitionedCall/Const_4",
                    "shape": [4, 2],
                    "dtype": "int32"
                },
                {
                    "name": "PartitionedCall/transpose_39/perm",
                    "shape": [4],
                    "dtype": "int32"
                },
                {
                    "name": "PartitionedCall/Reshape_3",
                    "shape": [5, 5, 72, 1],
                    "dtype": "float32",
                    "quantization": {
                        "dtype": "uint8",
                        "min": -2.01609597159367,
                        "scale": 0.015158616327771953,
                        "original_dtype": "float32"
                    }
                },
                {
                    "name": "unknown_26",
                    "shape": [72],
                    "dtype": "float32",
                    "quantization": {
                        "dtype": "uint8",
                        "min": -0.8802666918904173,
                        "scale": 0.014919774438820633,
                        "original_dtype": "float32"
                    }
                },
                {
                    "name": "PartitionedCall/transpose_40/perm",
                    "shape": [4],
                    "dtype": "int32"
                },
                {
                    "name": "PartitionedCall/transpose_48/perm",
                    "shape": [4],
                    "dtype": "int32"
                },
                {
                    "name": "PartitionedCall/split_10",
                    "shape": [1, 1, 72, 40],
                    "dtype": "float32",
                    "quantization": {
                        "dtype": "uint8",
                        "min": -1.7120027093326344,
                        "scale": 0.014632501789167815,
                        "original_dtype": "float32"
                    }
                },
                {
                    "name": "unknown_32",
                    "shape": [40],
                    "dtype": "float32",
                    "quantization": {
                        "dtype": "uint8",
                        "min": -6.048732789357503,
                        "scale": 0.050829687305525235,
                        "original_dtype": "float32"
                    }
                },
                {
                    "name": "PartitionedCall/transpose_49/perm",
                    "shape": [4],
                    "dtype": "int32"
                },
                {
                    "name": "PartitionedCall/transpose_81/perm",
                    "shape": [4],
                    "dtype": "int32"
                },
                {
                    "name": "PartitionedCall/split_21",
                    "shape": [1, 1, 40, 240],
                    "dtype": "float32",
                    "quantization": {
                        "dtype": "uint8",
                        "min": -0.8794706211370581,
                        "scale": 0.005902487390181598,
                        "original_dtype": "float32"
                    }
                },
                {
                    "name": "unknown_54",
                    "shape": [240],
                    "dtype": "float32",
                    "quantization": {
                        "dtype": "uint8",
                        "min": -2.4374544929055606,
                        "scale": 0.015624708287856158,
                        "original_dtype": "float32"
                    }
                },
                {
                    "name": "PartitionedCall/transpose_82/perm",
                    "shape": [4],
                    "dtype": "int32"
                },
                {
                    "name": "PartitionedCall/Const_7",
                    "shape": [4, 2],
                    "dtype": "int32"
                },
                {
                    "name": "PartitionedCall/transpose_84/perm",
                    "shape": [4],
                    "dtype": "int32"
                },
                {
                    "name": "PartitionedCall/Reshape_6",
                    "shape": [3, 3, 240, 1],
                    "dtype": "float32",
                    "quantization": {
                        "dtype": "uint8",
                        "min": -9.411154915304746,
                        "scale": 0.0627410327686983,
                        "original_dtype": "float32"
                    }
                },
                {
                    "name": "unknown_56",
                    "shape": [240],
                    "dtype": "float32",
                    "quantization": {
                        "dtype": "uint8",
                        "min": -3.818097400665283,
                        "scale": 0.03743232745750277,
                        "original_dtype": "float32"
                    }
                },
                {
                    "name": "PartitionedCall/transpose_85/perm",
                    "shape": [4],
                    "dtype": "int32"
                },
                {
                    "name": "unknown_4",
                    "shape": [],
                    "dtype": "float32",
                    "quantization": {
                        "dtype": "uint8",
                        "min": 3.0,
                        "scale": 1.0,
                        "original_dtype": "float32"
                    }
                },
                {
                    "name": "unknown_5",
                    "shape": [],
                    "dtype": "float32",
                    "quantization": {
                        "dtype": "uint8",
                        "min": 6.0,
                        "scale": 1.0,
                        "original_dtype": "float32"
                    }
                },
                {
                    "name": "unknown_6",
                    "shape": [],
                    "dtype": "float32",
                    "quantization": {
                        "dtype": "uint8",
                        "min": 0.0,
                        "scale": 1.0,
                        "original_dtype": "float32"
                    }
                },
                {
                    "name": "PartitionedCall/transpose_87/perm",
                    "shape": [4],
                    "dtype": "int32"
                },
                {
                    "name": "PartitionedCall/split_22",
                    "shape": [1, 1, 240, 80],
                    "dtype": "float32",
                    "quantization": {
                        "dtype": "uint8",
                        "min": -0.6172487445906096,
                        "scale": 0.004822255817114138,
                        "original_dtype": "float32"
                    }
                },
                {
                    "name": "unknown_58",
                    "shape": [80],
                    "dtype": "float32",
                    "quantization": {
                        "dtype": "uint8",
                        "min": -4.1799026657553275,
                        "scale": 0.0302891497518502,
                        "original_dtype": "float32"
                    }
                },
                {
                    "name": "PartitionedCall/transpose_88/perm",
                    "shape": [4],
                    "dtype": "int32"
                },
                {
                    "name": "ConstantFolding/PartitionedCall/split_26-folded-1",
                    "shape": [2],
                    "dtype": "int32"
                },
                {
                    "name": "PartitionedCall/transpose_102/perm",
                    "shape": [4],
                    "dtype": "int32"
                },
                {
                    "name": "PartitionedCall/split_27",
                    "shape": [1, 1, 80, 40],
                    "dtype": "float32",
                    "quantization": {
                        "dtype": "uint8",
                        "min": -0.42372005289676146,
                        "scale": 0.0037497349813872694,
                        "original_dtype": "float32"
                    }
                },
                {
                    "name": "PartitionedCall/transpose_103/perm",
                    "shape": [4],
                    "dtype": "int32"
                },
                {
                    "name": "PartitionedCall/Const_9",
                    "shape": [2],
                    "dtype": "int32"
                },
                {
                    "name": "PartitionedCall/onnx_tf_prefix_/_net/decoder/Split/split_dim",
                    "shape": [],
                    "dtype": "int32"
                },
                {
                    "name": "PartitionedCall/onnx_tf_prefix_/_net/decoder/Concat/axis",
                    "shape": [],
                    "dtype": "int32"
                },
                {
                    "name": "PartitionedCall/transpose_110/perm",
                    "shape": [4],
                    "dtype": "int32"
                },
                {
                    "name": "PartitionedCall/Cast_1",
                    "shape": [2],
                    "dtype": "int32"
                },
                {
                    "name": "PartitionedCall/transpose_111/perm",
                    "shape": [4],
                    "dtype": "int32"
                },
                {
                    "name": "PartitionedCall/SelectV2_1",
                    "shape": [2],
                    "dtype": "int32"
                },
                {
                    "name": "PartitionedCall/zeros",
                    "shape": [],
                    "dtype": "int32"
                },
                {
                    "name": "PartitionedCall/Const_14",
                    "shape": [],
                    "dtype": "int32"
                },
                {
                    "name": "PartitionedCall/Shape",
                    "shape": [4],
                    "dtype": "int32"
                },
                {
                    "name": "PartitionedCall/SelectV2_2",
                    "shape": [2],
                    "dtype": "int32"
                },
                {
                    "name": "PartitionedCall/Const_13",
                    "shape": [],
                    "dtype": "int32"
                },
                {
                    "name": "PartitionedCall/ExpandDims",
                    "shape": [2, 1],
                    "dtype": "int32"
                },
                {
                    "name": "PartitionedCall/Cast_3",
                    "shape": [1],
                    "dtype": "int32"
                },
                {
                    "name": "PartitionedCall/Const_15",
                    "shape": [],
                    "dtype": "int32"
                },
                {
                    "name": "PartitionedCall/onnx_tf_prefix_/_net/decoder/Concat_3/axis",
                    "shape": [],
                    "dtype": "int32"
                },
                {
                    "name": "PartitionedCall/Const_16",
                    "shape": [4, 2],
                    "dtype": "int32"
                },
                {
                    "name": "PartitionedCall/transpose_113/perm",
                    "shape": [4],
                    "dtype": "int32"
                },
                {
                    "name": "PartitionedCall/split_30",
                    "shape": [3, 3, 83, 32],
                    "dtype": "float32",
                    "quantization": {
                        "dtype": "uint8",
                        "min": -0.29372864470762367,
                        "scale": 0.0023687793928034166,
                        "original_dtype": "float32"
                    }
                },
                {
                    "name": "unknown_79",
                    "shape": [32],
                    "dtype": "float32",
                    "quantization": {
                        "dtype": "uint8",
                        "min": -0.9865725835164387,
                        "scale": 0.007254210172914991,
                        "original_dtype": "float32"
                    }
                },
                {
                    "name": "PartitionedCall/transpose_114/perm",
                    "shape": [4],
                    "dtype": "int32"
                },
                {
                    "name": "PartitionedCall/Const_17",
                    "shape": [2],
                    "dtype": "int32"
                },
                {
                    "name": "PartitionedCall/onnx_tf_prefix_/_net/decoder/Split_1/split_dim",
                    "shape": [],
                    "dtype": "int32"
                },
                {
                    "name": "PartitionedCall/onnx_tf_prefix_/_net/decoder/Concat_4/axis",
                    "shape": [],
                    "dtype": "int32"
                },
                {
                    "name": "PartitionedCall/transpose_121/perm",
                    "shape": [4],
                    "dtype": "int32"
                },
                {
                    "name": "PartitionedCall/Cast_4",
                    "shape": [2],
                    "dtype": "int32"
                },
                {
                    "name": "PartitionedCall/transpose_122/perm",
                    "shape": [4],
                    "dtype": "int32"
                },
                {
                    "name": "PartitionedCall/SelectV2_5",
                    "shape": [2],
                    "dtype": "int32"
                },
                {
                    "name": "PartitionedCall/zeros_1",
                    "shape": [],
                    "dtype": "int32"
                },
                {
                    "name": "PartitionedCall/Const_22",
                    "shape": [],
                    "dtype": "int32"
                },
                {
                    "name": "PartitionedCall/Shape_1",
                    "shape": [4],
                    "dtype": "int32"
                },
                {
                    "name": "PartitionedCall/SelectV2_6",
                    "shape": [2],
                    "dtype": "int32"
                },
                {
                    "name": "PartitionedCall/Const_21",
                    "shape": [],
                    "dtype": "int32"
                },
                {
                    "name": "PartitionedCall/ExpandDims_1",
                    "shape": [2, 1],
                    "dtype": "int32"
                },
                {
                    "name": "PartitionedCall/Cast_6",
                    "shape": [1],
                    "dtype": "int32"
                },
                {
                    "name": "PartitionedCall/Const_23",
                    "shape": [],
                    "dtype": "int32"
                },
                {
                    "name": "PartitionedCall/onnx_tf_prefix_/_net/decoder/Concat_7/axis",
                    "shape": [],
                    "dtype": "int32"
                },
                {
                    "name": "PartitionedCall/Const_24",
                    "shape": [4, 2],
                    "dtype": "int32"
                },
                {
                    "name": "PartitionedCall/transpose_124/perm",
                    "shape": [4],
                    "dtype": "int32"
                },
                {
                    "name": "PartitionedCall/split_33",
                    "shape": [3, 3, 59, 24],
                    "dtype": "float32",
                    "quantization": {
                        "dtype": "uint8",
                        "min": -0.41770444816234065,
                        "scale": 0.003048937577827304,
                        "original_dtype": "float32"
                    }
                },
                {
                    "name": "unknown_87",
                    "shape": [24],
                    "dtype": "float32",
                    "quantization": {
                        "dtype": "uint8",
                        "min": -0.5089098846211153,
                        "scale": 0.007270141208873076,
                        "original_dtype": "float32"
                    }
                },
                {
                    "name": "PartitionedCall/transpose_125/perm",
                    "shape": [4],
                    "dtype": "int32"
                },
                {
                    "name": "PartitionedCall/Const_25",
                    "shape": [2],
                    "dtype": "int32"
                },
                {
                    "name": "PartitionedCall/onnx_tf_prefix_/_net/decoder/Split_2/split_dim",
                    "shape": [],
                    "dtype": "int32"
                },
                {
                    "name": "PartitionedCall/onnx_tf_prefix_/_net/decoder/Concat_8/axis",
                    "shape": [],
                    "dtype": "int32"
                },
                {
                    "name": "PartitionedCall/transpose_132/perm",
                    "shape": [4],
                    "dtype": "int32"
                },
                {
                    "name": "PartitionedCall/Cast_7",
                    "shape": [2],
                    "dtype": "int32"
                },
                {
                    "name": "PartitionedCall/transpose_133/perm",
                    "shape": [4],
                    "dtype": "int32"
                },
                {
                    "name": "PartitionedCall/SelectV2_9",
                    "shape": [2],
                    "dtype": "int32"
                },
                {
                    "name": "PartitionedCall/zeros_2",
                    "shape": [],
                    "dtype": "int32"
                },
                {
                    "name": "PartitionedCall/Const_30",
                    "shape": [],
                    "dtype": "int32"
                },
                {
                    "name": "PartitionedCall/Shape_2",
                    "shape": [4],
                    "dtype": "int32"
                },
                {
                    "name": "PartitionedCall/SelectV2_10",
                    "shape": [2],
                    "dtype": "int32"
                },
                {
                    "name": "PartitionedCall/Const_29",
                    "shape": [],
                    "dtype": "int32"
                },
                {
                    "name": "PartitionedCall/ExpandDims_2",
                    "shape": [2, 1],
                    "dtype": "int32"
                },
                {
                    "name": "PartitionedCall/Cast_9",
                    "shape": [1],
                    "dtype": "int32"
                },
                {
                    "name": "PartitionedCall/Const_31",
                    "shape": [],
                    "dtype": "int32"
                },
                {
                    "name": "PartitionedCall/onnx_tf_prefix_/_net/decoder/Concat_11/axis",
                    "shape": [],
                    "dtype": "int32"
                },
                {
                    "name": "PartitionedCall/Const_32",
                    "shape": [4, 2],
                    "dtype": "int32"
                },
                {
                    "name": "PartitionedCall/transpose_135/perm",
                    "shape": [4],
                    "dtype": "int32"
                },
                {
                    "name": "PartitionedCall/split_36",
                    "shape": [3, 3, 43, 20],
                    "dtype": "float32",
                    "quantization": {
                        "dtype": "uint8",
                        "min": -0.508789113923615,
                        "scale": 0.004424253164553174,
                        "original_dtype": "float32"
                    }
                },
                {
                    "name": "unknown_95",
                    "shape": [20],
                    "dtype": "float32",
                    "quantization": {
                        "dtype": "uint8",
                        "min": -1.3735021114349364,
                        "scale": 0.016750025749206542,
                        "original_dtype": "float32"
                    }
                },
                {
                    "name": "PartitionedCall/transpose_136/perm",
                    "shape": [4],
                    "dtype": "int32"
                },
                {
                    "name": "PartitionedCall/Const_33",
                    "shape": [2],
                    "dtype": "int32"
                },
                {
                    "name": "PartitionedCall/onnx_tf_prefix_/_net/decoder/Split_3/split_dim",
                    "shape": [],
                    "dtype": "int32"
                },
                {
                    "name": "PartitionedCall/onnx_tf_prefix_/_net/decoder/Concat_12/axis",
                    "shape": [],
                    "dtype": "int32"
                },
                {
                    "name": "PartitionedCall/transpose_143/perm",
                    "shape": [4],
                    "dtype": "int32"
                },
                {
                    "name": "PartitionedCall/Cast_10",
                    "shape": [2],
                    "dtype": "int32"
                },
                {
                    "name": "PartitionedCall/transpose_144/perm",
                    "shape": [4],
                    "dtype": "int32"
                },
                {
                    "name": "PartitionedCall/SelectV2_13",
                    "shape": [2],
                    "dtype": "int32"
                },
                {
                    "name": "PartitionedCall/zeros_3",
                    "shape": [],
                    "dtype": "int32"
                },
                {
                    "name": "PartitionedCall/Const_38",
                    "shape": [],
                    "dtype": "int32"
                },
                {
                    "name": "PartitionedCall/Shape_3",
                    "shape": [4],
                    "dtype": "int32"
                },
                {
                    "name": "PartitionedCall/SelectV2_14",
                    "shape": [2],
                    "dtype": "int32"
                },
                {
                    "name": "PartitionedCall/Const_37",
                    "shape": [],
                    "dtype": "int32"
                },
                {
                    "name": "PartitionedCall/ExpandDims_3",
                    "shape": [2, 1],
                    "dtype": "int32"
                },
                {
                    "name": "PartitionedCall/Cast_12",
                    "shape": [1],
                    "dtype": "int32"
                },
                { "name": "unknown_77", "shape": [2], "dtype": "int32" },
                {
                    "name": "PartitionedCall/Const_39",
                    "shape": [],
                    "dtype": "int32"
                },
                {
                    "name": "PartitionedCall/onnx_tf_prefix_/_net/decoder/Concat_15/axis",
                    "shape": [],
                    "dtype": "int32"
                },
                {
                    "name": "PartitionedCall/Const_40",
                    "shape": [4, 2],
                    "dtype": "int32"
                },
                {
                    "name": "PartitionedCall/transpose_146/perm",
                    "shape": [4],
                    "dtype": "int32"
                },
                {
                    "name": "PartitionedCall/split_39",
                    "shape": [3, 3, 23, 16],
                    "dtype": "float32",
                    "quantization": {
                        "dtype": "uint8",
                        "min": -0.5988915036706364,
                        "scale": 0.0046068577205433565,
                        "original_dtype": "float32"
                    }
                },
                {
                    "name": "unknown_103",
                    "shape": [16],
                    "dtype": "float32",
                    "quantization": {
                        "dtype": "uint8",
                        "min": -0.4979317000099257,
                        "scale": 0.004568180734036016,
                        "original_dtype": "float32"
                    }
                },
                {
                    "name": "PartitionedCall/transpose_147/perm",
                    "shape": [4],
                    "dtype": "int32"
                },
                {
                    "name": "PartitionedCall/Const_41",
                    "shape": [4, 2],
                    "dtype": "int32"
                },
                {
                    "name": "PartitionedCall/transpose_149/perm",
                    "shape": [4],
                    "dtype": "int32"
                },
                {
                    "name": "PartitionedCall/split_40",
                    "shape": [3, 3, 16, 16],
                    "dtype": "float32",
                    "quantization": {
                        "dtype": "uint8",
                        "min": -0.539531722723269,
                        "scale": 0.004215091583775539,
                        "original_dtype": "float32"
                    }
                },
                {
                    "name": "unknown_105",
                    "shape": [16],
                    "dtype": "float32",
                    "quantization": {
                        "dtype": "uint8",
                        "min": -0.4329616981394151,
                        "scale": 0.006274807219411813,
                        "original_dtype": "float32"
                    }
                },
                {
                    "name": "PartitionedCall/transpose_150/perm",
                    "shape": [4],
                    "dtype": "int32"
                },
                {
                    "name": "PartitionedCall/Const_42",
                    "shape": [4, 2],
                    "dtype": "int32"
                },
                {
                    "name": "PartitionedCall/transpose_152/perm",
                    "shape": [4],
                    "dtype": "int32"
                },
                {
                    "name": "PartitionedCall/split_41",
                    "shape": [3, 3, 16, 5],
                    "dtype": "float32",
                    "quantization": {
                        "dtype": "uint8",
                        "min": -0.4690280516942342,
                        "scale": 0.0038762648900349935,
                        "original_dtype": "float32"
                    }
                },
                {
                    "name": "unknown_107",
                    "shape": [5],
                    "dtype": "float32",
                    "quantization": {
                        "dtype": "uint8",
                        "min": -0.1273313628692253,
                        "scale": 0.0007153447352203668,
                        "original_dtype": "float32"
                    }
                },
                {
                    "name": "PartitionedCall/transpose_153/perm",
                    "shape": [4],
                    "dtype": "int32"
                },
                {
                    "name": "PartitionedCall/SelectV2_21",
                    "shape": [1],
                    "dtype": "int32"
                },
                {
                    "name": "PartitionedCall/zeros_5",
                    "shape": [],
                    "dtype": "int32"
                },
                {
                    "name": "PartitionedCall/Const_47",
                    "shape": [],
                    "dtype": "int32"
                },
                {
                    "name": "PartitionedCall/Shape_5",
                    "shape": [4],
                    "dtype": "int32"
                },
                {
                    "name": "PartitionedCall/SelectV2_22",
                    "shape": [1],
                    "dtype": "int32"
                },
                {
                    "name": "PartitionedCall/Const_46",
                    "shape": [],
                    "dtype": "int32"
                },
                {
                    "name": "PartitionedCall/ExpandDims_5",
                    "shape": [1, 1],
                    "dtype": "int32"
                },
                {
                    "name": "PartitionedCall/Cast_16",
                    "shape": [1],
                    "dtype": "int32"
                },
                {
                    "name": "PartitionedCall/Const_48",
                    "shape": [],
                    "dtype": "int32"
                },
                {
                    "name": "PartitionedCall/onnx_tf_prefix_/_net/decoder/Concat_16/axis",
                    "shape": [],
                    "dtype": "int32"
                },
                {
                    "name": "PartitionedCall/SelectV2_25",
                    "shape": [1],
                    "dtype": "int32"
                },
                {
                    "name": "PartitionedCall/zeros_6",
                    "shape": [],
                    "dtype": "int32"
                },
                {
                    "name": "PartitionedCall/Const_50",
                    "shape": [],
                    "dtype": "int32"
                },
                {
                    "name": "PartitionedCall/Shape_6",
                    "shape": [4],
                    "dtype": "int32"
                },
                {
                    "name": "PartitionedCall/SelectV2_26",
                    "shape": [1],
                    "dtype": "int32"
                },
                {
                    "name": "PartitionedCall/Const_49",
                    "shape": [],
                    "dtype": "int32"
                },
                {
                    "name": "PartitionedCall/ExpandDims_6",
                    "shape": [1, 1],
                    "dtype": "int32"
                },
                {
                    "name": "PartitionedCall/Cast_18",
                    "shape": [1],
                    "dtype": "int32"
                },
                { "name": "unknown_108", "shape": [1], "dtype": "int32" },
                {
                    "name": "PartitionedCall/Const_51",
                    "shape": [],
                    "dtype": "int32"
                }
            ]
        }
    ]
}
